src/coinjump/ppo_coinjump_model/PPO_CoinJumpEnv-v1_123456_11914.pth (torch, 29383 bytes, 9 tensors)

weight f4 [40, 60]
00000000: 00b9 903a e40b a83d 714b 2cbd bcb3 923d
00000010: 26bc 253c b8e3 483d 92f7 523c 3486 81bc
00000020: 15fa bd3d c84e 293f eaf0 a23d 8691 f53d
00000030: a091 5d3c f19b 02be 90b6 d0bd 21d6 87bd
00000040: 006d 6f3b 724e 5bbd 1d4f 00be 2448 4ebd
00000050: 8017 16bb 04de 373d dcf6 453d a284 d53d
00000060: ed0c c0bd 986c 73bd 7235 c4bd ac69 51bd
00000070: 4b20 febd c08b e83d 66ec c5bd 647a 233d
00000080: 7041 c93c 6701 d1bd fe94 973c 4340 a73d
00000090: 022c f7bd aa64 5fbd 4a63 97bd 7287 d2bd
000000a0: 54bc 26bd e0da e73b 038a babd 659b 293e
000000b0: 0a84 5cbd 24c3 55bd 0381 02be 545a 0cbd
000000c0: a860 ec3d 70fe 25bd f4c4 433d b395 37be
000000d0: 9dc8 5ebe 783e b5be 64b0 a33d 046f 823d
000000e0: 0f03 b7bd 8c98 f63d 6282 d8bd 18a2 813c
000000f0: b88f cebc c08c 433b 6ebb 883d 8696 1a3e
00000100: a606 1a3d 0052 433c d0e5 043e b39f 48be
00000110: 48a4 2d3e 311a a63f 391e aa3e 3843 adbd
00000120: 02bc 863d 510c 033e cf19 f7bd 8452 01be
00000130: 72e7 76bd 11ea 85bd 741a 58bd 90d2 2b3d
00000140: 0632 11bd 7002 643d b0c6 e2bd 46b4 0ebd
00000150: cc82 483d 52e4 da3d 064f 48bd ce61 f13d
00000160: 1edb 9ebd ce6a 8d3d 800f 893d c8a9 e2bc
00000170: 053f 023e bb90 d53d e8a4 b2bc 7591 d83d
00000180: c5ea 553c 489f f1bc 1103 b1bd ffc4 bcbd
00000190: 70f3 093c e496 003d 0560 bbbd 862d 0d3e
000001a0: a7b1 39bd db45 82bd 3e6e 8cbd 00ab 73bb
000001b0: 304e 7f3c f27b c03d 907e 48bd 7032 05be
000001c0: 8af3 423e 53e7 e5bd e4d3 653d 2dd1 003e
000001d0: 30b8 373c 4ada b53d bff4 8cbd 5252 e43d
000001e0: 40ec ee3b 140c 753d 261c d43d f311 10bd
000001f0: 4781 703d ca33 a43d 1ea0 f3bc 8297 283e
00000200: bce8 8cbc 3c44 7bbf 3252 f7bd 282c 03be
00000210: 5013 2dbc 9e47 3dbd 40ad 723d c14d e2bd
00000220: 6e52 fa3d f84d 2e3d 6ed9 d13d d606 943d
00000230: c263 ad3d 80d9 b5bb 8a49 be3d 5206 2cbd
00000240: 0273 e93d c00c 703b 9447 df3d fc2e e1bd
00000250: aa2d 19bd 89c2 03be 1da7 8fbd 9e08 47bd
00000260: 6ab2 35bd 33f2 eebb ca85 f63d 1230 1abd
00000270: 5900 03be c4bc 673d cc38 3bbd 24aa d4bc
00000280: a0cd 803c 70fc af3d 7fe3 2fbd d402 86bd
00000290: 62cb 2cbd 1dd1 99bd aa63 19bd 7071 03bc
000002a0: 4273 e2bd 675d fcbd 18a9 30bc a6f0 953e
000002b0: 920d 28be 0dcd 983e 761a b6bd 92f3 f33d
000002c0: 7204 a83d a516 ffbd 2892 ccbd cccd 44bd
000002d0: ae8b e93d c57c aabd 40ee 303e 519c 083d
000002e0: 3506 8dbd 1045 623d f10b 573c ea0c 58be
000002f0: f3bb 3bbe e984 823e 896f a8be c830 61bc
00000300: 48b9 92bd c889 25bc 00e4 82bb 548b 613d
00000310: 90fd 74bd 146b 4abd 02ce ab3d 08f5 7dbd
00000320: 8e9f 89bd 2c51 ee3d 6c6f de3d ea3d 71bd
00000330: 0290 79bd 408d 3a3b 380a 3ebd 623a 96bd
00000340: 48cb cfbd 46fa c9bd bb25 013e 807d 8d3a
00000350: 804f 763c 2c31 223e f936 463e 5a57 ac3d
00000360: 0f4b 46bd 9844 3fbc c633 ba3d 1013 c23d
00000370: ead1 babd d466 f23d 7c5c a23d 0403 a23d
00000380: 64aa 16bd 6476 9bbc 3a9c a33d 0025 ceba
00000390: d08d dcbd 20bb 543c 0090 f339 c274 31bd
000003a0: 0adc 813d dd79 5c3d 70af c73d 8071 d93b
000003b0: e805 083d e6bb b03d 17ae afbd 48be 13bd
000003c0: 3e24 a53d 68c3 d63d 8494 ac3d dcee 96bc
000003d0: 63fb 12be da74 f03d 03f7 78bd 72e1 0bbe
000003e0: cb58 13be db63 d33d b741 4abd c849 4f3d
000003f0: 62ca 07bd c49f 7e3d 8c23 ebbc b837 be3c
0.0011041462 0.08205393 -0.042064134 0.07163188 0.010115659 0.049045295 0.012876408 -0.015811063
0.09276215 0.66135836 0.07956107 0.11990647 0.013523489 -0.127548 -0.10191071 -0.06632639
0.0036533475 -0.05354161 -0.1253018 -0.050361767 -0.002290219 0.044889465 0.048331127 0.10425688
-0.093774654 -0.059429735 -0.095805064 -0.051126167 -0.12408503 0.1135478 -0.0966423 0.039911643
0.024567336 -0.102053456 0.018503662 0.08166554 -0.12068941 -0.05453936 -0.07391985 -0.102797404
-0.040706947 0.0070756525 -0.09108355 0.16563185 -0.05383686 -0.052188054 -0.12744527 -0.03426583
0.11541873 -0.040525854 0.04779525 -0.179282 -0.21756215 -0.35399222 0.07992628 0.06368831
-0.0893613 0.12040815 -0.105717435 0.015824363 -0.025215015 0.0029838532 0.066763744 0.15096483
0.037603997 0.011921406 0.12978292 -0.1959217 0.169572 1.2976743 0.33226183 -0.084600866
0.065788284 0.12797667 -0.120654695 -0.12629133 -0.060279317 -0.06538785 -0.052759603 0.041948855
-0.035448097 0.055666387 -0.11073053 -0.03483989 0.048952863 0.1068808 -0.048903488 0.11786233
-0.07756637 0.06905137 0.066924095 -0.027668849 0.12719353 0.10427996 -0.021807149 0.10574619
0.013056462 -0.029494897 -0.08643163 -0.092172615 0.008419856 0.0313939 -0.09149174 0.13786897
-0.045335438 -0.0636098 -0.068569645 -0.0037180781 0.015582606 0.09398641 -0.048948824 -0.13007522
0.19038215 -0.11225762 0.056110278 0.12579794 0.011213347 0.08879526 -0.06882619 0.11148514
0.007291347 0.05982597 0.103569314 -0.035173368 0.05871704 0.080176905 -0.029739436 0.16464046
-0.01720082 -0.9815099 -0.120762244 -0.12809813 -0.0105636865 -0.046210878 0.059247255 -0.11049987
0.122227535 0.042554826 0.102465495 0.07227866 0.08466293 -0.0055496097 0.0929137 -0.041998215
0.11398889 0.0036628693 0.10902324 -0.1099529 -0.037397064 -0.12867178 -0.07014296 -0.048592202
-0.044359602 -0.007292056 0.12037237 -0.0376435 -0.12793101 0.056576505 -0.045708463 -0.025960036
0.01572305 0.085930705 -0.042941567 -0.06543508 -0.04218615 -0.07510588 -0.037448563 -0.008022651
-0.1105714 -0.123225026 -0.010782503 0.29285163 -0.16411427 0.2984394 -0.08891766 0.11911692
0.08203973 -0.12455491 -0.099888146 -0.048047826 0.11403595 -0.08324579 0.17278385 0.0333522
-0.068859495 0.055241644 0.013125406 -0.21098676 -0.18333416 0.25492027 -0.32897595 -0.0137445405
-0.07164246 -0.01010365 -0.003994465 0.055064514 -0.05981213 -0.049418524 0.08388902 -0.062001258
-0.06719886 0.11636576 0.10861096 -0.058896936 -0.060928352 0.002846554 -0.046396464 -0.073353544
-0.10146195 -0.09862189 0.1261205 0.0010794848 0.015033603 0.1583907 0.19356908 0.084150985
-0.048411425 -0.011674069 0.09091906 0.09476292 -0.09122069 0.11836019 0.07927796 0.079107314
-0.03678359 -0.018977351 0.07988782 -0.001572758 -0.10769236 0.012984067 0.0004645586 -0.04332424
0.06340797 0.053827155 0.09750259 0.0066358447 0.033208758 0.08629589 -0.08578127 -0.03607014
0.08063553 0.104864895 0.084267646 -0.018424444 -0.14353709 0.11741038 -0.060782444 -0.1366022
-0.1438934 0.1032178 -0.049379077 0.050607473 -0.03315199 0.062164083 -0.028703474 0.023219928

bias f4 [40]
00000000: 79c0 7fbc 404a 893d 3b5b 09bd 0421 84bd
00000010: b68d 263c 8caa 2a3c 0e01 e7bc 45f0 823d
00000020: 84d1 4cbd ae21 233d 7e96 05be a23e ba3d
00000030: 2c49 a1bd 2e39 00be e403 86bd b070 18bd
00000040: 0551 223d 0662 50bd bfb0 203d e13d 5f3d
00000050: 74be 383d 284c 3b3d 2029 d5bd 94ba 1cbd
00000060: 7a5a 96bd f744 793c 4704 d3bc a175 eebd
00000070: 00d7 643c d3bb 813d 0477 02be e790 013e
00000080: 8003 adbd 48fc a63d 9e20 883d d38d e6bd
00000090: f0d7 0e3d 166c b2bd 8cd4 1f3e 06c8 e6bd
-0.015609854 0.06703615 -0.03353427 -0.0645161 0.010165622 0.010416638 -0.028198745 0.06393484
-0.050004497 0.03982704 -0.1304569 0.090939775 -0.078752846 -0.12521812 -0.06543711 -0.037216842
0.039628047 -0.050874732 0.03923106 0.05450237 0.045103505 0.045726925 -0.104082346 -0.038263872
-0.07341476 0.015214196 -0.025758876 -0.1164353 0.013967276 0.06334653 -0.12740713 0.12652932
-0.08447933 0.081535876 0.06646846 -0.112575196 0.034873903 -0.08712022 0.15608424 -0.1126862

weight f4 [3, 40]
00000000: 8728 51be 48f4 c5be fe9c ab3e 407d 99be
00000010: cd82 87bd e625 39bc bd12 403e 4fb2 30be
00000020: 96de 34be c3a9 b93d 83ac 1e3f 8a6d 4d3d
00000030: f2aa 643b b4e3 f3bc 6523 2b3e ede1 923e
00000040: 4723 7f3d f1bc 0f3e 23cd 8e3d ac6d c3be
00000050: a367 04bf eb48 a9bd 50e8 30bc 3020 013d
00000060: 6cf2 063d 2eb5 3abe b637 ebbc 0859 dabe
00000070: dace 9e3d 12f8 013e 065f 04be 45d8 0fbe
00000080: 25c2 5e3e a9c4 4a3e a1e8 153e 8598 b13e
00000090: 36b6 06bf a984 d7bd 3bd0 1cbe bd8c 85bc
000000a0: f15c 7d3e f94a 0d3e b432 a8be 7481 14be
000000b0: 608b 0fbe 814b f13c 6e73 f33d a67f 9fbd
000000c0: 7a48 f03b ed01 df3a 976e f33e 672d f8bd
000000d0: 340b d53e 00a5 babd b0a2 b3be 0b45 9b3e
000000e0: e5c3 503e fe4a ccbd aec7 0cba 9341 513e
000000f0: 27ec b23d 35af 5fbc db2f 0a3e af8a 8e3d
00000100: 6a61 c7bd 5e12 4a3e 8da9 0dbe 65cc 863e
00000110: dc53 a13d 2578 913c 08e3 d4bd 08a1 9ebc
00000120: 47fc 9f3d 1af4 86be 459c 7bbe 2ac4 abbe
00000130: 8773 9c3e 6415 ac3d 6a00 33be 7cbe ef3d
00000140: 7f3c 05be 0f68 9d3d 3166 c5bd 93c8 973e
00000150: a872 493d 3734 f83d e510 5ebe 4268 3e3e
00000160: a7db 583e 9254 0f3e cfc9 97bf 8a7a b5bd
00000170: 2cf8 a8be f50a 00be 6612 0cbd 3595 7ebe
00000180: 0626 9ebe fa15 4abd 1837 5fbd 64f9 35bd
00000190: 6231 8a3d 92af 843e c7c3 113e 4bb3 bf3d
000001a0: 6a6a cb3d 4fec 913d bac8 cd3d 2349 c63c
000001b0: 5271 a83d 4950 abbd 8f9b 12bc fae8 23bd
000001c0: f860 69be 7cdd 723d f4aa b23d d50e d0bb
000001d0: ece5 373e 5376 323e 47a4 713d 2ab2 6fbe
-0.20425616 -0.38662934 0.33518213 -0.2997837 -0.06616745 -0.01130054 0.18757148 -0.1725552
-0.17663035 0.090655826 0.6198198 0.050153293 0.003489193 -0.029771663 0.1671272 0.28687993
0.062289502 0.14036919 0.069727205 -0.3816961 -0.5172064 -0.08265861 -0.010797575 0.031524837
0.032946035 -0.18233177 -0.028713088 -0.4264605 0.077542976 0.12692288 -0.12926874 -0.14047344
0.21753748 0.19801582 0.14639522 0.34686676 -0.5262178 -0.1052335 -0.15313809 -0.01630246
0.24742486 0.13798131 -0.32851183 -0.14502507 -0.14018011 0.029454948 0.11887251 -0.07788019
0.0073328586 0.0017014124 0.4754531 -0.12118035 0.4161011 -0.091135025 -0.35085058 0.30326113
0.20387228 -0.09975241 -0.0005370331 0.20435171 0.08736449 -0.013652612 0.13494818 0.069600455
-0.09735377 0.19733569 -0.1383421 0.26327816 0.07877323 0.017757485 -0.10394865 -0.019363895
0.0781179 -0.2635811 -0.24571331 -0.335481 0.3055689 0.084025174 -0.17480627 0.11706254
-0.13011359 0.07685863 -0.09638632 0.29645213 0.04918161 0.12119334 -0.21686132 0.18594459
0.2117754 0.13997105 -1.1858462 -0.08861263 -0.3300184 -0.1250418 -0.034197234 -0.24861605
-0.30888385 -0.049337365 -0.0544959 -0.04442729 0.067477 0.259152 0.1423484 0.09360369
0.09932406 0.071251504 0.10048051 0.024204796 0.08224739 -0.083649226 -0.008948221 -0.040017106
-0.22790897 0.059293255 0.08724013 -0.0063494244 0.17958802 0.1742795 0.058994558 -0.23407808

bias f4 [3]
00000000: 609b cfbd 6ac1 babb dc81 7a3d
-0.10137057 -0.0056993263 0.061159

weight f4 [40, 60]
00000000: d035 153d 80ca 403b 80de 283d 512b 39b6
00000010: e984 83bd 5a0d 4abd 79d1 a83d abdc 96bd
00000020: dbbc 913d cedf 2b3d 873b 71bc 540c efbc
00000030: 000c caba 0846 f53c 12b1 fa3d a235 51bd
00000040: 307c d63c 6239 eabd 6eff dbbd 48bb 9cbd
00000050: fa20 0dbd 7716 9cbd 3464 84bd 5837 8dbd
00000060: 2064 57bc 68a8 c53d 4690 04bd 5a60 f33d
00000070: ae8f 05bd 30c9 983d 904b 633d e0e2 acbc
00000080: 1205 c33d 1865 c53d ecc1 afbc 6070 383c
00000090: 8d6d 30be 4091 48bb 31de dabd 7093 dfbb
000000a0: 740b febc 15f8 003e f589 943c 06a6 2e3e
000000b0: 2dc4 1ebd 34ac 2dbd 4833 c6bc 34b4 6f3d
000000c0: f350 97bd 0054 49b9 a49b ca3d 2f7f 353d
000000d0: 2248 07bd 2f09 643e da10 813d b266 a63d
000000e0: 3c8d bfbc 705f e93d a627 843d 1d94 e4bd
000000f0: 9b10 c2bd d89e 853d 394e f83c 63e1 203d
00000100: 30ed c9bd 5812 aa3d 1161 fcbd 30cd eb3d
00000110: 19e2 cdbd 3084 813e 71f3 493e 9c7d 84bd
00000120: 587f 55bc 5473 bdbd 4831 2e3d a09d 9e3b
00000130: 38ee 7fbc a0fd 903c ac53 4b3d 3ebd db3d
00000140: 409a db3c 6651 a0bd 5a51 b03d d0a2 c43d
00000150: 7414 ccbc 8c70 bfbd 04e1 4f3d 00d3 89bd
00000160: 1e1a ffbd 973d edbd 2278 cf3d 6c85 173d
00000170: 7056 973c 853a 8cbc 1f1e a1bc dd6f d5bd
00000180: dcc9 613e bccf 8f3d 2305 f7bd a07e 7a3d
00000190: 1e90 c13d e43e b5bd 3253 9bbd 1a8e 343e
000001a0: 978c cf3d 99c8 003e 1309 f0bd 6fe9 033e
000001b0: 45f9 f3bd 80a7 a0ba b4ac 99bc 8d20 7dbe
000001c0: 292b 98be a9b1 33be 3042 d6bc 4429 d4bc
000001d0: f85d 0abc 21f4 a2bd 77be efbd 280d 703d
000001e0: 675f bebd 11c3 d7bd 046f 4d3c 81df ba3d
000001f0: a107 5b3d 1839 ae3c c34c 6f3d de1d 0d3e
00000200: c173 f83b aec5 2ebe cb5e 39bd dcf1 4ebd
00000210: 04e2 7d3d d466 203d df21 f8bd 0b82 8ebd
00000220: 2277 fa3d dc70 043d 648d e0bd b8cc f43c
00000230: f405 113d 1a30 fc3d f764 d0bd 458c f1bd
00000240: fc1c 26bd f62d cabd 2afc 02bd 48db fdbd
00000250: 3641 f93d fcc2 d8bd 123b b7bd 5ac3 92bd
00000260: a6e1 b3bd 7c63 e53d cafd d03c 0d9a eabc
00000270: 10d2 9ebd 2067 f5bb 6230 6fbd 4e0c d0bd
00000280: 3e62 67bd 18ca 7bbd eb94 abbd ab07 be3d
00000290: 9240 d43d ef5d bebd a0b2 a83d f410 4b3d
000002a0: e87a e23c c8fd 813d 706e 463c 10c5 eebd
000002b0: 4aba f73d 110c edbd 9871 aa3d e8ef 2fbd
000002c0: 7ca4 913d d471 acbd e404 b03d 540a 593d
000002d0: 44fa 85bc 06ba 69bd 2a41 973d 44e2 653d
000002e0: 0e8b 82bd b23f a4bd afad 183e a839 62bd
000002f0: b029 4c3c 74ec 44be 565b 8d3d cee0 8e3d
00000300: e00e 1d3d 00f8 2dba 04bb 34bd 087c e03d
00000310: cf2c 043e 3806 cdbd 4cad 0ebd fcca 5abd
00000320: 4e03 05bd 0066 433d d83c 113d 879a 03be
00000330: d086 7b3c d083 66bc 241a 93bc 2766 bdbd
00000340: daa6 82bd 4833 8c3c fa9d b93d 5c3c ab3d
00000350: 7058 7f3d e1a3 a13d 8e8a e93d fc79 1cbd
00000360: 846b 27be e006 b23c 568b e4bd 16a5 d83d
00000370: 900b 493d 8eca 993d 5943 87bd 5444 a9bd
00000380: e2b6 263e b2d4 27bd 28ff b83d cb49 82bd
00000390: 5405 f7bd 1476 363d 7aa2 d63d 98b3 003e
000003a0: b9ee 0a3e 9c6e 99bc 7aa4 7fbd 7d02 bfbd
000003b0: 80e2 e63a 5c8f 93bd e07c 1a3d 20f8 f13b
000003c0: 1ea9 a13d 8ce4 fcbd cbba 223d 2bcf 663b
000003d0: 8d85 85bb 2479 43bd 519b 153d 0f62 e6bc
000003e0: 93c4 fc3b a66a c13e 16b4 963c fb7a b8bd
000003f0: 40df 6bbb 7088 ce3c 2a66 e4bd 7ae4 893d
0.036428273 0.0029417574 0.041227818 -2.7592362e-06 -0.06421835 -0.04932914 0.08243079 -0.07366308
0.071160994 0.041961484 -0.014723665 -0.029180683 -0.0015414953 0.02994062 0.12240805 -0.05107654
0.026182264 -0.11436726 -0.10742079 -0.076529086 -0.034455277 -0.07621472 -0.06464425 -0.068953216
-0.01314643 0.096512616 -0.032364152 0.11883612 -0.032607727 0.074602485 0.055491984 -0.021104276
0.095224515 0.09638423 -0.021454774 0.011257261 -0.1722929 -0.0030604154 -0.10686911 -0.006822996
-0.03101132 0.12594636 0.01813219 0.1705552 -0.038761307 -0.042400554 -0.024194375 0.058521464
-0.07388487 -0.00019200146 0.09892967 0.044310745 -0.033027776 0.22269128 0.06302042 0.08125056
-0.023382775 0.113951564 0.06452875 -0.11161063 -0.094758235 0.06524438 0.030310737 0.039277446
-0.09859693 0.0830428 -0.123232014 0.11513746 -0.1005289 0.25296164 0.19721772 -0.064692706
-0.013030849 -0.09250513 0.042527467 0.0048405677 -0.015620761 0.017699063 0.049640343 0.107294545
0.02680695 -0.078280255 0.086092666 0.096013665 -0.024912097 -0.093476385 0.0507517 -0.06729698
-0.12456153 -0.11584013 0.101303354 0.036992475 0.018473834 -0.017117748 -0.019667683 -0.10421727
0.2204966 0.07022044 -0.120615266 0.061155915 0.09451316 -0.08849886 -0.075842276 0.17632332
0.10134237 0.12576522 -0.11720481 0.12882017 -0.11912779 -0.001225695 -0.01875911 -0.24719448
-0.2972043 -0.1754824 -0.026154608 -0.025898583 -0.008445255 -0.0795672 -0.1170625 0.058606297
-0.0929554 -0.10535253 0.012538675 0.09124661 0.053474072 0.021267459 0.058422815 0.13780925
0.0075821583 -0.17067596 -0.045256417 -0.050523624 0.061983123 0.039160565 -0.121158354 -0.069583975
0.12229754 0.032334194 -0.10964468 0.029882774 0.035406068 0.12313862 -0.101755075 -0.117943324
-0.040554985 -0.098720476 -0.031978764 -0.1239534 0.12170641 -0.10584065 -0.08946814 -0.071661666
-0.087832734 0.11200616 0.025511641 -0.02863791 -0.0775491 -0.0074891 -0.05839575 -0.10158597
-0.056490175 -0.06147203 -0.08378013 0.09278806 0.10363878 -0.0929526 0.08237195 0.049576715
0.027646497 0.06347233 0.012111291 -0.116586804 0.12096079 -0.11574567 0.083224475 -0.0429534
0.07111451 -0.084201485 0.08594683 0.052988365 -0.016354688 -0.05706217 0.07385476 0.056123987
-0.06374179 -0.080199614 0.14910005 -0.055230767 0.012461111 -0.19230825 0.069021866 0.06976472
0.038344264 -0.0006636381 -0.044123664 0.10961157 0.12907718 -0.10010952 -0.034833238 -0.053416237
-0.032473855 0.047704697 0.035458416 -0.12851916 0.015351966 -0.0140695125 -0.0179568 -0.09248
-0.06379481 0.017114297 0.09063335 0.08361122 0.0623402 0.078925855 0.1140338 -0.03820227
-0.16349608 0.021731794 -0.11159389 0.10578363 0.049083292 0.07509337 -0.066046424 -0.08264986
0.16280702 -0.040974326 0.09033042 -0.06361731 -0.12061563 0.0445462 0.10480209 0.1256851
0.13567628 -0.0187295 -0.062412716 -0.093266465 0.001761511 -0.07205078 0.037716746 0.007384315
0.07893585 -0.12348279 0.03972892 0.0035218697 -0.0040747584 -0.04772295 0.036525074 -0.02812293
0.007713863 0.3777668 0.018396419 -0.09007832 -0.0035991222 0.025211543 -0.11152299 0.067330316

bias f4 [40]
00000000: fdd9 0a3e 83da bf3b 6e9e bdbd 03a5 75bd
00000010: 1b3d ec3c 0346 0abe 5ef6 03be 8d8c dc3d
00000020: 29ca e8bd 75a5 dc3c b0b4 793d 3336 dbbd
00000030: 8d99 3a3d d754 d3bd e673 97bd e0f5 b83d
00000040: cc92 04be 0b26 ef3d 9eeb 0e3d a67a 1a3d
00000050: 46d2 d33c 8a0d bb3d e021 e73b 3ba7 ab3d
00000060: bd9a 97bd ee31 c4bd f150 4dbd 784b 65bd
00000070: d08c 40bc 241f 0fbc caa2 18bd 303c abbd
00000080: de9f 28bd f1fc 213d 9f1a b0bd 81ce 52bd
00000090: c0f6 933c fe42 c8bd cdf9 4f3d 9721 90bc
0.13559718 0.005854906 -0.09258734 -0.05997182 0.028837731 -0.1350327 -0.1288695 0.107689954
-0.11366684 0.026934365 0.060963333 -0.10703697 0.045556594 -0.10318916 -0.07395153 0.09031272
-0.12946624 0.11677178 0.03489267 0.037714623 0.025857102 0.09133442 0.0070535988 0.08381506
-0.07402561 -0.09579836 -0.05012602 -0.055980176 -0.011752322 -0.008735452 -0.037264623 -0.08361089
-0.041168086 0.039547864 -0.085988276 -0.05146647 0.018061996 -0.09778403 0.050775338 -0.017594142

weight f4 [1, 40]
00000000: 96a5 97bd 2c68 aa3e b8bc 243e f971 0b3e
00000010: 721a db3d b705 1bbe 8225 4dbd d42a a1be
00000020: 2302 4f3d 82dc babe 0a3a 9a3d 5d68 ed3c
00000030: 3fdf 84be 5054 9c3d c746 043d 9dd6 99be
00000040: 50cf 133e a65c ac3d a4c9 53be aaad c53d
00000050: 084f 073e 8b53 a2bd 8ad1 ccbd a6a0 8e3e
00000060: 79ab b9bd 60ee 99bc 5a22 28bd 6191 023e
00000070: a6cb 1bbe 1106 84be 5d87 7fbe 00ed 3bbd
00000080: 28d7 e2bc 99ca 0bbe 1e27 89bd 858b 08be
00000090: 00ed 983c c2a3 8f3d 9faf c0bd 2ad5 cfbc
-0.0740463 0.33282602 0.16087615 0.13617696 0.106984034 -0.15138899 -0.0500846 -0.31477988
0.050539147 -0.3649636 0.07530601 0.028980428 -0.25951573 0.07633269 0.03229406 -0.3004655
0.14434552 0.08416109 -0.20682389 0.096522644 0.13213742 -0.07926091 -0.10000904 0.2785694
-0.09065909 -0.018790424 -0.041048385 0.1275077 -0.15214404 -0.25785878 -0.2495398 -0.045880318
-0.027690485 -0.13651504 -0.06696914 -0.13334472 0.018667698 0.07013656 -0.09408497 -0.0253702

probs f4 [3]
00000000: abaa aa3e abaa aa3e abaa aa3e
0.33333334 0.33333334 0.33333334

logits f4 [3]
00000000: 549f 8cbf 549f 8cbf 549f 8cbf
-1.0986123 -1.0986123 -1.0986123
