src/coinjump_learn/training/PPO_preTrained/CoinJumpEnvKD-v0/PPO_CoinJumpEnvKD-v0_123456_5154.pth (torch, 30087 bytes, 9 tensors)

weight f4 [40, 60]
0.0011041462 0.08205393 -0.034771085 0.07892494 0.017408855 0.049045295 0.0201696 0.11167536
0.06941873 -1.8922411 -0.010282797 0.11990647 0.013523489 -0.127548 -0.10191071 -0.06632639
0.0036533475 -0.05354161 -0.1253018 -0.050361767 -0.002290219 0.044889465 0.048331127 0.10425688
-0.093774654 -0.059429735 -0.095805064 -0.051126167 -0.12408503 0.1135478 -0.0966423 0.039911643
0.024567336 -0.06521376 0.09208436 0.118505135 -0.06078001 -0.05453936 -0.07391985 -0.102797404
-0.040706947 0.0070756525 -0.08379027 0.09014734 -0.0465437 -0.052188054 -0.12744527 -0.03426583
0.11541873 -0.040525854 0.04779525 0.46353972 -0.23742366 0.28882775 0.07992628 0.06368831
-0.0893613 0.12040815 -0.105717435 0.015824363 -0.025215015 0.0029838532 0.022330606 0.10653202
-0.006828996 0.011921406 0.08534983 -0.145902 0.036675755 0.06395245 0.09210529 -0.084600866
0.065788284 0.12797667 -0.120654695 -0.12629133 -0.060279317 -0.06538785 -0.052759603 0.041948855
-0.035448097 0.055666387 -0.11073053 -0.03483989 0.048952863 0.1068808 -0.048903488 0.11786233
-0.07756637 0.06905137 0.066924095 -0.027668849 0.12719353 0.08129467 0.036244243 0.082761005
0.0146867335 -0.029494897 -0.08643163 -0.092172615 0.008419856 0.0313939 -0.13592485 0.018405315
-0.08976839 -0.0636098 -0.068569645 -0.0037180781 0.015582606 0.09398641 -0.048948824 -0.09538813
0.043388724 -0.07757042 0.056110278 0.12579794 0.011213347 0.08879526 -0.06882619 0.11148514
0.007291347 0.05982597 0.051213965 -0.08752853 0.006361723 0.080176905 -0.08209463 0.023385987
-0.07290992 -0.07141104 -0.044047177 -0.12809813 -0.0105636865 -0.046210878 0.059247255 -0.11049987
0.122227535 0.042554826 0.102465495 0.07227866 0.08466293 -0.0055496097 0.0929137 -0.041998215
0.11398889 0.0036628693 0.10902324 -0.1099529 -0.037397064 -0.12867178 -0.07014296 -0.048592202
-0.044359602 -0.059647314 0.09733349 -0.089998856 -0.034854755 0.056576505 -0.045708463 -0.025960036
0.01572305 0.085930705 -0.09529699 -0.10636452 -0.09454153 -0.07510588 -0.037448563 -0.008022651
-0.1105714 -0.123225026 -0.010782503 0.10737613 -0.08493814 0.11296402 -0.08891766 0.11911692
0.08203973 -0.12455491 -0.099888146 -0.048047826 0.11403595 -0.08324579 0.10270999 -0.036721095
-0.13893305 0.055241644 -0.0569478 -0.11909298 0.0964855 0.0023266973 -0.021645918 -0.0137445405
-0.07164246 -0.01010365 -0.003994465 0.055064514 -0.05981213 -0.049418524 0.08388902 -0.062001258
-0.06719886 0.11636576 0.10861096 -0.058896936 -0.060928352 0.002846554 -0.046396464 -0.073353544
-0.10146195 -0.09862189 0.1261205 0.0010794848 0.015033603 0.1073606 0.09425339 0.03312117
-0.0047845542 -0.011674069 0.09091906 0.09476292 -0.09122069 0.11836019 0.009204486 0.053980056
-0.10685713 -0.018977351 0.07988782 -0.001572758 -0.10769236 0.012984067 0.0004645586 -0.04612849
0.020629572 0.051022924 0.09750259 0.0066358447 0.033208758 0.08629589 -0.08578127 -0.03607014
0.08063553 0.104864895 0.10192974 -0.00081692636 -0.12587573 0.11741038 -0.043174937 -0.11895773
-0.12624614 0.11979999 -0.032359213 0.050607473 -0.03315199 0.062164083 -0.028703474 0.023219928
00000000: 00b9 903a e40b a83d 206c 0ebd 66a3 a13d
00000010: 049d 8e3c b8e3 483d b83a a53c 0db6 e43d
00000020: 682b 8e3d f534 f2bf 2d79 28bc 8691 f53d
00000030: a091 5d3c f19b 02be 90b6 d0bd 21d6 87bd
00000040: 006d 6f3b 724e 5bbd 1d4f 00be 2448 4ebd
00000050: 8017 16bb 04de 373d dcf6 453d a284 d53d
00000060: ed0c c0bd 986c 73bd 7235 c4bd ac69 51bd
00000070: 4b20 febd c08b e83d 66ec c5bd 647a 233d
00000080: 7041 c93c cb8e 85bd ba96 bc3d d2b2 f23d
00000090: 76f4 78bd aa64 5fbd 4a63 97bd 7287 d2bd
000000a0: 54bc 26bd e0da e73b 3c9a abbd 2b9f b83d
000000b0: 9ba4 3ebd 24c3 55bd 0381 02be 545a 0cbd
000000c0: a860 ec3d 70fe 25bd f4c4 433d 1455 ed3e
000000d0: 301f 73be 3be1 933e 64b0 a33d 046f 823d
000000e0: 0f03 b7bd 8c98 f63d 6282 d8bd 18a2 813c
000000f0: b88f cebc c08c 433b adee b63c 762d da3d
00000100: c5c5 dfbb 0052 433c e4cb ae3d 5567 15be
00000110: 5139 163d 81f9 823d b3a1 bc3d 3843 adbd
00000120: 02bc 863d 510c 033e cf19 f7bd 8452 01be
00000130: 72e7 76bd 11ea 85bd 741a 58bd 90d2 2b3d
00000140: 0632 11bd 7002 643d b0c6 e2bd 46b4 0ebd
00000150: cc82 483d 52e4 da3d 064f 48bd ce61 f13d
00000160: 1edb 9ebd ce6a 8d3d 800f 893d c8a9 e2bc
00000170: 053f 023e d27d a63d d874 143d 9a7e a93d
00000180: a0a0 703c 489f f1bc 1103 b1bd ffc4 bcbd
00000190: 70f3 093c e496 003d e22f 0bbe bec6 963c
000001a0: 7dd8 b7bd db45 82bd 3e6e 8cbd 00ab 73bb
000001b0: 304e 7f3c f27b c03d 907e 48bd da5a c3bd
000001c0: 60b8 313d 3edd 9ebd e4d3 653d 2dd1 003e
000001d0: 30b8 373c 4ada b53d bff4 8cbd 5252 e43d
000001e0: 40ec ee3b 140c 753d bcc5 513d 2842 b3bd
000001f0: 0076 d03b ca33 a43d 3b21 a8bd f893 bf3c
00000200: cc51 95bd f43f 92bd d06a 34bd 282c 03be
00000210: 5013 2dbc 9e47 3dbd 40ad 723d c14d e2bd
00000220: 6e52 fa3d f84d 2e3d 6ed9 d13d d606 943d
00000230: c263 ad3d 80d9 b5bb 8a49 be3d 5206 2cbd
00000240: 0273 e93d c00c 703b 9447 df3d fc2e e1bd
00000250: aa2d 19bd 89c2 03be 1da7 8fbd 9e08 47bd
00000260: 6ab2 35bd be50 74bd c856 c73d 5251 b8bd
00000270: dcc3 0ebd c4bc 673d cc38 3bbd 24aa d4bc
00000280: a0cd 803c 70fc af3d 112b c3bd a4d5 d9bd
00000290: fd9e c1bd 1dd1 99bd aa63 19bd 7071 03bc
000002a0: 4273 e2bd 675d fcbd 18a9 30bc 04e8 db3d
000002b0: 0cf4 adbd ae59 e73d 761a b6bd 92f3 f33d
000002c0: 7204 a83d a516 ffbd 2892 ccbd cccd 44bd
000002d0: ae8b e93d c57c aabd 9e59 d23d dc68 16bd
000002e0: 7744 0ebe 1045 623d 1942 69bd 05e7 f3bd
000002f0: 319a c53d 817b 183b c852 b1bc c830 61bc
00000300: 48b9 92bd c889 25bc 00e4 82bb 548b 613d
00000310: 90fd 74bd 146b 4abd 02ce ab3d 08f5 7dbd
00000320: 8e9f 89bd 2c51 ee3d 6c6f de3d ea3d 71bd
00000330: 0290 79bd 408d 3a3b 380a 3ebd 623a 96bd
00000340: 48cb cfbd 46fa c9bd bb25 013e 807d 8d3a
00000350: 804f 763c e0df db3d ec07 c13d 10aa 073d
00000360: c0c7 9cbb 9844 3fbc c633 ba3d 1013 c23d
00000370: ead1 babd d466 f23d 6ace 163c 311a 5d3d
00000380: e9d7 dabd 6476 9bbc 3a9c a33d 0025 ceba
00000390: d08d dcbd 20bb 543c 0090 f339 3af1 3cbd
000003a0: 59ff a83c 6afd 503d 70af c73d 8071 d93b
000003b0: e805 083d e6bb b03d 17ae afbd 48be 13bd
000003c0: 3e24 a53d 68c3 d63d 8ac0 d03d 0027 56ba
000003d0: 91e5 00be da74 f03d 34d8 30bd 1ca0 f3bd
000003e0: ab46 01be b259 f53d 188b 04bd c849 4f3d
000003f0: 62ca 07bd c49f 7e3d 8c23 ebbc b837 be3c

bias f4 [40]
-0.008316723 0.02260315 -0.08588943 -0.13458939 0.027773142 0.0030225287 -0.029047437 -0.017841585
-0.075615294 0.023695875 -0.099812135 0.19838044 -0.03386281 -0.098915145 -0.095825955 -0.05892562
0.042541023 -0.057157144 0.04314838 0.0056449324 0.03942631 -0.028958479 -0.104082346 -0.026310973
-0.07341476 0.037519842 -0.11059753 -0.11883004 0.013967276 0.071223274 -0.13347672 0.12652932
-0.007287455 0.010579218 0.002981373 -0.13295536 -0.031235985 -0.11997152 0.15777843 -0.09304711
00000000: dd42 08bc 3e2a b93c cce6 afbd cdd1 09be
00000010: 8084 e33c 9e15 463b e4f4 edbc 8428 92bc
00000020: 31dc 9abd da1d c23c 4e6a ccbd 3e24 4b3e
00000030: bbb3 0abd 0694 cabd 6640 c4bd fe5b 71bd
00000040: 7f3f 2e3d 9c1d 6abd 5bbc 303d 20f9 b83b
00000050: 7c7d 213d 553a edbc 2029 d5bd 1c8a d7bc
00000060: 7a5a 96bd 68ae 193d f580 e2bd 2a5d f3bd
00000070: 00d7 643c 82dd 913d 1fae 08be e790 013e
00000080: 9acb eebb 7554 2d3c 2463 433b 7325 08be
00000090: 9ce2 ffbc a1b3 f5bd ab90 213e 7c8f bebd

weight f4 [9, 40]
-0.17649147 -0.019418633 0.12816401 -0.122442335 -0.048891217 0.03806747 0.107336946 -0.06888875
-0.06699556 0.092152566 0.08277388 0.029575031 -0.073817976 -0.05343746 0.023936719 0.090813294
-0.01051677 0.1569453 0.062151358 -0.0897052 -0.098670244 0.059098747 -0.010797575 0.015150741
0.032946035 -0.11600976 -0.048824698 -0.12627476 0.077542976 0.24998839 -0.1262412 -0.14047344
0.0060479795 0.0536105 -0.044759776 0.15776676 -0.12462789 -0.080515854 -0.07032603 -0.0322921
0.268142 -0.007988509 -0.0823996 -0.1150215 -0.15763545 0.008917359 0.0674403 0.0053989617
-0.5311151 -0.0026645788 -0.050238438 -0.25985512 0.28934738 -0.070496686 -0.124580994 0.11349533
0.082657926 -0.11530381 -0.0072460235 -0.0105115175 -0.15222481 -0.027540734 0.13494818 0.055682123
-0.09735377 0.06328588 -0.1401299 0.11081819 0.07877323 -0.03756317 -0.10193537 -0.019363895
0.27301043 -0.05231651 -0.09291316 -0.1584344 0.07360444 0.14663342 -0.28533897 0.043998465
-0.28021574 -0.061411224 -0.10480276 0.1214266 0.066396385 0.20950708 -0.058775574 0.06187445
0.3819933 0.12244701 -0.08882701 0.18890637 -0.06602879 -0.088649295 -0.10984528 0.104567096
-0.081760526 -0.048639733 0.0047374777 -0.07635167 0.2588554 0.11466618 0.1423484 0.10806544
0.09932406 0.21789327 0.100809924 -0.10075416 0.08224739 -0.07594893 -0.017850215 -0.040017106
-0.18007118 0.05006981 0.13389887 0.05223884 0.03768255 0.10789609 0.29583362 -0.11854517
-0.15630013 0.026502674 0.013297096 -0.036614835 0.0036028922 -0.039793547 -0.009436181 -0.08976501
-0.22607283 0.101720326 -0.09621897 -0.10594199 -0.08061866 -0.05260584 -0.035738893 0.018965557
0.042835604 0.14632843 -0.043467045 0.0320666 -0.25533077 -0.14567539 -0.09372861 -0.042198926
-0.09334359 -0.1842261 -0.09456161 -0.016101018 0.11820333 0.023059718 0.13252495 -0.039936148
-0.06683021 0.05294754 -0.019861005 0.08565422 0.095561884 0.017141322 -0.05190556 0.10674951
-0.0969062 -0.11352905 -0.008356437 -0.047738913 0.15425219 -0.031441335 0.09740039 -0.06385325
-0.14394432 0.0040306444 0.07167387 -0.17801006 -0.022080835 0.15303719 -0.14236236 -0.04180758
0.04969525 0.09775669 0.048764244 -0.02863793 -0.05682497 0.06965229 -0.13669455 -0.11605466
0.079907715 -0.044309463 0.033829775 -0.120164886 0.10170625 -0.09101694 0.02860661 -0.15272407
-0.05642315 -0.004874003 -0.07329871 0.0470668 -0.09893063 0.0458332 -0.021799693 0.025677452
0.13305071 0.05840984 0.13140844 0.010823917 -0.09587334 -0.05196584 0.08783642 -0.039300617
-0.50617194 0.05124515 -0.08242163 -0.48450658 -0.042886477 0.14800027 0.045306355 -0.015298168
0.024417149 0.021913126 -0.10751077 0.14549403 -0.22259644 -0.15409096 0.0749004 0.1157545
-0.10838852 -0.26620254 0.12402665 0.1247098 0.15403031 -0.107371435 0.17164579 -0.14590114
0.11425493 -0.01308533 -0.01908428 -0.10165043 0.073426984 -0.022426834 -0.27732742 0.0034385717
-0.3137229 -0.12546322 0.07177776 -0.079824254 -0.12902997 0.083122596 0.09930633 0.051371813
0.27292588 0.045403346 0.14433129 0.08205208 -0.2790249 -0.044568755 -0.061878555 0.093791656
00000000: 2eba 34be d313 9fbc 6d3d 033e 0cc3 fabd
00000010: 2842 48bd a3ec 1b3d 79d3 db3d 8c15 8dbd
00000020: f834 89bd 7cba bc3d 5a85 a93d 5647 f23c
00000030: e12d 97bd 3de1 5abd f016 c43c 52fc b93d
00000040: 884e 2cbc 45b6 203e 6c92 7e3d 5cb7 b7bd
00000050: a013 cabd 8711 723d 50e8 30bc d03a 783c
00000060: 6cf2 063d 8696 edbd 68fc 47bd 2c4e 01be
00000070: dace 9e3d f5fc 7f3e 6045 01be 45d8 0fbe
00000080: 212e c63b af96 5b3d 0756 37bd 9c8d 213e
00000090: e83c ffbd 7fe5 a4bd 1807 90bd b944 04bd
000000a0: e949 893e 3ce2 02bc 1fc1 a8bd 6490 ebbd
000000b0: 306b 21be 1d1a 123c 241e 8a3d c6e9 b03b
000000c0: 29f7 07bf 37a0 2ebb d2c6 4dbd bb0b 85be
000000d0: 5725 943e 9160 90bd 5224 ffbd 3d70 e83d
000000e0: 8f48 a93d 6724 ecbd 0d70 edbb 8038 2cbc
000000f0: d2e0 1bbe 1b9d e1bc db2f 0a3e f012 643d
00000100: 6a61 c7bd 079c 813d 367e 0fbe a6f4 e23d
00000110: dc53 a13d d7db 19bd 7ec3 d0bd 08a1 9ebc
00000120: 06c8 8b3e d649 56bd 4149 bebd a13c 22be
00000130: edbd 963d 1227 163e f317 92be bc37 343d
00000140: 7078 8fbe 568a 7bbd d4a2 d6bd 82ae f83d
00000150: d4fa 873d 0689 563e a8be 70bd 1070 7d3d
00000160: a094 c33e 7fc5 fa3d efea b5bd ac70 413e
00000170: 1a3a 87bd c38d b5bd 90f6 e0bd 4627 d63d
00000180: 1072 a7bd 753a 47bd d83c 9b3b 445e 9cbd
00000190: b288 843e 1ad6 ea3d c7c3 113e 6a51 dd3d
000001a0: 6a6a cb3d 6a1f 5f3e 6f75 ce3d 3258 cebd
000001b0: 5271 a83d 1d8b 9bbd 9d3a 92bc fae8 23bd
000001c0: 9464 38be 0016 4d3d c91c 093e 65f8 553d
000001d0: 0459 1a3d a0f8 dc3d 8177 973e cfc7 f2bd
000001e0: 240d 20be 231c d93c 10dc 593c 70f9 15bd
000001f0: 801e 6c3b 8ffe 22bd 369a 1abc b8d6 b7bd
00000200: a37f 67be bf52 d03d 740e c5bd 1df8 d8bd
00000210: 651b a5bd 3979 57bd f262 12bd a85d 9b3c
00000220: 6374 2f3d 1fd7 153e 800a 32bd 4458 033d
00000230: b7ba 82be ee2b 15be c9f4 bfbd c8d8 2cbd
00000240: ed2a bfbd c4a5 3cbe 84a9 c1bd 48e6 83bc
00000250: 9614 f23d bce7 bc3c 9fb4 073e 1694 23bd
00000260: 47de 88bd 85df 583d 8cb3 a2bc 7b6b af3d
00000270: f3b5 c33d f56b 8c3c ed9a 54bd 7d9f da3d
00000280: c276 c6bd eb81 e8bd 70e9 08bc e189 43bd
00000290: 49f4 1d3e a1c8 00bd db79 c73d 7ec5 82bd
000002a0: 2466 13be 7f13 843b c0c9 923d 4548 36be
000002b0: dee2 b4bc c8b5 1c3e 70c7 11be 6d3e 2bbd
000002c0: 3f8d 4b3d a934 c83d 04bd 473d 189a eabc
000002d0: 4dc1 68bd dca5 8e3d a8f9 0bbe 11ae edbd
000002e0: a8a6 a33d d77d 35bd 1791 0a3d 0219 f6bd
000002f0: 5e4b d03d 1767 babd 6958 ea3c b363 1cbe
00000300: f61b 67bd 1ab6 9fbb a21d 96bd 1ec9 403d
00000310: 249c cabd 98bb 3b3d 4595 b2bc 8559 d23c
00000320: 723e 083e 283f 6f3d ef8f 063e cc56 313c
00000330: 3e59 c4bd 22da 54bd 95e3 b33d aff9 20bd
00000340: 7c94 01bf 6fe6 513d accc a8bd 3f11 f8be
00000350: bba9 2fbd 628d 173e 2893 393d 2ba5 7abc
00000360: 7906 c83c 2883 b33c 9b2e dcbd 63fc 143e
00000370: 52f0 63be 05ca 1dbe 6265 993d b210 ed3d
00000380: cdfa ddbd b34b 88be af01 fe3d da67 ff3d
00000390: 1fba 1d3e 8ee5 dbbd eac3 2f3e 1c67 15be
000003a0: 7dfe e93d da63 56bc a356 9cbc 1a2e d0bd
000003b0: e360 963d 7bb8 b7bc dcfd 8dbe a959 613b
000003c0: 4aa0 a0be 6e79 00be 3800 933d e67a a3bd
000003d0: 6f20 04be 2e3c aa3d 1e61 cb3d 406b 523d
000003e0: f1bc 8b3e dcf8 393d 95cb 133e ec0a a83d
000003f0: 5adc 8ebe ba8d 36bd 5e74 7dbd d715 c03d

bias f4 [9]
-0.11041261 0.05324066 0.09330847 -0.041439798 -0.20835073 0.004078461 -0.041695397 0.12558496
0.14487426
00000000: 0220 e2bd e112 5a3d 8318 bf3d c7bc 29bd
00000010: e559 55be 9ca4 853b cbc8 2abd 5899 003e
00000020: eb59 143e

weight f4 [40, 60]
0.059588253 -0.06491825 0.025807079 0.03391009 0.011119407 -0.09007832 -0.0042137005 0.0016302923
-0.07470242 0.15161042 -0.084900856 -0.040515944 0.048785746 0.058014974 -0.06827608 -0.12054795
-0.013696402 -0.11416475 -0.11390113 0.05173394 -0.12533218 0.042864934 -0.015914373 0.073712215
-0.094646946 0.052419677 0.06907828 0.068957016 -0.12661707 0.018972829 0.0039759725 0.022057578
0.09012067 -0.10995674 -0.045417905 -0.018655859 0.100289494 0.08605859 0.063834295 0.076593146
-0.05727797 0.041967362 0.12291743 0.120984696 0.029269818 0.011080742 -0.027249046 0.011375114
0.05910255 0.0911738 -0.10418597 0.04483963 -0.061117392 0.07875494 -0.06240525 -0.022468276
0.05173506 -0.10766121 -0.054651983 -0.07746587 -0.11925338 0.101615995 0.08299817 0.10020128
-0.027021177 0.009547517 0.051265746 0.01536504 -0.07146083 -0.1943244 0.12698554 0.04722786
0.061868906 -0.046028003 -0.07702452 -0.088549346 -0.059571043 -0.08711911 0.10659237 -0.09749761
0.11027281 0.04470952 -0.101844124 -0.10991715 -0.104749404 0.0838546 -0.1038766 0.04741521
-0.00876312 0.029439956 0.06860107 -0.06465954 -0.07258803 0.018770844 0.074874476 0.107268274
0.10719359 -0.10963152 -0.07217949 0.08162524 0.1280304 0.094519794 0.029053813 0.015855247
-0.118543595 0.029021248 0.03818652 0.0011160374 0.11153236 0.025844455 -0.05542756 -0.008321896
0.020125663 -0.00010739678 -0.04277768 -0.00024460256 0.05554606 0.020085603 -0.018562593 -0.10300944
-0.119130895 -0.029769994 -0.025939954 0.035163302 0.10622111 0.028761715 0.017980374 0.079597436
-0.06405741 0.10911772 -0.12210297 -0.10353211 -0.10716342 0.051956147 0.075660646 0.047120944
-0.029699706 -0.04957693 -0.004454978 -0.0025903732 0.123763606 -0.04782161 0.10211606 0.00013278425
-0.043034047 0.07998626 -0.008925363 -0.0062954947 -0.06419175 -0.11074009 -0.10611941 0.042039663
0.09427199 -0.0255422 -0.080249496 -0.057922654 -0.019199595 -0.047597937 0.07421929 0.112559885
0.10881518 -0.033137277 0.041609447 -0.0128692 -0.016996961 0.062609166 -0.06487104 -0.040841207
0.12771825 0.11949162 -0.10015253 0.035066485 0.11486979 0.016690811 0.104500055 -0.0890542
0.035750747 -0.0036268383 -0.06666304 -0.061189577 0.100865856 -0.083500445 -0.12617303 -0.105661266
0.0015789717 -0.037859127 0.022415519 -0.08895433 0.062098667 0.052719906 0.012263164 -0.10848495
0.04135306 0.023725182 -0.089328386 0.03478335 -0.05081837 -0.06989933 0.09594698 -0.0416983
0.12626283 -0.00287956 -0.084929615 -0.1065778 0.10356207 -0.016605161 -0.011719465 -0.08304591
-0.062470414 -0.029925987 -0.087822795 -0.07103456 0.030494675 0.11114876 -0.03588392 -0.037680656
0.008070156 0.04549986 -0.068820484 0.1129688 0.10484214 0.023103178 0.033827215 -0.09277776
0.01233308 -0.013431355 0.046659976 0.07410291 0.05210212 0.066609755 -0.0020996928 -0.05454713
-0.032009922 -0.07307008 -0.11650171 0.016220868 0.10438724 -0.12690316 0.07813047 -0.100066915
-0.01538071 0.08429091 -0.08010628 0.011219896 0.111186735 -0.034538373 0.029194701 0.098243766
-0.020794643 0.49233472 -0.011857743 -0.09296325 -0.105810314 0.09666911 -0.03127341 0.027342588
00000000: d012 743d dcf3 84bd 5e69 d33c 4ee5 0a3d
00000010: 2c2e 363c fb7a b8bd 1513 8abb 88af d53a
00000020: 95fd 98bd c33f 1b3e 80e0 adbd 0cf4 25bd
00000030: 90d3 473d 1ca1 6d3d 54d4 8bbd d8e1 f6bd
00000040: e066 60bc 35cf e9bd ff44 e9bd f8e6 533d
00000050: 1457 00be 2493 2f3d dc5e 82bc 6ef6 963d
00000060: 42d6 c1bd 04b6 563d ea78 8d3d 5639 8d3d
00000070: e8a7 01be e86c 9b3c e048 823b 18b2 b43c
00000080: 3091 b83d 0031 e1bd 2008 3abd 2cd4 98bc
00000090: 9464 cd3d 7c3f b03d 8ebb 823d dedc 9c3d
000000a0: 4e9c 6abd f8e5 2b3d 22bc fb3d d3c6 f73d
000000b0: 42c7 ef3c 008c 353c 6439 dfbc b05e 3a3c
000000c0: 8415 723d 54b9 ba3d 745f d5bd c3a9 373d
000000d0: 3b56 7abd 454a a13d a69c 7fbd 640f b8bc
000000e0: 24e8 533d 7b7d dcbd c2da 5fbd 6da6 9ebd
000000f0: 1e3b f4bd 0c1c d03d f2fa a93d 5436 cd3d
00000100: 845b ddbc 306d 1c3c 08fc 513d a6bd 7b3c
00000110: 0e5a 92bd fafc 46be 7f08 023e 0072 413d
00000120: 406a 7d3d dc87 3cbd 08bf 9dbd 5c59 b5bd
00000130: c400 74bd 816b b2bd 1a4d da3d d4ac c7bd
00000140: b6d6 e13d 5421 373d a793 d0bd 3e1c e1bd
00000150: db86 d6bd f6bb ab3d 41bd d4bd 7436 423d
00000160: 3093 0fbc 102c f13c b87e 8c3d 396c 84bd
00000170: 08a9 94bd 50c5 993c ca57 993d 78af db3d
00000180: 5088 db3d 7e86 e0bd d7d2 93bd 222b a73d
00000190: 671a 033e 9893 c13d 4302 ee3c dde2 813c
000001a0: fcc6 f2bd f8bd ed3c 7869 1c3d 0048 923a
000001b0: 146b e43d c0b7 d33c 0208 63bd 9058 08bc
000001c0: 93de a43c 353a e1b8 a637 2fbd 003e 80b9
000001d0: 4484 633d 908a a43c 9410 98bc 9df6 d2bd
000001e0: e6fa f3bd 34e0 f3bc 0780 d4bc 6507 103d
000001f0: 748a d93d b09d eb3c 944b 933c fb03 a33d
00000200: 8830 83bd 1c79 df3d 1f11 fabd a508 d4bd
00000210: 7f78 dbbd f8cf 543d f8f3 9a3d e401 413d
00000220: cc4c f3bc 2e11 4bbd 10fb 91bb 40c3 29bb
00000230: c677 fd3d 98e0 43bd 3a22 d13d 003c 0b39
00000240: 7844 30bd d6cf a33d b03b 12bc 704a cebb
00000250: f776 83bd b3cb e2bd 2255 d9bd c831 2c3d
00000260: ac11 c13d e03d d1bc d959 a4bd 4e40 6dbd
00000270: 7848 9dbc 0ef6 42bd 4800 983d cc85 e63d
00000280: 7eda de3d f4ba 07bd ab6e 2a3d 56d9 52bc
00000290: 363d 8bbc 3c39 803d 1cdb 84bd 1c49 27bd
000002a0: 93c8 023e 06b8 f43d c51c cdbd e0a1 0f3d
000002b0: da40 eb3d 2bbb 883c 2004 d63d 0c62 b6bd
000002c0: 606f 123d 40b0 6dbb a286 88bd eca1 7abd
000002d0: c292 ce3d 4802 abbd 8133 01be ef64 d8bd
000002e0: 80f5 ce3a 2c12 1bbd c0a0 b73c b02d b6bd
000002f0: 2c5b 7e3d d4f0 573d 70eb 483c 5c2d debd
00000300: d461 293d 505b c23c cdf1 b6bd fc78 0e3d
00000310: ec26 50bd 6127 8fbd da7f c43d d6cb 2abd
00000320: 0b4b 013e 00b7 3cbb 94ef adbd 7645 dabd
00000330: 5a18 d43d 8c07 88bc 0003 40bc f913 aabd
00000340: fae0 7fbd 5827 f5bc 70dc b3bd 917a 91bd
00000350: f8cf f93c f6a1 e33d 04fb 12bd 0857 1abd
00000360: b038 043c 105e 3a3d c1f1 8cbd 305c e73d
00000370: 7ab7 d63d e042 bd3c 688e 0a3d 4402 bebd
00000380: b010 4a3c 300f 5cbc 881e 3f3d 44c3 973d
00000390: 0869 553d b26a 883d 009b 09bb d06c 5fbd
000003a0: d61c 03bd c4a5 95bd 7398 eebd a0e1 843c
000003b0: fac8 d53d e7f2 01be de02 a03d e2ef ccbd
000003c0: 60ff 7bbc b6a0 ac3d c30e a4bd a8d3 373c
000003d0: dfb5 e33d 1c78 0dbd ba29 ef3c 0734 c93d
000003e0: 8759 aabc 4c13 fc3e fb46 42bc 8463 bebd
000003f0: 14b3 d8bd 74fa c53d 8c18 00bd 90fd df3c

bias f4 [40]
0.0014181759 0.04893917 0.11632256 -0.058955483 0.018181508 -0.11571574 -0.10701063 0.06990436
-0.084660016 0.040718835 0.12169458 0.08630544 -0.07838406 0.07338999 -0.08804057 0.12514164
0.06487729 -0.061612096 0.119582415 0.019626673 -0.037698843 0.06473346 -0.0058144405 0.11699129
-0.058108635 -0.068148434 0.021863118 -0.0770115 -0.03432356 -0.059265587 0.06802087 0.03178236
0.074473105 -0.068233386 -0.07360686 -0.07802455 -0.06187366 0.16645661 0.010303689 0.023625998
00000000: 16e2 b93a 7074 483d 863a ee3d 4e7b 71bd
00000010: 63f1 943c 60fc ecbd 6428 dbbd 042a 8f3d
00000020: 3b62 adbd cbc8 263d 023b f93d e8c0 b03d
00000030: d287 a0bd 7e4d 963d 9d4e b4bd 2125 003e
00000040: 62de 843d f75c 7cbd a0e7 f43d 1ec8 a03c
00000050: 1a6a 1abd fa92 843d 1087 bebb 2199 ef3d
00000060: 5203 6ebd 6891 8bbd 481a b33c 35b8 9dbd
00000070: dc96 0cbd 79c0 72bd 874e 8b3d 382e 023d
00000080: 5b85 983d f2bd 8bbd 32bf 96bd 56cb 9fbd
00000090: 3c6f 7dbd 9a73 2a3e ced0 283c 4f8b c13c

weight f4 [1, 40]
0.07279031 -0.05648155 0.11259539 0.04398273 0.07890259 -0.019921113 -0.065471746 -0.08696334
-0.03362979 0.14419988 0.13425489 0.13147683 -0.13246103 0.026659593 -0.0032036935 0.14322738
-0.11313278 -0.041409727 -0.047412068 0.0717313 -0.10083623 -0.051972408 0.055740967 -0.10905755
-0.03545598 -0.0665468 0.048488066 0.12503895 0.0074921506 0.13127016 0.3054543 0.08939351
0.33528528 -0.0927614 0.1161678 -0.008611545 0.127995 -0.47302553 -0.031530723 -0.097032614
00000000: 1613 953d 3359 67bd 6998 e63d 3c27 343d
00000010: ae97 a13d 9a31 a3bc 0d16 86bd d619 b2bd
00000020: 64bf 09bd 22a9 133e 1d7a 093e dda1 063e
00000030: dda3 07be 3865 da3c 0ff5 51bb 33aa 123e
00000040: 29b2 e7bd 3f9d 29bd 2833 42bd dce7 923d
00000050: 3a83 cebd 05e1 54bd a450 643d 9159 dfbd
00000060: 4a3a 11bd b049 88bd 6c9b 463d 360a 003e
00000070: b780 f53b af6b 063e 8264 9c3e f213 b73d
00000080: 83aa ab3e b0f9 bdbd 62e9 ed3d 7017 0dbc
00000090: 1f11 033e 6730 f2be 5c26 01bd 09b9 c6bd

probs f4 [9]
0.11111111 0.11111111 0.11111111 0.11111111 0.11111111 0.11111111 0.11111111 0.11111111
0.11111111
00000000: 398e e33d 398e e33d 398e e33d 398e e33d
00000010: 398e e33d 398e e33d 398e e33d 398e e33d
00000020: 398e e33d

logits f4 [9]
-2.1972246 -2.1972246 -2.1972246 -2.1972246 -2.1972246 -2.1972246 -2.1972246 -2.1972246
-2.1972246
00000000: 549f 0cc0 549f 0cc0 549f 0cc0 549f 0cc0
00000010: 549f 0cc0 549f 0cc0 549f 0cc0 549f 0cc0
00000020: 549f 0cc0
