src/coinjump_learn/training/PPO_preTrained/CoinJumpEnv-v1/PPO_CoinJumpEnv-v1_123456_174.pth (torch, 8151 bytes, 5 tensors)

0 f4 [6, 6]
0.32168624 -0.095125355 0.029978205 -0.1249445 0.060526565 0.20304124 0.15551497 0.6293513
0.09634564 0.2342555 0.042497616 -0.05310896 0.1838401 0.051326305 0.3995122 0.09171582
0.23187079 -0.15888625 0.27460426 0.3017809 0.06811979 0.64430207 0.073994376 0.010698287
0.23186927 0.11979934 0.29134947 0.13916002 0.45263308 -0.105936944 0.23842569 -0.036515128
0.11738133 -0.051330052 0.031478886 0.5532405
00000000: 0fb4 a43e 15d1 c2bd da94 f53c e7e2 ffbd
00000010: b4ea 773d 0bea 4f3e 513f 1f3e 2b1d 213f
00000020: dd50 c53d ace0 6f3e fb11 2e3d c888 59bd
00000030: 9440 3c3e 883b 523d dd8c cc3e 81d5 bb3d
00000040: 896f 6d3e 14b3 22be ee98 8c3e 0783 9a3e
00000050: 6382 8b3d fbf0 243f 5d8a 973d de47 2f3c
00000060: 236f 6d3e 5b59 f53d c22b 953e f77f 0e3e
00000070: 86bf e73e 78f5 d8bd dd25 743e e390 15bd
00000080: 9f65 f03d 763f 52bd 01f0 003d 2ba1 0d3f

0 f4 [6, 6]
0.83586687 -0.099317856 -0.09959227 -0.0969657 0.1681473 -0.0840357 0.12791102 0.28889164
-0.091256775 -0.088522516 0.1492034 -0.0778712 0.17442681 -0.10897993 0.34049308 -0.1044413
0.20803253 -0.082052946 0.19199513 -0.13412276 -0.13117053 0.3666036 0.2182051 -0.10349881
0.15195034 -0.118156925 -0.117902555 -0.11584407 0.24173021 -0.102132194 0.17641568 -0.116349705
-0.11488964 -0.11190788 0.20760478 0.8723682
00000000: 5ffb 553f 2967 cbbd 08f7 cbbd f495 c6bd
00000010: ce2e 2c3e e91a acbd 1bfb 023e 9be9 933e
00000020: d5e4 babd 4b4b b5bd c7c8 183e f07a 9fbd
00000030: f19c 323e df30 dfbd 1c55 ae3e 52e5 d5bd
00000040: 7b06 553e 600b a8bd 5f9a 443e 7a57 09be
00000050: 9151 06be 78b3 bb3e 2871 5f3e 2ff7 d3bd
00000060: df98 1b3e 42fc f1bd e576 f1bd a83f edbd
00000070: 2088 773e af2a d1bd 50a6 343e c148 eebd
00000080: 424b ebbd f52f e5bd 5996 543e 8653 5f3f

weight f4 [1, 6]
0.21764278 -0.40025142 -0.2816459 -0.1692003 0.23043354 -0.05856858
00000000: c0dd 5e3e c1ed ccbe e433 90be d842 2dbe
00000010: c5f6 6b3e 9be5 6fbd

probs f4 [6]
0.16666667 0.16666667 0.16666667 0.16666667 0.16666667 0.16666667
00000000: abaa 2a3e abaa 2a3e abaa 2a3e abaa 2a3e
00000010: abaa 2a3e abaa 2a3e

logits f4 [6]
-1.7917595 -1.7917595 -1.7917595 -1.7917595 -1.7917595 -1.7917595
00000000: 6058 e5bf 6058 e5bf 6058 e5bf 6058 e5bf
00000010: 6058 e5bf 6058 e5bf
