src/coinjump_learn/training/PPO_preTrained/CoinJumpEnv-v1/PPO_CoinJumpEnv-v1_123456_3531.pth (torch, 8215 bytes, 5 tensors)

0 f4 [6, 6]
00000000: 6468 2d40 5cf8 85bf c17a 3bbf 9be0 32bf
00000010: 54fa 3ebf e942 4cbf b38a 50be a9bc cf3f
00000020: 5f48 3bbf 6a23 eb3e c67b 46bf a359 37be
00000030: 255e 42bd e6bc 3ebf 56c1 943f e2f1 0dbf
00000040: 53d3 813f d21d 06bf fc5c 1f3e 1e1e 0f3f
00000050: bbf9 25bf 51cb df3f 1027 0fbf a2a4 bbbe
00000060: a645 213d de17 37bf 4588 7e3f d56f 5bbf
00000070: 9560 a53f 3b6d a3be 38b9 54bf a82c fc3e
00000080: 6bbc b53e a505 a23e 07d5 ba3e ab9e 3e3e
2.7094965 -1.0466418 -0.7323418 -0.6987397 -0.7460072 -0.79789597 -0.2036541 1.622945
-0.73157305 0.45925456 -0.77532613 -0.17905287 -0.047453064 -0.74506986 1.1621501 -0.5544721
1.0142616 -0.5238925 0.15562814 0.5590533 -0.64834183 1.7483922 -0.5591898 -0.36649042
0.039373063 -0.71520793 0.9942668 -0.8571752 1.29201 -0.31919274 -0.8309512 0.4925282
0.35495314 0.3164493 0.36490652 0.18615215

0 f4 [6, 6]
00000000: f8ca f83e 21aa 023e 180c 243e 3f53 b93d
00000010: 4354 62be d9f7 0c3c 7d47 143e ec82 953e
00000020: 951d afbd c22f d0bd 0034 303e dd39 97bd
00000030: e332 49bd 1d72 353d 1419 033f baec 963b
00000040: e30c 2cbd 4a1e 9cbc b9c1 b33e a5f6 99be
00000050: d7a0 9cbe ff76 503e 29b1 bf3e ec72 6abe
00000060: 98fb 393e f2a3 25be 05e1 28be bd31 1bbe
00000070: e89a 8b3e 7ff4 07be 0ddb 703e 6be1 17be
00000080: 81eb 17be a38f 29be 08ef 8c3e a96d 5c3f
0.48592353 0.12760212 0.16020238 0.09049081 -0.22102456 0.008604013 0.14480396 0.29201448
-0.08550564 -0.10165359 0.17207336 -0.073840834 -0.049120795 0.04429828 0.5121014 0.0046058567
-0.042004477 -0.019057412 0.35108736 -0.30070987 -0.3059146 0.20357893 0.3743985 -0.22895402
0.18162382 -0.16175821 -0.16492088 -0.15155692 0.27266622 -0.13276862 0.23521061 -0.14832084
-0.14835931 -0.165587 0.27526116 0.8610483

weight f4 [1, 6]
00000000: 7e0b 833e da11 eabe 96be efbe f92a 57be
00000010: fe47 a63e 54f6 0fbd
0.25594705 -0.45716745 -0.46825093 -0.21012487 0.324768 -0.035147026

probs f4 [6]
00000000: abaa 2a3e abaa 2a3e abaa 2a3e abaa 2a3e
00000010: abaa 2a3e abaa 2a3e
0.16666667 0.16666667 0.16666667 0.16666667 0.16666667 0.16666667

logits f4 [6]
00000000: 6058 e5bf 6058 e5bf 6058 e5bf 6058 e5bf
00000010: 6058 e5bf 6058 e5bf
-1.7917595 -1.7917595 -1.7917595 -1.7917595 -1.7917595 -1.7917595
