src/coinjump_learn/training/PPO_preTrained/CoinJumpEnv-v1/PPO_CoinJumpEnv-v1_123456_10603.pth (torch, 8215 bytes, 5 tensors)

0 f4 [6, 6]
000000 db 36 a1 40 b7 d3 0b c0 0f b7 e0 bf aa 65 0d c0
       5.037946 -2.184797 -1.7555865 -2.20933
000010 41 be eb bf b3 e7 d4 bf 12 62 3e bf 00 a3 38 40
       -1.8417436 -1.6633209 -0.74368393 2.8849487
000020 7d f0 d0 bf e7 f7 34 3f 9d 89 fe bf 13 fa c8 be
       -1.6323391 0.7069077 -1.9885746 -0.3925329
000030 c2 8c 03 bf b0 ef 16 c0 bc 93 43 40 23 1d e0 bf
       -0.51386654 -2.3583794 3.055892 -1.7508892
000040 7a 73 79 3f 81 ed 81 bf 35 12 f4 bd 60 1a 3b 3e
       0.9744183 -1.0150605 -0.11917535 0.1827178
000050 ce 09 d2 bf 71 7e 5e 40 8d 62 d9 bf 5f 20 74 bf
       -1.6409242 3.4764674 -1.69832 -0.95361894
000060 b9 f0 d8 bd 2a a7 08 c0 65 f7 92 3f 09 71 d8 bf
       -0.10592789 -2.135203 1.1481749 -1.6909496
000070 02 e5 24 40 f9 d1 50 bf 7d d8 21 c0 e7 e3 54 3f
       2.5764775 -0.8157039 -2.5288384 0.8316025
000080 f7 2f 91 3f c8 fa 07 3f c7 03 21 3f 32 70 15 bf
       1.1342763 0.53117037 0.6289639 -0.5837432

0 f4 [6, 6]
000000 ca 19 24 3f 34 e6 02 bd 2b f5 d8 3b 64 c6 c1 bd
       0.6410185 -0.03195782 0.006621023 -0.09461668
000010 72 b5 8b bd 54 2b 50 3e 14 8c 05 3e 0e d1 9b 3e
       -0.06821717 0.20329028 0.13041717 0.30432934
000020 96 6f 90 bd 48 2f a1 bd 7c 87 21 3e 1c 22 f5 bd
       -0.07052533 -0.07870346 0.1577434 -0.119693965
000030 5d 91 4e 3d 74 f8 62 bd 98 49 d1 3e 29 29 e0 bd
       0.050431598 -0.055412725 0.4087646 -0.10945351
000040 e7 08 71 3d 52 ec aa 3d 55 ad 43 3e 7c 0b 0d be
       0.05884638 0.08345856 0.1910909 -0.13773912
000050 31 59 0e be 4b ac bf 3e 6b 8f 58 3e cf 54 a2 be
       -0.13901211 0.37436137 0.2114846 -0.3170533
000060 84 2b 53 bd 22 a8 a4 3d 7b bd 9b 3d 2b 56 ea 3d
       -0.05155517 0.08039881 0.076045 0.114422165
000070 f2 f6 17 3d d1 44 c1 be 8a 9e cf 3e c6 6a 97 be
       0.03710074 -0.37747815 0.40550643 -0.2957365
000080 89 66 9d be 53 c0 a7 be 1d e3 e9 3e ce 53 73 3f
       -0.3074229 -0.3276392 0.45681086 0.9504975

weight f4 [1, 6]
000000 2d de 6c 3e 64 63 dd be 00 f2 ba be 15 e0 d1 be
       0.23131628 -0.43239892 -0.36512756 -0.40991274
000010 08 4d 81 3e fb a9 58 3e
       0.25254083 0.21158592

probs f4 [6]
000000 ab aa 2a 3e ab aa 2a 3e ab aa 2a 3e ab aa 2a 3e
       0.16666667 0.16666667 0.16666667 0.16666667
000010 ab aa 2a 3e ab aa 2a 3e
       0.16666667 0.16666667

logits f4 [6]
000000 60 58 e5 bf 60 58 e5 bf 60 58 e5 bf 60 58 e5 bf
       -1.7917595 -1.7917595 -1.7917595 -1.7917595
000010 60 58 e5 bf 60 58 e5 bf
       -1.7917595 -1.7917595
