src/coinjump_learn/training/PPO_preTrained/CoinJumpEnv-v1/PPO_CoinJumpEnv-v1_123456_11683.pth (torch, 8151 bytes, 5 tensors)

0 f4 [6, 6]
000000 3d de a8 40 e4 84 1b c0 ff 01 df bf 7d f5 14 c0
       5.2771287 -2.429986 -1.7422484 -2.3274834
000010 57 4a f3 bf 27 99 d7 bf f6 2b 44 bf 32 50 3d 40
       -1.9007062 -1.6843613 -0.7662958 2.9580197
000020 14 0b e6 bf 46 fa 54 3f 9b 50 06 c0 8b 88 01 bf
       -1.7972131 0.83194387 -2.0986698 -0.50598973
000030 e7 d9 31 bf 6d 42 20 c0 d6 64 53 40 4f 15 f5 bf
       -0.6947312 -2.5040543 3.3030295 -1.9147128
000040 66 ec 5c 3f 0b 0e 83 bf 4f c1 d2 bd af 02 d7 3c
       0.86298215 -1.023866 -0.10290777 0.026246397
000050 60 38 ee bf da 62 6e 40 ac 51 ed bf c2 8c 81 bf
       -1.8610954 3.7247834 -1.8540549 -1.0121081
000060 b1 64 69 bc 08 0f 11 c0 04 1f 8e 3f 8c 71 eb bf
       -0.014245198 -2.2665424 1.1103215 -1.8394027
000070 8a 84 2a 40 e3 4d 53 bf d6 1b 2f c0 c0 76 64 3f
       2.6643395 -0.8254072 -2.736074 0.892437
000080 5e 5e 96 3f a9 1e 16 3f d8 d3 1d 3f 4a 89 3a bf
       1.1747549 0.58640534 0.6165137 -0.72865736

0 f4 [6, 6]
000000 48 0c 2b 3f 46 8f 7f bd ee 0b a0 bc e0 01 ff bd
       0.66815615 -0.062392496 -0.019536939 -0.124515295
000010 17 38 29 bd 50 d5 70 3e 14 a9 cb 3d 9f 94 ab 3e
       -0.041313257 0.23518872 0.099443585 0.33511826
000020 d4 f3 27 bd 7c f3 43 bd 5c 94 02 3e ab ed 1c be
       -0.041004017 -0.047839627 0.12751907 -0.15325038
000030 62 e9 a2 3d 53 17 ae bd 21 09 c3 3e 4c 60 0d be
       0.079546705 -0.085005425 0.38092902 -0.13806266
000040 53 d8 b2 3d aa 67 ea 3d 07 0c 36 3e 80 1c fc bd
       0.08732667 0.114455536 0.17778026 -0.123101234
000050 1a 80 02 be 03 a7 c6 3e 80 55 4b 3e 4b 4a aa be
       -0.1274418 0.38799295 0.19856834 -0.33259806
000060 31 cd 3d bd ac 88 98 3d 67 70 92 3d 9b c9 db 3d
       -0.046338264 0.07447943 0.07150345 0.107318126
000070 44 c5 2c 3d 33 76 bd be b9 18 d0 3e 83 d8 97 be
       0.042180315 -0.3700424 0.40643862 -0.29657373
000080 fc 03 9e be 6a 6a a8 be 3b 44 ea 3e 8b 77 73 3f
       -0.30862415 -0.32893687 0.4575518 0.95104283

weight f4 [1, 6]
000000 12 85 63 3e c7 62 e8 be 9c b4 ac be 47 77 d8 be
       0.22218731 -0.4538786 -0.33731544 -0.422785
000010 a1 a7 76 3e 8a 54 65 3e
       0.24087383 0.2239553

probs f4 [6]
000000 ab aa 2a 3e ab aa 2a 3e ab aa 2a 3e ab aa 2a 3e
       0.16666667 0.16666667 0.16666667 0.16666667
000010 ab aa 2a 3e ab aa 2a 3e
       0.16666667 0.16666667

logits f4 [6]
000000 60 58 e5 bf 60 58 e5 bf 60 58 e5 bf 60 58 e5 bf
       -1.7917595 -1.7917595 -1.7917595 -1.7917595
000010 60 58 e5 bf 60 58 e5 bf
       -1.7917595 -1.7917595
