src/environments/coinjump/ppo_coinjump_model/CoinJumpEnv-v1_beam.pth (torch, 29319 bytes, 9 tensors)

weight f4 [40, 60]
00000000: 00b9 903a e40b a83d 6823 31bd 8747 903d
00000010: a45c 123c b8e3 483d 8a97 3f3c 7e1d 26bf
00000020: c3cc d53e a661 bebf b6ae 9d3f 8691 f53d
00000030: a091 5d3c f19b 02be 90b6 d0bd 21d6 87bd
00000040: 006d 6f3b 724e 5bbd 1d4f 00be 2448 4ebd
00000050: 8017 16bb 04de 373d dcf6 453d a284 d53d
00000060: ed0c c0bd 986c 73bd 7235 c4bd ac69 51bd
00000070: 4b20 febd c08b e83d 66ec c5bd 647a 233d
00000080: 7041 c93c 526d d3bd 2b09 263f 2cd4 a43d
00000090: 287e 473f aa64 5fbd 4a63 97bd 7287 d2bd
000000a0: 54bc 26bd e0da e73b eef5 bcbd 6c2f 67bc
000000b0: 075c 61bd 24c3 55bd 0381 02be 545a 0cbd
000000c0: a860 ec3d 70fe 25bd f4c4 433d 675c cdbc
000000d0: 2d17 013d 1193 4cbe 64b0 a33d 046f 823d
000000e0: 0f03 b7bd 8c98 f63d 6282 d8bd 18a2 813c
000000f0: b88f cebc c08c 433b 4de7 d23d 2bac 3f3e
00000100: 592f 973d 0052 433c 6efb 293e 38bc 4cbe
00000110: b04c e83e 4ff0 a03f 420f 2e3f 3843 adbd
00000120: 02bc 863d 510c 033e cf19 f7bd 8452 01be
00000130: 72e7 76bd 11ea 85bd 741a 58bd 90d2 2b3d
00000140: 0632 11bd 7002 643d b0c6 e2bd 46b4 0ebd
00000150: cc82 483d 52e4 da3d 064f 48bd ce61 f13d
00000160: 1edb 9ebd ce6a 8d3d 800f 893d c8a9 e2bc
00000170: 053f 023e 06de 0f3e 351e f03d 6d5e 113e
00000180: 53f4 153f 489f f1bc 1103 b1bd ffc4 bcbd
00000190: 70f3 093c e496 003d 6568 62bd 5ecb a13d
000001a0: c567 15bc db45 82bd 3e6e 8cbd 00ab 73bb
000001b0: 304e 7f3c f27b c03d 907e 48bd dd97 81be
000001c0: 16bc e03d 63f0 70be e4d3 653d 2dd1 003e
000001d0: 30b8 373c 4ada b53d bff4 8cbd 5252 e43d
000001e0: 40ec ee3b 140c 753d 60d3 373d 7f3b c0bd
000001f0: 065b e237 ca33 a43d 7e1a b5bd aa89 633e
00000200: a4bd bebe 4785 bcbf de05 8fbf 282c 03be
00000210: 5013 2dbc 9e47 3dbd 40ad 723d c14d e2bd
00000220: 6e52 fa3d f84d 2e3d 6ed9 d13d d606 943d
00000230: c263 ad3d 80d9 b5bb 8a49 be3d 5206 2cbd
00000240: 0273 e93d c00c 703b 9447 df3d fc2e e1bd
00000250: aa2d 19bd 89c2 03be 1da7 8fbd 9e08 47bd
00000260: 6ab2 35bd 7221 87bd 8e05 4c3d b44a c5bd
00000270: d5a6 d7be c4bc 673d cc38 3bbd 24aa d4bc
00000280: a0cd 803c 70fc af3d 6a24 d0bd 7436 41bd
00000290: 4298 cebd 1dd1 99bd aa63 19bd 7071 03bc
000002a0: 4273 e2bd 675d fcbd 18a9 30bc 3e3b 9d3e
000002b0: ca46 ccbd af17 a03e 761a b6bd 92f3 f33d
000002c0: 7204 a83d a516 ffbd 2892 ccbd cccd 44bd
000002d0: ae8b e93d c57c aabd c85f 4d3e 9f61 7a3d
000002e0: a446 28bd 1045 623d 5b88 273d a270 a4bd
000002f0: c31d 35be 3ee5 253f eca5 643e c830 61bc
00000300: 48b9 92bd c889 25bc 00e4 82bb 548b 613d
00000310: 90fd 74bd 146b 4abd 02ce ab3d 08f5 7dbd
00000320: 8e9f 89bd 2c51 ee3d 6c6f de3d ea3d 71bd
00000330: 0290 79bd 408d 3a3b 380a 3ebd 623a 96bd
00000340: 48cb cfbd 46fa c9bd bb25 013e 807d 8d3a
00000350: 804f 763c c0a2 3e3e 2f8c 6e3d 2c3a e53d
00000360: 8dc3 d53d 9844 3fbc c633 ba3d 1013 c23d
00000370: ead1 babd d466 f23d 5b3f db3d ab83 353d
00000380: 3193 13bc 6476 9bbc 3a9c a33d 0025 ceba
00000390: d08d dcbd 20bb 543c 0090 f339 e90e 79bd
000003a0: 85a5 9f3c cbdf 143d 70af c73d 8071 d93b
000003b0: e805 083d e6bb b03d 17ae afbd 48be 13bd
000003c0: 3e24 a53d 68c3 d63d d254 c23d 9420 01bc
000003d0: 7c1b 08be da74 f03d bec7 4dbd 43bb 07be
000003e0: 90a9 3dbe f514 333c 32ad 3dbe c849 4f3d
000003f0: 62ca 07bd c49f 7e3d 8c23 ebbc b837 be3c
0.0011041462 0.08205393 -0.043246657 0.07044893 0.00893322 0.049045295 0.011693845 -0.6488875
0.41757783 -1.487355 1.2318943 0.11990647 0.013523489 -0.127548 -0.10191071 -0.06632639
0.0036533475 -0.05354161 -0.1253018 -0.050361767 -0.002290219 0.044889465 0.048331127 0.10425688
-0.093774654 -0.059429735 -0.095805064 -0.051126167 -0.12408503 0.1135478 -0.0966423 0.039911643
0.024567336 -0.103235856 0.6485774 0.08048281 0.77926874 -0.05453936 -0.07391985 -0.102797404
-0.040706947 0.0070756525 -0.09226595 -0.014110427 -0.055019405 -0.052188054 -0.12744527 -0.03426583
0.11541873 -0.040525854 0.04779525 -0.025068475 0.031516243 -0.19977976 0.07992628 0.06368831
-0.0893613 0.12040815 -0.105717435 0.015824363 -0.025215015 0.0029838532 0.102980234 0.1871802
0.07382078 0.011921406 0.16599819 -0.19993675 0.45371008 1.2573336 0.6799203 -0.084600866
0.065788284 0.12797667 -0.120654695 -0.12629133 -0.060279317 -0.06538785 -0.052759603 0.041948855
-0.035448097 0.055666387 -0.11073053 -0.03483989 0.048952863 0.1068808 -0.048903488 0.11786233
-0.07756637 0.06905137 0.066924095 -0.027668849 0.12719353 0.14049539 0.117245115 0.14196177
0.58575934 -0.029494897 -0.08643163 -0.092172615 0.008419856 0.0313939 -0.05527534 0.07900117
-0.009118979 -0.0636098 -0.068569645 -0.0037180781 0.015582606 0.09398641 -0.048948824 -0.25311175
0.109733745 -0.235292 0.056110278 0.12579794 0.011213347 0.08879526 -0.06882619 0.11148514
0.007291347 0.05982597 0.044879317 -0.09386348 2.6983686e-05 0.080176905 -0.088429436 0.22220483
-0.3725406 -1.4728173 -1.1173666 -0.12809813 -0.0105636865 -0.046210878 0.059247255 -0.11049987
0.122227535 0.042554826 0.102465495 0.07227866 0.08466293 -0.0055496097 0.0929137 -0.041998215
0.11398889 0.0036628693 0.10902324 -0.1099529 -0.037397064 -0.12867178 -0.07014296 -0.048592202
-0.044359602 -0.06598176 0.049809985 -0.09633389 -0.4211947 0.056576505 -0.045708463 -0.025960036
0.01572305 0.085930705 -0.101631954 -0.04717107 -0.100876346 -0.07510588 -0.037448563 -0.008022651
-0.1105714 -0.123225026 -0.010782503 0.3070926 -0.099744394 0.3126807 -0.08891766 0.11911692
0.08203973 -0.12455491 -0.099888146 -0.048047826 0.11403595 -0.08324579 0.20056069 0.061128255
-0.041082993 0.055241644 0.040901523 -0.080292955 -0.17687134 0.6480292 0.22328919 -0.0137445405
-0.07164246 -0.01010365 -0.003994465 0.055064514 -0.05981213 -0.049418524 0.08388902 -0.062001258
-0.06719886 0.11636576 0.10861096 -0.058896936 -0.060928352 0.002846554 -0.046396464 -0.073353544
-0.10146195 -0.09862189 0.1261205 0.0010794848 0.015033603 0.18616772 0.05823916 0.11192736
0.10437689 -0.011674069 0.09091906 0.09476292 -0.09122069 0.11836019 0.107054435 0.04431502
-0.009007261 -0.018977351 0.07988782 -0.001572758 -0.10769236 0.012984067 0.0004645586 -0.060805235
0.019488106 0.036346238 0.09750259 0.0066358447 0.033208758 0.08629589 -0.08578127 -0.03607014
0.08063553 0.104864895 0.094888344 -0.007881302 -0.13291734 0.11741038 -0.050239317 -0.13255028
-0.18521714 0.0109302895 -0.185231 0.050607473 -0.03315199 0.062164083 -0.028703474 0.023219928

bias f4 [40]
00000000: 4a90 89bc 0176 d33d 27e0 bcbd aa7c 16bd
00000010: 6fa5 a93c 6e36 8ebd e0c2 28bd 593c a03d
00000020: 87ab 41bd 308e 3d3d 2695 e7bd 3912 44bc
00000030: ef08 eebd 7523 11be 5239 15be 07c2 1a3d
00000040: a130 28bd 0662 50bd 59a9 373d f962 193d
00000050: a842 c9bc 7273 a23d 2029 d5bd 9575 823d
00000060: 7a5a 96bd 3191 9a3d 19ee d3bd 62be 16be
00000070: 00d7 643c 795d 923d ca05 05be e790 013e
00000080: d37f 41be a10f d03d d0cf e83c 163f 59be
00000090: d946 78bd 21c7 ecbd 7cb6 2f3e c0e3 56bd
-0.016792435 0.10325242 -0.09222441 -0.036739983 0.020708768 -0.069439754 -0.041201472 0.078240104
-0.04728272 0.04627818 -0.11307745 -0.011967235 -0.11622798 -0.14173682 -0.14572647 0.037782695
-0.041062 -0.050874732 0.044839237 0.037447903 -0.024567917 0.07932176 -0.104082346 0.06370083
-0.07341476 0.07547224 -0.10348148 -0.14721063 0.013967276 0.07146735 -0.1299049 0.12652932
-0.18896417 0.10159231 0.028419405 -0.21215472 -0.06061444 -0.11561418 0.17159456 -0.052463293

weight f4 [3, 40]
00000000: 5d05 043f 3ed2 ccbe 7590 b43e f602 fdbd
00000010: 1363 6fbe 104a 7ebe 88e7 313f d91b 8cbd
00000020: 8f90 b63b 05d5 b43d 0402 d43f 87e2 163e
00000030: 6abb 4cba 26d4 063f 108c a73e 4de3 1c3f
00000040: ab38 ed3e f1bc 0f3e 02fd 473d 3d89 0bbf
00000050: bf42 13be 8690 c23c 50e8 30bc 0c9b c4bf
00000060: 6cf2 063d 01e1 92be d82d 963e 2091 d9bd
00000070: dace 9e3d a249 273e a2bf 09be 45d8 0fbe
00000080: 94e6 d33e c941 0b3e 41e7 7b3f c7e2 6f3f
00000090: f012 b3bd 2f6a 96bd 707a d5bd ced8 ddbe
000000a0: 2fb1 b33f ffb1 8b3e f56d 08bf 801a c8bd
000000b0: 5a5f 37bd b5c8 cb3d 394c 1a3f 633a c6bd
000000c0: 6376 be3b 519f 0f3c 07c2 82bd 7be8 04be
000000d0: ea45 043e 78fd 9fbf 5947 1cbf 434c 273e
000000e0: 49aa 753f fe4a ccbd 3ff7 9c3c 8f47 b33e
000000f0: 9615 d3bd 0e95 0ebd db2f 0a3e e58a 173f
00000100: 6a61 c7bd 43fb 4e3d ad20 c8be 05c9 bd3d
00000110: dc53 a13d 7e4b 83bb a5dc cbbd 08a1 9ebc
00000120: faf2 3cbe 885c c8be 1e56 1cc0 cf94 bfbf
00000130: 4780 e43d 96ea ce3d 6623 6abe 782b b63e
00000140: 212f 27c0 ad23 ce3c f287 813d 0cce cd3d
00000150: 7942 e83d 52b2 5b3e 7bad 02c0 e700 f63d
00000160: 2d60 af3d e5b8 0e3e b26f 13c0 5c90 46be
00000170: 1f80 e1bc 5f6c a53e 0e3e f2bc 81c6 16bf
00000180: 7723 12c0 fa15 4abd c01d 80bd 6d0c eabc
00000190: 10dd edbc 0e38 453e c7c3 113e f0d4 183f
000001a0: 6a6a cb3d 80c5 9f3e 9f9a 9cbd 8fcd c6bd
000001b0: 5271 a83d 2dc6 c2bd e065 99bc fae8 23bd
000001c0: 196a 27be adce 503e dc12 d23e c25a 9b3e
000001d0: c356 1abd 9d9d 183e 38e1 773d 2c68 29bd
0.51570684 -0.40004152 0.35266462 -0.123540804 -0.23377638 -0.2483294 0.69493914 -0.06841249
0.005571432 0.08829693 1.6563115 0.14734851 -0.00078099093 0.5266746 0.32724047 0.61284333
0.46332297 0.14036919 0.04882527 -0.54506284 -0.1438093 0.023750555 -0.010797575 -1.5359817
0.032946035 -0.2868729 0.2933185 -0.106233835 0.077542976 0.16336682 -0.13452008 -0.14047344
0.41386855 0.13599314 0.9839974 0.9370541 -0.087438464 -0.07344472 -0.10423744 -0.4332947
1.4038447 0.27284238 -0.5329278 -0.097706795 -0.04476867 0.09950391 0.60272557 -0.09679105
0.0058124526 0.008766011 -0.06384664 -0.1297931 0.12917295 -1.2499228 -0.6104637 0.16337685
0.9596296 -0.09975241 0.019160865 0.35015532 -0.103068516 -0.03481012 0.13494818 0.5919631
-0.09735377 0.05053259 -0.3908743 0.09266857 0.07877323 -0.004006802 -0.09954194 -0.019363895
-0.18452063 -0.39133096 -2.4427562 -1.4967288 0.111572795 0.101033375 -0.22865066 0.3558004
-2.6122515 0.025163496 0.06324758 0.10049066 0.11340804 0.21454743 -2.0418384 0.12011891
0.08563266 0.13937719 -2.3036923 -0.19391006 -0.027526913 0.32309243 -0.029570606 -0.5889664
-2.2834146 -0.049337365 -0.06255674 -0.028570378 -0.029036075 0.19259664 0.1423484 0.59699917
0.09932406 0.31205368 -0.07646679 -0.09707176 0.08224739 -0.09510455 -0.018725336 -0.040017106
-0.16349067 0.2039134 0.41030014 0.3034268 -0.0376804 0.14903875 0.06051752 -0.04135911

bias f4 [3]
00000000: b2db 23be 1cee 52bc e1f4 073e
-0.16001776 -0.0128741525 0.13277008

weight f4 [40, 60]
00000000: d035 153d 80ca 403b d8d1 ac3c 79f0 a4bc
00000010: c2bf acbd 5a0d 4abd 2e2d 7f3d 9ec3 be3d
00000020: 9892 023e 0a51 8fbc 857d fd3d 540c efbc
00000030: 000c caba 0846 f53c 12b1 fa3d a235 51bd
00000040: 307c d63c 6239 eabd 6eff dbbd 48bb 9cbd
00000050: fa20 0dbd 7716 9cbd 3464 84bd 5837 8dbd
00000060: 2064 57bc 68a8 c53d 4690 04bd 5a60 f33d
00000070: ae8f 05bd 30c9 983d 904b 633d e0e2 acbc
00000080: 1205 c33d 4e2a 9c3d e9f6 38bc 5065 11bc
00000090: 32cd a53c 4091 48bb 31de dabd 7093 dfbb
000000a0: 740b febc 15f8 003e 4d0a 03bb 8916 3b3e
000000b0: ca39 71bd 34ac 2dbd 4833 c6bc 34b4 6f3d
000000c0: f350 97bd 0054 49b9 a49b ca3d 6589 263d
000000d0: d79c d3be da4b 603e da10 813d b266 a63d
000000e0: 3c8d bfbc 705f e93d a627 843d 1d94 e4bd
000000f0: 9b10 c2bd d89e 853d 904d c33c 1e61 063d
00000100: 942d d7bd 5812 aa3d 79d0 04be 30ec e83d
00000110: 8986 64bc 083b cd3d 9c01 513e 9c7d 84bd
00000120: 587f 55bc 5473 bdbd 4831 2e3d a09d 9e3b
00000130: 38ee 7fbc a0fd 903c ac53 4b3d 3ebd db3d
00000140: 409a db3c 6651 a0bd 5a51 b03d d0a2 c43d
00000150: 7414 ccbc 8c70 bfbd 04e1 4f3d 00d3 89bd
00000160: 1e1a ffbd 973d edbd 2278 cf3d 6c85 173d
00000170: 7056 973c dd3a c1bc ee88 85bd 2fb0 e2bd
00000180: f460 7d3e bccf 8f3d 2305 f7bd a07e 7a3d
00000190: 1e90 c13d e43e b5bd 7193 a8bd 7b41 833e
000001a0: 454c c23d 99c8 003e 1309 f0bd 6fe9 033e
000001b0: 45f9 f3bd 80a7 a0ba b4ac 99bc 1ba6 38be
000001c0: aadf c8be 836e debd 3042 d6bc 4429 d4bc
000001d0: f85d 0abc 21f4 a2bd 77be efbd 280d 703d
000001e0: 675f bebd 11c3 d7bd 9669 b23c eccb cd3d
000001f0: 5770 803d 1839 ae3c cd92 8a3d 838a f33d
00000200: c698 023b e6c3 89bd b1f9 08be dcf1 4ebd
00000210: 04e2 7d3d d466 203d df21 f8bd 0b82 8ebd
00000220: 2277 fa3d dc70 043d 648d e0bd b8cc f43c
00000230: f405 113d 1a30 fc3d f764 d0bd 458c f1bd
00000240: fc1c 26bd f62d cabd 2afc 02bd 48db fdbd
00000250: 3641 f93d fcc2 d8bd 123b b7bd 5ac3 92bd
00000260: a6e1 b3bd f84f f83d e32e e63c 2be8 9ebc
00000270: 0bc9 96bd 2067 f5bb 6230 6fbd 4e0c d0bd
00000280: 3e62 67bd 18ca 7bbd 71a8 98bd 043a 903d
00000290: 052d e73d ef5d bebd a0b2 a83d f410 4b3d
000002a0: e87a e23c c8fd 813d 706e 463c dbab ccbd
000002b0: 4de8 053e d1f2 cabd 9871 aa3d e8ef 2fbd
000002c0: 7ca4 913d d471 acbd e404 b03d 540a 593d
000002d0: 44fa 85bc 06ba 69bd 9dcc 553c b767 99bb
000002e0: 8f12 ffbd b23f a4bd b8d3 b43d da45 16bd
000002f0: 3f23 24bc c90a 5a3d 1cdb 0a3d cee0 8e3d
00000300: e00e 1d3d 00f8 2dba 04bb 34bd 087c e03d
00000310: cf2c 043e 3806 cdbd 4cad 0ebd fcca 5abd
00000320: 4e03 05bd 0066 433d d83c 113d 879a 03be
00000330: d086 7b3c d083 66bc 241a 93bc 2766 bdbd
00000340: daa6 82bd 4833 8c3c fa9d b93d 5c3c ab3d
00000350: 7058 7f3d 6871 943c a230 733d 9ec4 cabd
00000360: 297f 80bc e006 b23c 568b e4bd 16a5 d83d
00000370: 900b 493d 8eca 993d 70e5 01be 4c5d 00be
00000380: 16e6 d03d b2d4 27bd 28ff b83d cb49 82bd
00000390: 5405 f7bd 1476 363d 7aa2 d63d 0442 a73d
000003a0: 42f3 983d ea80 80bd 7aa4 7fbd 7d02 bfbd
000003b0: 80e2 e63a 5c8f 93bd e07c 1a3d 20f8 f13b
000003c0: 1ea9 a13d 8ce4 fcbd f052 ae3d d957 483d
000003d0: 233a 293d 2479 43bd 24c3 a73d 5ca9 bebd
000003e0: c849 e23c 7108 423d 75fb 803e fb7a b8bd
000003f0: 40df 6bbb 7088 ce3c 2a66 e4bd 7ae4 893d
0.036428273 0.0029417574 0.021096155 -0.020134198 -0.084350124 -0.04932914 0.062298946 0.09314655
0.12751234 -0.017494697 0.123774566 -0.029180683 -0.0015414953 0.02994062 0.12240805 -0.05107654
0.026182264 -0.11436726 -0.10742079 -0.076529086 -0.034455277 -0.07621472 -0.06464425 -0.068953216
-0.01314643 0.096512616 -0.032364152 0.11883612 -0.032607727 0.074602485 0.055491984 -0.021104276
0.095224515 0.076252565 -0.011289337 -0.008874252 0.020239446 -0.0030604154 -0.10686911 -0.006822996
-0.03101132 0.12594636 -0.0019995153 0.18270315 -0.058893003 -0.042400554 -0.024194375 0.058521464
-0.07388487 -0.00019200146 0.09892967 0.040658373 -0.41330597 0.21903935 0.06302042 0.08125056
-0.023382775 0.113951564 0.06452875 -0.11161063 -0.094758235 0.06524438 0.023840696 0.032807462
-0.1050674 0.0830428 -0.12970151 0.11373174 -0.013948091 0.10021025 0.2041077 -0.064692706
-0.013030849 -0.09250513 0.042527467 0.0048405677 -0.015620761 0.017699063 0.049640343 0.107294545
0.02680695 -0.078280255 0.086092666 0.096013665 -0.024912097 -0.093476385 0.0507517 -0.06729698
-0.12456153 -0.11584013 0.101303354 0.036992475 0.018473834 -0.023587639 -0.06520258 -0.110687606
0.24744016 0.07022044 -0.120615266 0.061155915 0.09451316 -0.08849886 -0.08231247 0.25635895
0.094872035 0.12576522 -0.11720481 0.12882017 -0.11912779 -0.001225695 -0.01875911 -0.18032114
-0.39233142 -0.10860922 -0.026154608 -0.025898583 -0.008445255 -0.0795672 -0.1170625 0.058606297
-0.0929554 -0.10535253 0.021778863 0.10048661 0.06271427 0.021267459 0.06766281 0.118916534
0.0019927486 -0.06726818 -0.133765 -0.050523624 0.061983123 0.039160565 -0.121158354 -0.069583975
0.12229754 0.032334194 -0.10964468 0.029882774 0.035406068 0.12313862 -0.101755075 -0.117943324
-0.040554985 -0.098720476 -0.031978764 -0.1239534 0.12170641 -0.10584065 -0.08946814 -0.071661666
-0.087832734 0.12124628 0.02809853 -0.019397816 -0.07362565 -0.0074891 -0.05839575 -0.10158597
-0.056490175 -0.06147203 -0.07454003 0.070423156 0.11287884 -0.0929526 0.08237195 0.049576715
0.027646497 0.06347233 0.012111291 -0.09993716 0.13076897 -0.09909595 0.083224475 -0.0429534
0.07111451 -0.084201485 0.08594683 0.052988365 -0.016354688 -0.05706217 0.013049272 -0.004681553
-0.12454712 -0.080199614 0.08829445 -0.03668771 -0.010018169 0.05323294 0.033900365 0.06976472
0.038344264 -0.0006636381 -0.044123664 0.10961157 0.12907718 -0.10010952 -0.034833238 -0.053416237
-0.032473855 0.047704697 0.035458416 -0.12851916 0.015351966 -0.0140695125 -0.0179568 -0.09248
-0.06379481 0.017114297 0.09063335 0.08361122 0.0623402 0.018120483 0.05937255 -0.09900783
-0.015685635 0.021731794 -0.11159389 0.10578363 0.049083292 0.07509337 -0.1268518 -0.1253559
0.102001354 -0.040974326 0.09033042 -0.06361731 -0.12061563 0.0445462 0.10480209 0.08166888
0.07468273 -0.062745884 -0.062412716 -0.093266465 0.001761511 -0.07205078 0.037716746 0.007384315
0.07893585 -0.12348279 0.08511913 0.048911903 0.04131521 -0.04772295 0.08191517 -0.093096465
0.027623072 0.04737133 0.25191846 -0.09007832 -0.0035991222 0.025211543 -0.11152299 0.067330316

bias f4 [40]
00000000: 1479 ec3d 683a 21ba fcb1 aabd f759 f7bd
00000010: ca04 983d e383 14be 5ef6 03be ce9d 973d
00000020: fc75 2ebe d3fa e43c 5f9f a53c 388a f2bd
00000030: 756b 153c 8366 dbbd fcd7 91bd acdc 8d3d
00000040: ec52 dfbd 23a6 f03d 900b 423d 430d c43d
00000050: d18b 503d 9e6c 993d e021 e73b 16e2 8f3d
00000060: ff1f 22bd ee31 c4bd 9ef7 29bd 784b 65bd
00000070: d08c 40bc ab65 9a3c 00ad e7bc 13d4 86bd
00000080: de9f 28bd c790 3a3c 5023 04be 9cf2 4cbd
00000090: c0f6 933c 9201 c7bd 8370 aa3d 07ab 133d
0.11546531 -0.0006150366 -0.08334729 -0.12077706 0.074227884 -0.14503436 -0.1288695 0.07403146
-0.17037195 0.027951634 0.020217596 -0.118427694 0.009119858 -0.10712912 -0.07121274 0.069268554
-0.10904488 0.11750438 0.047374308 0.09572842 0.05091459 0.0749142 0.0070535988 0.07025544
-0.039581295 -0.09579836 -0.04149591 -0.055980176 -0.011752322 0.018847307 -0.028280735 -0.06583419
-0.041168086 0.011387057 -0.12904096 -0.050036058 0.018061996 -0.097170964 0.08322241 0.036051776

weight f4 [1, 40]
00000000: 88aa 4ebe 0701 c43e 2331 de3d a4e5 d83d
00000010: 5a17 4b3d 306c b63b 8225 4dbd 8e70 47be
00000020: 1bce 01bc ba35 a6be c02e b8ba f24b 103e
00000030: ffd5 37be 4a81 943d 2aae 063d b99c 8cbe
00000040: 6d95 683e 8526 cf3c 488e 9bbe 0c13 143e
00000050: f63e cf3d b5b6 95bc 8ad1 ccbd 0e96 333f
00000060: 1adc 35bf 60ee 99bc d77e 7ebe 6191 023e
00000070: a6cb 1bbe a404 4fbe 7125 e6be b8f6 9cbd
00000080: 28d7 e2bc 155e a0bd fbfb b5bc cad8 bcbe
00000090: 00ed 983c 3dbe 903d 4a5a 65be 7716 34be
-0.2018224 0.38282034 0.10849216 0.105906755 0.049582817 0.005567096 -0.0500846 -0.1947653
-0.0079226745 -0.32462865 -0.0014052019 0.14091471 -0.17952727 0.072512224 0.03288094 -0.2746332
0.22713251 0.025286922 -0.3038199 0.14460391 0.10119431 -0.018275598 -0.10000904 0.7015084
-0.71038973 -0.018790424 -0.24853073 0.1275077 -0.15214404 -0.20216614 -0.4495044 -0.07664245
-0.027690485 -0.07830445 -0.02221488 -0.36884147 0.018667698 0.07067535 -0.22397724 -0.17586695

probs f4 [3]
00000000: abaa aa3e abaa aa3e abaa aa3e
0.33333334 0.33333334 0.33333334

logits f4 [3]
00000000: 549f 8cbf 549f 8cbf 549f 8cbf
-1.0986123 -1.0986123 -1.0986123
