coinjump_learn/training/PPO_preTrained/CoinJumpEnvDodge-v0/PPO_CoinJumpEnvDodge-v0_9874.pth (torch, 30087 bytes, 9 tensors)

weight f4 [40, 60]
000000 00 b9 90 3a e4 0b a8 3d 73 b6 b9 bd 33 8a bc 3c
       0.0011041462 0.08205393 -0.090680026 0.023015117
000010 12 b3 1d bd b8 e3 48 3d 0b 64 12 bd 00 a1 03 be
       -0.038500853 0.049045295 -0.03573994 -0.12854385
000020 41 a3 74 be b2 1b bb bf 51 34 39 3f 86 91 f5 3d
       -0.23890401 -1.4617827 0.72345454 0.11990647
000030 a0 91 5d 3c f1 9b 02 be 90 b6 d0 bd 21 d6 87 bd
       0.013523489 -0.127548 -0.10191071 -0.06632639
000040 00 6d 6f 3b 72 4e 5b bd 1d 4f 00 be 24 48 4e bd
       0.0036533475 -0.05354161 -0.1253018 -0.050361767
000050 80 17 16 bb 04 de 37 3d dc f6 45 3d a2 84 d5 3d
       -0.002290219 0.044889465 0.048331127 0.10425688
000060 ed 0c c0 bd 98 6c 73 bd 72 35 c4 bd ac 69 51 bd
       -0.093774654 -0.059429735 -0.095805064 -0.051126167
000070 4b 20 fe bd c0 8b e8 3d 66 ec c5 bd 64 7a 23 3d
       -0.12408503 0.1135478 -0.0966423 0.039911643
000080 70 41 c9 3c 4f 49 1a be 88 94 c8 3e 1b 5e 07 3d
       0.024567336 -0.15067028 0.3917582 0.03304873
000090 dd 81 5b 3c aa 64 5f bd 4a 63 97 bd 72 87 d2 bd
       0.013397661 -0.05453936 -0.07391985 -0.102797404
0000a0 54 bc 26 bd e0 da e7 3b c8 2e 5e bd fc 21 f5 3d
       -0.040706947 0.0070756525 -0.054243833 0.11969373
0000b0 8c 3d 8b bc 24 c3 55 bd 03 81 02 be 54 5a 0c bd
       -0.016997121 -0.052188054 -0.12744527 -0.03426583
0000c0 a8 60 ec 3d 70 fe 25 bd f4 c4 43 3d a8 b5 b8 3d
       0.11541873 -0.040525854 0.04779525 0.09019023
0000d0 71 93 b9 bd 44 19 ad bd 64 b0 a3 3d 04 6f 82 3d
       -0.09061325 -0.08452085 0.07992628 0.06368831
0000e0 0f 03 b7 bd 8c 98 f6 3d 62 82 d8 bd 18 a2 81 3c
       -0.0893613 0.12040815 -0.105717435 0.015824363
0000f0 b8 8f ce bc c0 8c 43 3b 5b 4e 87 3c 85 45 ce 3d
       -0.025215015 0.0029838532 0.016516855 0.100718535
000100 fa 23 4f bc 00 52 43 3c d7 e3 a2 3d 4d 5e 46 be
       -0.012642855 0.011921406 0.07953613 -0.1937191
000110 7a 1b 8d be 91 18 e2 bf ad 45 44 3f 38 43 ad bd
       -0.27560025 -1.7663747 0.76668817 -0.084600866
000120 02 bc 86 3d 51 0c 03 3e cf 19 f7 bd 84 52 01 be
       0.065788284 0.12797667 -0.120654695 -0.12629133
000130 72 e7 76 bd 11 ea 85 bd 74 1a 58 bd 90 d2 2b 3d
       -0.060279317 -0.06538785 -0.052759603 0.041948855
000140 06 32 11 bd 70 02 64 3d b0 c6 e2 bd 46 b4 0e bd
       -0.035448097 0.055666387 -0.11073053 -0.03483989
000150 cc 82 48 3d 52 e4 da 3d 06 4f 48 bd ce 61 f1 3d
       0.048952863 0.1068808 -0.048903488 0.11786233
000160 1e db 9e bd ce 6a 8d 3d 80 0f 89 3d c8 a9 e2 bc
       -0.07756637 0.06905137 0.066924095 -0.027668849
000170 05 3f 02 3e 27 51 5d 3d 9c f3 df 3e 32 53 63 3d
       0.12719353 0.05403247 0.43740547 0.055499263
000180 1e ce 2c 3e 48 9f f1 bc 11 03 b1 bd ff c4 bc bd
       0.16875502 -0.029494897 -0.08643163 -0.092172615
000190 70 f3 09 3c e4 96 00 3d f8 72 ea bd 08 3d 23 3d
       0.008419856 0.0313939 -0.1144771 0.039853126
0001a0 b4 eb 8b bd db 45 82 bd 3e 6e 8c bd 00 ab 73 bb
       -0.06832066 -0.0636098 -0.068569645 -0.0037180781
0001b0 30 4e 7f 3c f2 7b c0 3d 90 7e 48 bd 6b 76 a2 bd
       0.015582606 0.09398641 -0.048948824 -0.07932743
0001c0 44 32 75 3d b2 f1 7b bd e4 d3 65 3d 2d d1 00 3e
       0.05986239 -0.061509795 0.056110278 0.12579794
0001d0 30 b8 37 3c 4a da b5 3d bf f4 8c bd 52 52 e4 3d
       0.011213347 0.08879526 -0.06882619 0.11148514
0001e0 40 ec ee 3b 14 0c 75 3d 28 0b ce 3d 3b 34 1c bd
       0.007291347 0.05982597 0.10060722 -0.03813575
0001f0 29 5f 64 3d ca 33 a4 3d 2b f2 05 bd cb 96 71 be
       0.055754814 0.080176905 -0.032701652 -0.23592679
000200 d6 56 a9 be f8 dc ab bf ab 77 1b 3f 28 2c 03 be
       -0.33074063 -1.3426809 0.60729474 -0.12809813
000210 50 13 2d bc 9e 47 3d bd 40 ad 72 3d c1 4d e2 bd
       -0.0105636865 -0.046210878 0.059247255 -0.11049987
000220 6e 52 fa 3d f8 4d 2e 3d 6e d9 d1 3d d6 06 94 3d
       0.122227535 0.042554826 0.102465495 0.07227866
000230 c2 63 ad 3d 80 d9 b5 bb 8a 49 be 3d 52 06 2c bd
       0.08466293 -0.0055496097 0.0929137 -0.041998215
000240 02 73 e9 3d c0 0c 70 3b 94 47 df 3d fc 2e e1 bd
       0.11398889 0.0036628693 0.10902324 -0.1099529
000250 aa 2d 19 bd 89 c2 03 be 1d a7 8f bd 9e 08 47 bd
       -0.037397064 -0.12867178 -0.07014296 -0.048592202
000260 6a b2 35 bd ba 01 28 bc 8a 06 9b 3e 7f 52 26 bd
       -0.044359602 -0.010254318 0.30278426 -0.04060602
000270 7e 57 f4 be c4 bc 67 3d cc 38 3b bd 24 aa d4 bc
       -0.47723 0.056576505 -0.045708463 -0.025960036
000280 a0 cd 80 3c 70 fc af 3d 11 2b c3 bd a4 d5 d9 bd
       0.01572305 0.085930705 -0.09529699 -0.10636452
000290 fd 9e c1 bd 1d d1 99 bd aa 63 19 bd 70 71 03 bc
       -0.09454153 -0.07510588 -0.037448563 -0.008022651
0002a0 42 73 e2 bd 67 5d fc bd 18 a9 30 bc 04 e8 db 3d
       -0.1105714 -0.123225026 -0.010782503 0.10737613
0002b0 0c f4 ad bd ae 59 e7 3d 76 1a b6 bd 92 f3 f3 3d
       -0.08493814 0.11296402 -0.08891766 0.11911692
0002c0 72 04 a8 3d a5 16 ff bd 28 92 cc bd cc cd 44 bd
       0.08203973 -0.12455491 -0.099888146 -0.048047826
0002d0 ae 8b e9 3d c5 7c aa bd 58 9e 98 3d d9 ef 84 bd
       0.11403595 -0.08324579 0.07452077 -0.0649106
0002e0 37 22 2b be 10 45 62 3d 70 5c ae bd 16 22 31 be
       -0.1671227 0.055241644 -0.08513725 -0.17298159
0002f0 09 5c 24 be 01 00 7a bf 66 ec 01 3f c8 30 61 bc
       -0.16050734 -0.97656256 0.5075134 -0.0137445405
000300 48 b9 92 bd c8 89 25 bc 00 e4 82 bb 54 8b 61 3d
       -0.07164246 -0.01010365 -0.003994465 0.055064514
000310 90 fd 74 bd 14 6b 4a bd 02 ce ab 3d 08 f5 7d bd
       -0.05981213 -0.049418524 0.08388902 -0.062001258
000320 8e 9f 89 bd 2c 51 ee 3d 6c 6f de 3d ea 3d 71 bd
       -0.06719886 0.11636576 0.10861096 -0.058896936
000330 02 90 79 bd 40 8d 3a 3b 38 0a 3e bd 62 3a 96 bd
       -0.060928352 0.002846554 -0.046396464 -0.073353544
000340 48 cb cf bd 46 fa c9 bd bb 25 01 3e 80 7d 8d 3a
       -0.10146195 -0.09862189 0.1261205 0.0010794848
000350 80 4f 76 3c dc 47 76 3d 0a ba b1 3e 3c 36 67 bc
       0.015033603 0.060127124 0.3471225 -0.014112052
000360 35 fe a5 3d 98 44 3f bc c6 33 ba 3d 10 13 c2 3d
       0.08105127 -0.011674069 0.09091906 0.09476292
000370 ea d1 ba bd d4 66 f2 3d 78 68 e7 3c 62 8d 95 3d
       -0.09122069 0.11836019 0.028248057 0.07302357
000380 94 d7 b3 bd 64 76 9b bc 3a 9c a3 3d 00 25 ce ba
       -0.08781353 -0.018977351 0.07988782 -0.001572758
000390 d0 8d dc bd 20 bb 54 3c 00 90 f3 39 04 80 e9 bc
       -0.10769236 0.012984067 0.0004645586 -0.028503425
0003a0 0c 5d 6b 3d 54 97 8c 3d 70 af c7 3d 80 71 d9 3b
       0.057461783 0.06864801 0.09750259 0.0066358447
0003b0 e8 05 08 3d e6 bb b0 3d 17 ae af bd 48 be 13 bd
       0.033208758 0.08629589 -0.08578127 -0.03607014
0003c0 3e 24 a5 3d 68 c3 d6 3d 79 58 c6 3d 24 5f c2 bb
       0.08063553 0.104864895 0.096848436 -0.005931752
0003d0 9c 16 06 be da 74 f0 3d 78 cb 45 bd 6f 2c 09 be
       -0.13094562 0.11741038 -0.048289746 -0.13395856
0003e0 70 d2 1d be 16 3a e5 3d a2 ac 0c bd c8 49 4f 3d
       -0.15412307 0.1119272 -0.034344323 0.050607473
0003f0 62 ca 07 bd c4 9f 7e 3d 8c 23 eb bc b8 37 be 3c
       -0.03315199 0.062164083 -0.028703474 0.023219928

bias f4 [40]
000000 16 89 83 bd 00 8a 89 3c 8f 7d 15 bd 95 af 26 be
       -0.064226314 0.016789436 -0.036496695 -0.16277917
000010 eb 9d b9 3c 44 8b 3e bb 25 67 e4 bc ff f8 28 3d
       0.022658309 -0.0029074708 -0.027881214 0.041253086
000020 8a f3 46 3e 3b 0e 44 3e 02 17 64 3d 93 6b 74 3d
       0.1942884 0.19146053 0.055686004 0.059672903
000030 3f ff c2 bd 13 c4 5a be 66 40 c4 bd 1e 18 3c bd
       -0.095213406 -0.21363859 -0.095825955 -0.045921437
000040 f8 96 2a 3e 06 62 50 bd cd 84 bb 3d a0 0f a3 bc
       0.16659153 -0.050874732 0.09156189 -0.019904912
000050 a8 42 c9 bc 13 95 cb bd 20 29 d5 bd d5 63 88 3e
       -0.024567917 -0.09940543 -0.104082346 0.26638666
000060 67 88 b6 bd f1 ff 46 bd ce 24 d7 bd fa 47 27 be
       -0.089127354 -0.04858393 -0.10505067 -0.1633605
000070 00 d7 64 3c 19 c7 99 3d 97 37 1c be 23 55 dc 3d
       0.013967276 0.07508678 -0.15255581 0.10758426
000080 f7 2e 5a bc 89 85 dc bc 3c a5 9a bd 7c 4f 44 be
       -0.013316861 -0.026919143 -0.07551047 -0.19170946
000090 26 3f 67 bd 1f de 3c be 2e 06 ab 3c 06 15 18 be
       -0.056456707 -0.18444107 0.02087697 -0.1485177

weight f4 [9, 40]
000000 8c ab b9 bd e3 c3 23 3e 96 51 9a 3e ae d8 9a bd
       -0.09065923 0.15992694 0.3014037 -0.075608596
000010 c9 4a 61 3c 4c 21 7b 3d 51 61 ee 3d fa 12 5c be
       0.01375074 0.06131105 0.116396554 -0.21491614
000020 3b 64 f3 3d 0f 42 5b 3e da 96 01 3e 34 c3 b6 3d
       0.11884352 0.21411918 0.12655202 0.08923951
000030 0b 04 b3 bc bc 65 c7 bd f0 16 c4 3c 83 94 34 3e
       -0.021852514 -0.09736201 0.023936719 0.17634778
000040 9f f4 b2 3d f1 bc 0f 3e c9 18 88 3d 16 b7 83 bd
       0.08738064 0.14036919 0.066453524 -0.06431405
000050 bf 42 13 be 7c 9c ed 3d 50 e8 30 bc 54 09 3a 3e
       -0.1438093 0.11602113 -0.010797575 0.18167621
000060 57 ea 5e 3d ae fb 08 be 41 d8 57 3d 79 00 e0 bd
       0.054422703 -0.13377258 0.05269647 -0.1093759
000070 da ce 9e 3d 8c 50 1b 3e 59 b8 4f be 82 45 00 be
       0.077542976 0.15167445 -0.20285167 -0.12526515
000080 66 4e 84 3e e0 d8 a8 3d 8c 57 67 3c 9a e5 45 3e
       0.25841063 0.082444906 0.014119994 0.19325867
000090 52 23 cc bd 8a 27 cf bd ca 8e 47 be 9b b4 64 bd
       -0.09967674 -0.10114963 -0.19488063 -0.0558363
0000a0 9f 76 1b 3e b1 53 a1 3c 6c 9d e3 3d 98 d0 91 bd
       0.15181969 0.019693227 0.1111401 -0.07119864
0000b0 08 92 4d be 82 de fc bc 23 7f 7a 3d bb 45 a0 bc
       -0.20075238 -0.030867819 0.061156403 -0.0195645
0000c0 b3 1e f0 bc e7 5a 2a be 76 f6 75 bd f6 de 1c be
       -0.029311514 -0.16636239 -0.060049497 -0.15319428
0000d0 48 89 f4 3d 5f 09 53 3d 52 24 ff bd b1 c8 c1 3d
       0.11940247 0.05152261 -0.124580994 0.09462107
0000e0 25 8a 01 be fe 4a cc bd 4a e0 b6 bd e5 29 fa 3b
       -0.12650354 -0.09975241 -0.089294985 0.0076343887
0000f0 96 15 d3 bd 64 2d 7e 3d db 2f 0a 3e d7 b6 bd 3d
       -0.103068516 0.062055007 0.13494818 0.092633896
000100 b1 4c d3 bd 18 b2 fe 3d 3c 3e 7e bd b7 2d a6 3d
       -0.10317362 0.124363124 -0.06207107 0.08114188
000110 dc 53 a1 3d 7a 9b 9a 3c 9c d3 13 be 09 c1 00 bd
       0.07877323 0.018872965 -0.14436191 -0.031434093
000120 2a 39 94 bd 07 6d f8 bc 10 ef 94 bc cc bd 21 be
       -0.07237466 -0.030325426 -0.0181804 -0.15795058
000130 3d b0 bf 3d 1b a4 19 3e 9c d4 74 bd 82 10 b6 3d
       0.09359787 0.15004008 -0.059773073 0.08889867
000140 03 91 2b be a5 3a 93 be 30 2c dd be d4 b7 d6 bb
       -0.16754536 -0.2875568 -0.43197775 -0.0065526757
000150 63 a1 ab 3c 84 03 12 bd 21 02 85 bd 14 4f 08 3e
       0.020950979 -0.035647884 -0.06494547 0.13311416
000160 55 73 0f be e1 db b7 3e e0 ef 4d be 6d 95 93 bd
       -0.1400884 0.35909942 -0.20111036 -0.07206235
000170 f3 66 00 3d 4e 27 42 3d 90 f6 e0 bd de cf 8e 3e
       0.03134818 0.047400765 -0.10984528 0.27892965
000180 f7 e2 21 3e fa 15 4a bd e9 ea 69 3e 79 13 bc bd
       0.15809236 -0.049337365 0.22843517 -0.091834016
000190 10 dd ed bc 99 89 b5 3d c7 c3 11 3e 76 2f c9 bd
       -0.029036075 0.08864135 0.1423484 -0.098235056
0001a0 06 2d 9d 3d 09 9a 6b 3d 88 72 90 3e 70 3c a5 bd
       0.07674603 0.057519946 0.2821238 -0.08068168
0001b0 52 71 a8 3d e0 7b f4 bd e7 f6 bb bc 66 08 39 bd
       0.08224739 -0.1193769 -0.02294488 -0.045174025
0001c0 09 8f d4 3d 00 98 ca 3d 63 91 30 3e 96 ba 35 3d
       0.10378844 0.09892273 0.1724296 0.044367395
0001d0 c5 86 17 3c a6 7f ca 3d 93 f5 58 bd 37 50 e7 bd
       0.00924844 0.09887628 -0.052968573 -0.11294597
0001e0 34 de a4 be 0d ae c5 be 56 31 c5 bd 82 74 7d be
       -0.32200778 -0.38609353 -0.09628551 -0.24751475
0001f0 18 c3 89 3d a6 f4 1e be 01 0a 10 bc be f5 52 be
       0.06726664 -0.15523013 -0.008791448 -0.20601556
000200 f5 eb e3 bd ea 8b 00 3e 98 1a fa be b6 f4 c4 3d
       -0.111289896 0.12553373 -0.48848414 0.096169874
000210 49 02 40 3d 5f 26 fa bd f2 62 12 bd cb df 9e bd
       0.04687718 -0.1221435 -0.035738893 -0.07757529
000220 27 dd 35 3e 45 84 19 3e fc d6 d2 3c 18 ff 7d 3d
       0.17760144 0.14991863 0.025737278 0.062010854
000230 b3 6e 0f be e8 37 0a bf c9 f4 bf bd 98 98 d3 39
       -0.14007072 -0.53991556 -0.09372861 0.00040358747
000240 61 59 96 bd 55 bd 41 bd 19 ac 70 bd dd e4 f3 bc
       -0.073412664 -0.0472997 -0.058757875 -0.029772216
000250 96 14 f2 3d f2 a9 84 bd 44 67 71 3d dc 5c d6 bc
       0.11820333 -0.06477727 0.058936372 -0.026167326
000260 14 88 11 3e 86 8c fc ba 33 72 56 3d ad b7 95 3d
       0.14212066 -0.0019267953 0.052355003 0.07310424
000270 b4 ba 36 3e c5 bd 1e bd fc 87 e0 bd d7 21 0a 3d
       0.17844659 -0.038755197 -0.10963437 0.03372368
000280 2e 64 d7 bd 6a 39 54 be 74 36 af 3c 0e 18 29 be
       -0.10517155 -0.20725027 0.02138827 -0.16513082
000290 37 53 07 3e 3c 79 2e be 52 a2 1a 3e 27 da 64 3d
       0.13215338 -0.17038435 0.15100983 0.05587211
0002a0 02 5c 61 3e cb cc b9 3e 1e 5a 27 3e aa eb b2 bd
       0.22007754 0.36289057 0.1634297 -0.087363556
0002b0 fe 25 8a 3c 92 7b 4d 3d 70 c7 11 be f8 c2 d8 3c
       0.01686382 0.050166674 -0.14236236 0.026460156
0002c0 54 31 9e 3e 9c 12 9e 3d 14 63 56 3e 64 6b 36 bd
       0.3089701 0.07718393 0.20936233 -0.04453601
0002d0 3d e9 0e 3e 34 4d 5c 3e a8 f9 0b be 0d 33 4a 3e
       0.13956161 0.21513826 -0.13669455 0.19746037
0002e0 45 c1 d0 3d c3 94 ac 3a a5 1f 13 3e 60 71 c6 bd
       0.10193113 0.0013166893 0.1436754 -0.09689593
0002f0 5e 4b d0 3d 2c 70 04 be 62 2a db 3d 68 1d 0c be
       0.10170625 -0.12933415 0.10701443 -0.13683093
000300 f5 6d ac 3e 47 49 eb bc 9e 24 b0 bc a1 22 ab 3d
       0.3367764 -0.028721465 -0.021501835 0.08356214
000310 f9 58 21 be ed 13 43 3d f1 26 4b bd ac 3c 2f bd
       -0.15756597 0.047626425 -0.049597684 -0.04278247
000320 91 7c 0d 3f ff 26 5e 3f 6c 65 3e 3f d9 f1 09 3f
       0.552682 0.86778253 0.7437351 0.53884655
000330 19 b9 23 be 11 cb e5 3e bd eb da 3d 3e 5b 2a be
       -0.15988578 0.4488149 0.10689495 -0.16636369
000340 ca 23 e2 3d 1a 09 8d bf 89 ac e2 3e 04 17 1d be
       0.110419825 -1.1018403 0.4427226 -0.15340811
000350 1d 7e 07 be d4 4b 1e 3e 28 93 39 3d 2d a8 f9 be
       -0.13231702 0.15458614 0.045306355 -0.4876112
000360 3d 1d b9 bf 00 84 ce 3c 23 36 a0 bf 09 2e f8 3d
       -1.4462048 0.025209427 -1.2516521 0.121181555
000370 e2 21 b0 3d c8 9a 03 3f 62 65 99 3d a6 be a3 3e
       0.08600213 0.5140805 0.0749004 0.3198139
000380 a3 4c cc bd 5d fc e1 bd 46 5f 06 bf d6 56 e5 3d
       -0.09975555 -0.110344626 -0.52489126 0.11198203
000390 1f ba 1d 3e ad bf 05 be 9b e9 50 3e 15 45 07 be
       0.15403031 -0.130614 0.20401613 -0.13209946
0003a0 52 f0 9c bf 1f 99 00 bd 65 a1 cd be d5 86 38 bf
       -1.226084 -0.031396028 -0.40162197 -0.7208074
0003b0 5e bd 21 3d 58 d5 a8 3d 05 9a bd 3d 4a 37 1f 3c
       0.039487235 0.08243817 0.092578925 0.009717772
0003c0 93 18 35 bf 17 d2 4d bf 8c 73 29 bf 4c de 00 bf
       -0.7074062 -0.80398697 -0.66191936 -0.503392
0003d0 f5 d2 b6 bd 1c 35 7f bd 54 9f ff 3d 30 68 90 3e
       -0.089269556 -0.06230651 0.12481561 0.2820449
0003e0 aa ea 35 3f 13 85 1c 3f e0 54 93 3e c0 73 d9 3c
       0.71061194 0.61140555 0.28775692 0.026544452
0003f0 6b 6a 86 ba a0 11 e9 be 5e 74 7d bd 99 64 78 3c
       -0.0010255104 -0.4552126 -0.061878555 0.015160703

bias f4 [9]
000000 e5 c4 4c bd a9 dc 03 bd fa 9a 2a 3d 85 19 8d bd
       -0.04999246 -0.03219286 0.041651703 -0.06889633
000010 8f a4 b9 bd d9 d0 28 3e 00 f0 93 3e 29 72 23 bd
       -0.0906459 0.16485919 0.28894043 -0.039903793
000020 d6 fe 07 3a
       0.0005187815

weight f4 [40, 60]
000000 d0 12 74 3d dc f3 84 bd 30 72 d8 3c c4 69 0d 3d
       0.059588253 -0.06491825 0.026421636 0.034524694
000010 20 40 40 3c fb 7a b8 bd 40 df 6b bb 70 88 ce 3c
       0.011734039 -0.09007832 -0.0035991222 0.025211543
000020 2a 66 e4 bd 7a e4 89 3d c1 3c 9b bd 0c f4 25 bd
       -0.11152299 0.067330316 -0.07579947 -0.040515944
000030 90 d3 47 3d 1c a1 6d 3d 54 d4 8b bd d8 e1 f6 bd
       0.048785746 0.058014974 -0.06827608 -0.12054795
000040 e0 66 60 bc 35 cf e9 bd ff 44 e9 bd f8 e6 53 3d
       -0.013696402 -0.11416475 -0.11390113 0.05173394
000050 14 57 00 be 24 93 2f 3d dc 5e 82 bc 6e f6 96 3d
       -0.12533218 0.042864934 -0.015914373 0.073712215
000060 42 d6 c1 bd 04 b6 56 3d ea 78 8d 3d 56 39 8d 3d
       -0.094646946 0.052419677 0.06907828 0.068957016
000070 e8 a7 01 be e8 6c 9b 3c e0 48 82 3b 18 b2 b4 3c
       -0.12661707 0.018972829 0.0039759725 0.022057578
000080 30 91 b8 3d 00 31 e1 bd 20 08 3a bd 2c d4 98 bc
       0.09012067 -0.10995674 -0.045417905 -0.018655859
000090 94 64 cd 3d 7c 3f b0 3d 8e bb 82 3d de dc 9c 3d
       0.100289494 0.08605859 0.063834295 0.076593146
0000a0 4e 9c 6a bd f8 e5 2b 3d 32 fe fc 3d ee 08 f9 3d
       -0.05727797 0.041967362 0.123531714 0.12159906
0000b0 08 d0 f4 3c 00 8c 35 3c 64 39 df bc b0 5e 3a 3c
       0.029884353 0.011080742 -0.027249046 0.011375114
0000c0 84 15 72 3d 54 b9 ba 3d 74 5f d5 bd f0 ac bd 3c
       0.05910255 0.0911738 -0.10418597 0.023153752
0000d0 76 ba b3 bd 4c c1 69 3d a6 9c 7f bd 64 0f b8 bc
       -0.08775799 0.057069108 -0.06240525 -0.022468276
0000e0 24 e8 53 3d 7b 7d dc bd c2 da 5f bd 6d a6 9e bd
       0.05173506 -0.10766121 -0.054651983 -0.07746587
0000f0 1e 3b f4 bd 0c 1c d0 3d ba 79 6b 3d bd f8 98 3d
       -0.11925338 0.101615995 0.057489134 0.07469318
000100 5d 2a 57 bd 30 6d 1c 3c 51 02 d3 3c b8 50 53 3b
       -0.052530635 0.009547517 0.02575794 0.0032244157
000110 54 1f 37 bd 70 9e d0 3c 4f c7 4e 3e 00 72 41 3d
       -0.04470761 0.025466174 0.20193218 0.04722786
000120 40 6a 7d 3d dc 87 3c bd 08 bf 9d bd 5c 59 b5 bd
       0.061868906 -0.046028003 -0.07702452 -0.088549346
000130 c4 00 74 bd 81 6b b2 bd 1a 4d da 3d d4 ac c7 bd
       -0.059571043 -0.08711911 0.10659237 -0.09749761
000140 b6 d6 e1 3d 54 21 37 3d a7 93 d0 bd 3e 1c e1 bd
       0.11027281 0.04470952 -0.101844124 -0.10991715
000150 db 86 d6 bd f6 bb ab 3d 41 bd d4 bd 74 36 42 3d
       -0.104749404 0.0838546 -0.1038766 0.04741521
000160 30 93 0f bc 10 2c f1 3c b8 7e 8c 3d 39 6c 84 bd
       -0.00876312 0.029439956 0.06860107 -0.06465954
000170 08 a9 94 bd cf 9c 3e bc f5 84 a5 bc d2 6a 9d 3d
       -0.07258803 -0.011634066 -0.020205 0.0768639
000180 ad e2 7d 3d 7e 86 e0 bd d7 d2 93 bd 22 2b a7 3d
       0.061983753 -0.10963152 -0.07217949 0.08162524
000190 67 1a 03 3e 98 93 c1 3d 58 0e 0b 3d 60 fd a9 3c
       0.1280304 0.094519794 0.033949226 0.020750701
0001a0 4f c0 e8 bd f8 bd ed 3c 78 69 1c 3d 00 48 92 3a
       -0.11364805 0.029021248 0.03818652 0.0011160374
0001b0 14 6b e4 3d c0 b7 d3 3c 02 08 63 bd 20 bf 5e 3c
       0.11153236 0.025844455 -0.05542756 0.013595372
0001c0 00 55 3c 3d 78 aa b2 3c a6 37 2f bd 00 3e 80 b9
       0.0459795 0.021809801 -0.04277768 -0.00024460256
0001d0 44 84 63 3d 90 8a a4 3c 94 10 98 bc 9d f6 d2 bd
       0.05554606 0.020085603 -0.018562593 -0.10300944
0001e0 e6 fa f3 bd 34 e0 f3 bc b9 91 83 bd 51 be 4d bb
       -0.119130895 -0.029769994 -0.06424279 -0.0031393955
0001f0 85 18 8b 3d b0 9d eb 3c 4a 7b a6 bc b9 3d 48 3e
       0.06791786 0.028761715 -0.02032246 0.19554795
000200 fc 5f 42 be 8b 0a 30 bf bc c7 64 3e a5 08 d4 bd
       -0.18981928 -0.6876609 0.22341818 -0.10353211
000210 7f 78 db bd f8 cf 54 3d f8 f3 9a 3d e4 01 41 3d
       -0.10716342 0.051956147 0.075660646 0.047120944
000220 cc 4c f3 bc 2e 11 4b bd 10 fb 91 bb 40 c3 29 bb
       -0.029699706 -0.04957693 -0.004454978 -0.0025903732
000230 c6 77 fd 3d 98 e0 43 bd 3a 22 d1 3d 00 3c 0b 39
       0.123763606 -0.04782161 0.10211606 0.00013278425
000240 78 44 30 bd d6 cf a3 3d b0 3b 12 bc 70 4a ce bb
       -0.043034047 0.07998626 -0.008925363 -0.0062954947
000250 f7 76 83 bd b3 cb e2 bd 22 55 d9 bd c8 31 2c 3d
       -0.06419175 -0.11074009 -0.10611941 0.042039663
000260 ac 11 c1 3d 17 d1 7e bd 61 cd 25 be 75 b9 c1 bd
       0.09427199 -0.062211122 -0.16191627 -0.09459201
000270 ae fc af be 0e f6 42 bd 48 00 98 3d cc 85 e6 3d
       -0.34372467 -0.047597937 0.07421929 0.112559885
000280 7e da de 3d f4 ba 07 bd 8c bd 23 3d 08 9e 6d bc
       0.10881518 -0.033137277 0.039975688 -0.01450301
000290 98 9f 98 bc 3c 39 80 3d 1c db 84 bd 1c 49 27 bd
       -0.018630788 0.062609166 -0.06487104 -0.040841207
0002a0 93 c8 02 3e 06 b8 f4 3d c5 1c cd bd a8 bb 88 3c
       0.12771825 0.11949162 -0.10015253 0.016691044
0002b0 32 c1 c1 3d 00 cb dc ba 20 04 d6 3d 0c 62 b6 bd
       0.09460677 -0.0016845167 0.104500055 -0.0890542
0002c0 60 6f 12 3d 40 b0 6d bb a2 86 88 bd ec a1 7a bd
       0.035750747 -0.0036268383 -0.06666304 -0.061189577
0002d0 c2 92 ce 3d 48 02 ab bd 81 33 01 be ef 64 d8 bd
       0.100865856 -0.083500445 -0.12617303 -0.105661266
0002e0 80 f5 ce 3a 2c 12 1b bd c0 a0 b7 3c b0 2d b6 bd
       0.0015789717 -0.037859127 0.022415519 -0.08895433
0002f0 2c 5b 7e 3d d4 f0 57 3d 70 eb 48 3c 5c 2d de bd
       0.062098667 0.052719906 0.012263164 -0.10848495
000300 d4 61 29 3d 50 5b c2 3c cd f1 b6 bd fc 78 0e 3d
       0.04135306 0.023725182 -0.089328386 0.03478335
000310 ec 26 50 bd 61 27 8f bd da 7f c4 3d d6 cb 2a bd
       -0.05081837 -0.06989933 0.09594698 -0.0416983
000320 0b 4b 01 3e 00 b7 3c bb 94 ef ad bd 76 45 da bd
       0.12626283 -0.00287956 -0.084929615 -0.1065778
000330 5a 18 d4 3d 8c 07 88 bc 00 03 40 bc f9 13 aa bd
       0.10356207 -0.016605161 -0.011719465 -0.08304591
000340 fa e0 7f bd 58 27 f5 bc 70 dc b3 bd 91 7a 91 bd
       -0.062470414 -0.029925987 -0.087822795 -0.07103456
000350 f8 cf f9 3c f6 a1 e3 3d 04 fb 12 bd 08 57 1a bd
       0.030494675 0.11114876 -0.03588392 -0.037680656
000360 b0 38 04 3c 10 5e 3a 3d c1 f1 8c bd 30 5c e7 3d
       0.008070156 0.04549986 -0.068820484 0.1129688
000370 7a b7 d6 3d e0 42 bd 3c 68 8e 0a 3d 44 02 be bd
       0.10484214 0.023103178 0.033827215 -0.09277776
000380 b0 10 4a 3c 30 0f 5c bc 88 1e 3f 3d 44 c3 97 3d
       0.01233308 -0.013431355 0.046659976 0.07410291
000390 08 69 55 3d b2 6a 88 3d 00 9b 09 bb d0 6c 5f bd
       0.05210212 0.066609755 -0.0020996928 -0.05454713
0003a0 d6 1c 03 bd c4 a5 95 bd 73 98 ee bd a0 e1 84 3c
       -0.032009922 -0.07307008 -0.11650171 0.016220868
0003b0 fa c8 d5 3d e7 f2 01 be de 02 a0 3d e2 ef cc bd
       0.10438724 -0.12690316 0.07813047 -0.100066915
0003c0 60 ff 7b bc b6 a0 ac 3d 61 30 09 be 28 a9 2e bd
       -0.01538071 0.08429091 -0.13397361 -0.04264179
0003d0 6c c5 6a 3d 1c 78 0d bd 23 12 ca bc 33 02 96 3c
       0.057317182 -0.034538373 -0.024666851 0.018311596
0003e0 9d 18 c9 bd 23 fd 74 be 4a e0 41 3e 84 63 be bd
       -0.09819148 -0.23924689 0.18933216 -0.09296325
0003f0 14 b3 d8 bd 74 fa c5 3d 8c 18 00 bd 90 fd df 3c
       -0.105810314 0.09666911 -0.03127341 0.027342588

bias f4 [40]
000000 c0 37 05 3b 4e f3 bf 3c a0 c8 9f 3d 4e 7b 71 bd
       0.002032742 0.023431446 0.07801938 -0.058955483
000010 50 25 12 bd dd e5 e2 bd 11 8b 07 be 04 2a 8f 3d
       -0.035680115 -0.11078999 -0.13236643 0.06990436
000020 ea 1c 00 be 96 e4 39 3d 78 98 02 3e e8 c0 b0 3d
       -0.1251103 0.045384012 0.12753475 0.08630544
000030 b2 47 ae bd 7e 4d 96 3d a8 d3 64 bd 2a 52 c8 3d
       -0.085097685 0.07338999 -0.055865914 0.097812966
000040 62 de 84 3d 37 94 fa bc a7 10 d3 3d 85 92 47 3d
       0.06487729 -0.030588252 0.103059106 0.048723716
000050 3e 38 56 bd ee 61 8b 3d 0f 38 26 bd 03 b5 1b 3e
       -0.05229973 0.06805788 -0.040580805 0.15205769
000060 be f6 7b bc 3d f5 5e bc b1 46 25 3c bd 60 2f bd
       -0.015378652 -0.013608274 0.010087655 -0.042816866
000070 b5 c9 10 bd d8 10 a9 bd ea b5 8f 3d d9 ed 91 3d
       -0.035348613 -0.08255166 0.07017119 0.07125444
000080 ca 26 b4 3d f2 bd 8b bd 15 43 08 bd 2c 32 1b be
       0.08796461 -0.068233386 -0.0332671 -0.15155858
000090 3c 6f 7d bd 06 77 ff 3d 3d f7 a3 3d 1b 22 b8 bb
       -0.06187366 0.12473874 0.08006141 -0.0056193

weight f4 [1, 40]
000000 76 5b c1 3d e7 83 b4 bb 37 7b d4 3e 3c 27 34 3d
       0.09441273 -0.005508888 0.41500255 0.04398273
000010 f2 b3 e6 3b 10 9a c1 bc 63 5a 63 bf d6 19 b2 bd
       0.007040494 -0.023633033 -0.88809794 -0.08696334
000020 2a 7b b1 bb a2 d7 22 3e 02 4d 00 3f dd a1 06 3e
       -0.0054162936 0.1590257 0.50117505 0.13147683
000030 0a c8 6f bd 38 65 da 3c d8 a6 ae 3a 87 22 00 3e
       -0.05854038 0.026659593 0.001332487 0.12513171
000040 29 b2 e7 bd ce 5c 34 be 3a 61 2c 3b dc a9 18 3c
       -0.11313278 -0.17613527 0.0026303069 0.009317841
000050 51 d0 17 bd 1f a1 3b be 72 4b 80 3e b1 9b 80 be
       -0.0370639 -0.18323182 0.2505756 -0.25118783
000060 70 a0 e2 3c 4b c3 0b be f2 ef 21 3d 00 db e3 3e
       0.027664393 -0.13648717 0.03953547 0.4450302
000070 d8 7b db bd 2a ac 06 3f c2 31 03 3f a4 1c 80 3d
       -0.10716981 0.5260645 0.512478 0.06255463
000080 68 76 ff bd b0 f9 bd bd fd fb ed 3d 8e 8d 2e 3b
       -0.12473756 -0.0927614 0.116203286 0.0026634666
000090 1f 11 03 3e c7 2c bb bd fc 79 d3 bd f2 1d 24 be
       0.127995 -0.091394 -0.10326001 -0.16027048

probs f4 [9]
000000 39 8e e3 3d 39 8e e3 3d 39 8e e3 3d 39 8e e3 3d
       0.11111111 0.11111111 0.11111111 0.11111111
000010 39 8e e3 3d 39 8e e3 3d 39 8e e3 3d 39 8e e3 3d
       0.11111111 0.11111111 0.11111111 0.11111111
000020 39 8e e3 3d
       0.11111111

logits f4 [9]
000000 54 9f 0c c0 54 9f 0c c0 54 9f 0c c0 54 9f 0c c0
       -2.1972246 -2.1972246 -2.1972246 -2.1972246
000010 54 9f 0c c0 54 9f 0c c0 54 9f 0c c0 54 9f 0c c0
       -2.1972246 -2.1972246 -2.1972246 -2.1972246
000020 54 9f 0c c0
       -2.1972246
