src/coinjump/coinjump_learn/training/PPO_preTrained/CoinJumpEnvKD-v0/PPO_CoinJumpEnvKD-v0_123456_15144.pth (torch, 30151 bytes, 9 tensors)

weight f4 [40, 60]
0	0x3a90b900	0.0011041462
1	0x3da80be4	0.08205393
2	0xbd5dc468	-0.054142386
3	0x3d73ee5e	0.059553497
4	0xbb009f99	-0.0019626378
5	0x3d48e3b8	0.049045295
6	0x3a514084	0.0007982331
7	0xbd83eed6	-0.06442039
8	0xbd7e46d6	-0.062079273
9	0xbe2ae80e	-0.16690084
10	0xbd37991d	-0.044823755
11	0x3df59186	0.11990647
12	0x3c5d91a0	0.013523489
13	0xbe029bf1	-0.127548
14	0xbdd0b690	-0.10191071
15	0xbd87d621	-0.06632639
16	0x3b6f6d00	0.0036533475
17	0xbd5b4e72	-0.05354161
18	0xbe004f1d	-0.1253018
19	0xbd4e4824	-0.050361767
20	0xbb161780	-0.002290219
21	0x3d37de04	0.044889465
22	0x3d45f6dc	0.048331127
23	0x3dd584a2	0.10425688
24	0xbdc00ced	-0.093774654
25	0xbd736c98	-0.059429735
26	0xbdc43572	-0.095805064
27	0xbd5169ac	-0.051126167
28	0xbdfe204b	-0.12408503
29	0x3de88bc0	0.1135478
30	0xbdc5ec66	-0.0966423
31	0x3d237a64	0.039911643
32	0x3cc94170	0.024567336
33	0xbd858ecb	-0.06521376
34	0x3dbc96ba	0.09208436
35	0x3df2b2d2	0.118505135
36	0xbd78f476	-0.06078001
37	0xbd5f64aa	-0.05453936
38	0xbd97634a	-0.07391985
39	0xbdd28772	-0.102797404
40	0xbd26bc54	-0.040706947
41	0x3be7dae0	0.0070756525
42	0xbdd3467c	-0.10316178
43	0x3d0d314c	0.03447084
44	0xbd86fe7d	-0.065915085
45	0xbd55c324	-0.052188054
46	0xbe028103	-0.12744527
47	0xbd0c5a54	-0.03426583
48	0x3dec60a8	0.11541873
49	0xbd25fe70	-0.040525854
50	0x3d43c4f4	0.04779525
51	0x3da0e7b6	0.07856695
52	0xbdc53474	-0.09629145
53	0xbdc4e739	-0.09614415
54	0x3da3b064	0.07992628
55	0x3d826f04	0.06368831
56	0xbdb7030f	-0.0893613
57	0x3df6988c	0.12040815
58	0xbdd88262	-0.105717435
59	0x3c81a218	0.015824363
60	0xbcce8fb8	-0.025215015
61	0x3b438cc0	0.0029838532
62	0x3c84e201	0.016221048
63	0x3dcdaa40	0.10042238
64	0xbc53fc59	-0.012938582
65	0x3c435200	0.011921406
66	0x3da248c4	0.07924035
67	0xbe22a11b	-0.1588177
68	0x3d27bce2	0.040951617
69	0x3d9170fe	0.0710163
70	0x3d50d9d5	0.05098899
71	0xbdad4338	-0.084600866
72	0x3d86bc02	0.065788284
73	0x3e030c51	0.12797667
74	0xbdf719cf	-0.120654695
75	0xbe015284	-0.12629133
76	0xbd76e772	-0.060279317
77	0xbd85ea11	-0.06538785
78	0xbd581a74	-0.052759603
79	0x3d2bd290	0.041948855
80	0xbd113206	-0.035448097
81	0x3d640270	0.055666387
82	0xbde2c6b0	-0.11073053
83	0xbd0eb446	-0.03483989
84	0x3d4882cc	0.048952863
85	0x3ddae452	0.1068808
86	0xbd484f06	-0.048903488
87	0x3df161ce	0.11786233
88	0xbd9edb1e	-0.07756637
89	0x3d8d6ace	0.06905137
90	0x3d890f80	0.066924095
91	0xbce2a9c8	-0.027668849
92	0x3e023f05	0.12719353
93	0x3da67dd2	0.08129467
94	0x3d1474d8	0.036244243
95	0x3da97e9a	0.082761005
96	0x3c70a0a0	0.0146867335
97	0xbcf19f48	-0.029494897
98	0xbdb10311	-0.08643163
99	0xbdbcc4ff	-0.092172615
100	0x3c09f370	0.008419856
101	0x3d0096e4	0.0313939
102	0xbe117177	-0.1420344
103	0x3c3d2d67	0.011546469
104	0xbdc45ba6	-0.09587793
105	0xbd8245db	-0.0636098
106	0xbd8c6e3e	-0.068569645
107	0xbb73ab00	-0.0037180781
108	0x3c7f4e30	0.015582606
109	0x3dc07bf2	0.09398641
110	0xbd487e90	-0.048948824
111	0xbdc4e819	-0.096145816
112	0x3d6c50ea	0.057694353
113	0xbda06a7b	-0.078328095
114	0x3d65d3e4	0.056110278
115	0x3e00d12d	0.12579794
116	0x3c37b830	0.011213347
117	0x3db5da4a	0.08879526
118	0xbd8cf4bf	-0.06882619
119	0x3de45252	0.11148514
120	0x3beeec40	0.007291347
121	0x3d750c14	0.05982597
122	0x3d51c5bc	0.051213965
123	0xbdb34228	-0.08752853
124	0x3bd07600	0.006361723
125	0x3da433ca	0.080176905
126	0xbda8213b	-0.08209463
127	0x3cbf93f8	0.023385987
128	0xbd9551cc	-0.07290992
129	0xbd923ff4	-0.07141104
130	0xbd346ad0	-0.044047177
131	0xbe032c28	-0.12809813
132	0xbc2d1350	-0.0105636865
133	0xbd3d479e	-0.046210878
134	0x3d72ad40	0.059247255
135	0xbde24dc1	-0.11049987
136	0x3dfa526e	0.122227535
137	0x3d2e4df8	0.042554826
138	0x3dd1d96e	0.102465495
139	0x3d9406d6	0.07227866
140	0x3dad63c2	0.08466293
141	0xbbb5d980	-0.0055496097
142	0x3dbe498a	0.0929137
143	0xbd2c0652	-0.041998215
144	0x3de97302	0.11398889
145	0x3b700cc0	0.0036628693
146	0x3ddf4794	0.10902324
147	0xbde12efc	-0.1099529
148	0xbd192daa	-0.037397064
149	0xbe03c289	-0.12867178
150	0xbd8fa71d	-0.07014296
151	0xbd47089e	-0.048592202
152	0xbd35b26a	-0.044359602
153	0xbd7450be	-0.059647314
154	0x3dc756c8	0.09733349
155	0xbdb85152	-0.089998856
156	0xbd0ec3dc	-0.034854755
157	0x3d67bcc4	0.056576505
158	0xbd3b38cc	-0.045708463
159	0xbcd4aa24	-0.025960036
160	0x3c80cda0	0.01572305
161	0x3daffc70	0.085930705
162	0xbdc32b11	-0.09529699
163	0xbdd9d5a4	-0.10636452
164	0xbdc19efd	-0.09454153
165	0xbd99d11d	-0.07510588
166	0xbd1963aa	-0.037448563
167	0xbc037170	-0.008022651
168	0xbde27342	-0.1105714
169	0xbdfc5d67	-0.123225026
170	0xbc30a918	-0.010782503
171	0x3ddbe804	0.10737613
172	0xbdadf40c	-0.08493814
173	0x3de759ae	0.11296402
174	0xbdb61a76	-0.08891766
175	0x3df3f392	0.11911692
176	0x3da80472	0.08203973
177	0xbdff16a5	-0.12455491
178	0xbdcc9228	-0.099888146
179	0xbd44cdcc	-0.048047826
180	0x3de98bae	0.11403595
181	0xbdaa7cc5	-0.08324579
182	0x3dcfb7fd	0.10142515
183	0xbd1bac32	-0.038006015
184	0xbe0f954f	-0.140218
185	0x3d624510	0.055241644
186	0xbd6e854c	-0.05823259
187	0xbe196ce3	-0.14982943
188	0x3d9b38e0	0.075792074
189	0xbddfb4b3	-0.109231375
190	0x3d456cfa	0.04819963
191	0xbc6130c8	-0.0137445405
192	0xbd92b948	-0.07164246
193	0xbc2589c8	-0.01010365
194	0xbb82e400	-0.003994465
195	0x3d618b54	0.055064514
196	0xbd74fd90	-0.05981213
197	0xbd4a6b14	-0.049418524
198	0x3dabce02	0.08388902
199	0xbd7df508	-0.062001258
200	0xbd899f8e	-0.06719886
201	0x3dee512c	0.11636576
202	0x3dde6f6c	0.10861096
203	0xbd713dea	-0.058896936
204	0xbd799002	-0.060928352
205	0x3b3a8d40	0.002846554
206	0xbd3e0a38	-0.046396464
207	0xbd963a62	-0.073353544
208	0xbdcfcb48	-0.10146195
209	0xbdc9fa46	-0.09862189
210	0x3e0125bb	0.1261205
211	0x3a8d7d80	0.0010794848
212	0x3c764f80	0.015033603
213	0x3ddbdfe0	0.1073606
214	0x3dc107ec	0.09425339
215	0x3d07aa10	0.03312117
216	0xbb9cc7c0	-0.0047845542
217	0xbc3f4498	-0.011674069
218	0x3dba33c6	0.09091906
219	0x3dc21310	0.09476292
220	0xbdbad1ea	-0.09122069
221	0x3df266d4	0.11836019
222	0x3c01c106	0.0079195555
223	0x3d2d5fe7	0.042327788
224	0xbddd7987	-0.10814195
225	0xbc9b7664	-0.018977351
226	0x3da39c3a	0.07988782
227	0xbace2500	-0.001572758
228	0xbddc8dd0	-0.10769236
229	0x3c54bb20	0.012984067
230	0x39f39000	0.0004645586
231	0xbd538980	-0.051644802
232	0x3d1fd6bc	0.039023146
233	0x3d3a654a	0.045506753
234	0x3dc7af70	0.09750259
235	0x3bd97180	0.0066358447
236	0x3d0805e8	0.033208758
237	0x3db0bbe6	0.08629589
238	0xbdafae17	-0.08578127
239	0xbd13be48	-0.03607014
240	0x3da5243e	0.08063553
241	0x3dd6c368	0.104864895
242	0x3dd0c08a	0.10192974
243	0xba562700	-0.00081692636
244	0xbe00e591	-0.12587573
245	0x3df074da	0.11741038
246	0xbd30d834	-0.043174937
247	0xbdf3a01c	-0.11895773
248	0xbe0146ab	-0.12624614
249	0x3df559b2	0.11979999
250	0xbd048b18	-0.032359213
251	0x3d4f49c8	0.050607473
252	0xbd07ca62	-0.03315199
253	0x3d7e9fc4	0.062164083
254	0xbceb238c	-0.028703474
255	0x3cbe37b8	0.023219928

bias f4 [40]
0	0xbce2d21d	-0.02768808
1	0x3c871dda	0.016493727
2	0xbdafe6cc	-0.08588943
3	0xbe0b2290	-0.13587403
4	0x3ce38480	0.027773142
5	0xbd8f28aa	-0.06990178
6	0x3dffcc60	0.12490153
7	0xbcbf98f6	-0.023388367
8	0x3dd44d69	0.10366327
9	0x3d309702	0.043112762
10	0xbdcc6a4e	-0.099812135
11	0x3d6a3b81	0.057185654
12	0xbdffbf6c	-0.12487683
13	0x3db5dd0e	0.088800535
14	0xbdc44066	-0.095825955
15	0xbda60d2a	-0.081079796
16	0xbc9702da	-0.018433977
17	0xbd7173ae	-0.05894821
18	0x3cbad918	0.022808596
19	0xbc4f6f34	-0.01266079
20	0x3ca7ccd8	0.02048342
21	0xbd4fb957	-0.050713863
22	0xbdd52920	-0.104082346
23	0xbcd78a1c	-0.026310973
24	0xbd965a7a	-0.07341476
25	0xbd53fda8	-0.051755577
26	0xbddf5ff0	-0.109069705
27	0xbe1fe2f2	-0.15613917
28	0x3c64d700	0.013967276
29	0x3d7ef856	0.06224855
30	0xbe0e67cc	-0.13906783
31	0x3e0190e7	0.12652932
32	0xbda0d362	-0.07852818
33	0x3c883afa	0.016629685
34	0xbca6f31a	-0.020379592
35	0xbded972f	-0.116011016
36	0xbce06276	-0.0273907
37	0xbdff827f	-0.12476062
38	0x3d778f5a	0.060439445
39	0xbddc053e	-0.10743187

weight f4 [9, 40]
0	0xbd21c1e1	-0.039491538
1	0xbdcede9c	-0.10101053
2	0x3e033d6d	0.12816401
3	0xbe2204b9	-0.15822114
4	0xbd484228	-0.048891217
5	0x3c09b9e5	0.008406137
6	0xbcbab716	-0.02279238
7	0xbdde7e69	-0.108639546
8	0x3cf23e95	0.029570857
9	0x3d19368a	0.037405528
10	0x3da9855a	0.08277388
11	0x3d3035f1	0.043020193
12	0x3ccc0fc1	0.024909856
13	0xbe7fd2d7	-0.24982773
14	0x3cc416f0	0.023936719
15	0x3e0d04b6	0.13771328
16	0x3ccf227d	0.025285
17	0x3e2be433	0.1678627
18	0x3d50dd79	0.050992463
19	0xbe207311	-0.15668894
20	0xbde3510e	-0.11099444
21	0x3ccd2b98	0.025045201
22	0xbc30e850	-0.010797575
23	0x3c783ad0	0.015150741
24	0x3d06f26c	0.032946035
25	0xbd4b4476	-0.049625836
26	0xbe03c26a	-0.12867132
27	0xbdcaff4e	-0.09911977
28	0x3d9eceda	0.077542976
29	0x3e3b1b5c	0.18272156
30	0xbdf70b35	-0.120626844
31	0xbe0fd845	-0.14047344
32	0x3dcb2121	0.09918428
33	0x3d0dccf4	0.034619287
34	0xbc53cdac	-0.012927454
35	0x3e107d40	0.14110279
36	0xbe1becbe	-0.15227029
37	0xbdb94b6e	-0.0904759
38	0xbd7bcc69	-0.061474238
39	0xbc4ff70e	-0.01269318
40	0x3d160ece	0.036635213
41	0x3d989afa	0.074514344
42	0xbda8c11f	-0.0823996
43	0xbe121c89	-0.14268698
44	0xbe216b30	-0.15763545
45	0x3d566d8c	0.052350566
46	0xbd75b548	-0.059987336
47	0x3c95dd11	0.01829389
48	0xbed48027	-0.41504022
49	0x3bd8cda1	0.0066163098
50	0xbd4dc6d2	-0.050238438
51	0xbe18aa0e	-0.1490862
52	0x3d9dc92c	0.07704386
53	0x3f2a9d69	0.6664644
54	0xbdff2452	-0.124580994
55	0x3de464ed	0.111520626
56	0x3d8c22b8	0.068425596
57	0xbde20d06	-0.1103764
58	0xbc048306	-0.008087879
59	0x3d22cb16	0.03974446
60	0xbf519caf	-0.81879705
61	0xbd4a9af3	-0.049464177
62	0x3e0a2fdb	0.13494818
63	0x3d6412f0	0.055682123
64	0xbdc7616a	-0.09735377
65	0x3df0765a	0.11741324
66	0xbdae7396	-0.0851814
67	0x3dc3ce52	0.09560837
68	0x3da153dc	0.07877323
69	0xbd05c5b7	-0.03265926
70	0xbdd22133	-0.102602385
71	0xbc9ea108	-0.019363895
72	0x3ccb9746	0.024852406
73	0xbd3fd752	-0.046836205
74	0xbdce947d	-0.10086916
75	0xbdb98ead	-0.09060416
76	0x3d50b843	0.050956976
77	0x3e22aca9	0.15886177
78	0xbdde6749	-0.10859544
79	0x3d170afc	0.03687571
80	0xbcb8bf9e	-0.022552308
81	0xbdb912e5	-0.09036807
82	0xbdd6a2d4	-0.10480276
83	0x3dcc08ca	0.09962614
84	0x3d87fad4	0.066396385
85	0x3d6a32d1	0.05717737
86	0xbe4686ff	-0.19387434
87	0x3d9c633f	0.07636117
88	0x3e5f3fac	0.21801633
89	0x3e05abf7	0.1305388
90	0xbdb5eaef	-0.08882701
91	0xbdb3945b	-0.08768531
92	0xbc7a544b	-0.015278886
93	0xbea11aaf	-0.3146567
94	0xbde0f690	-0.10984528
95	0x3d9dcea6	0.07705431
96	0xbd438503	-0.04773427
97	0xbd55655d	-0.05209862
98	0x3d2ce43c	0.04220985
99	0xbd7fbcfa	-0.06243608
100	0x3f0d1453	0.5510914
101	0x3e0707c6	0.13186559
102	0x3e11c3c7	0.1423484
103	0x3ddd516a	0.10806544
104	0x3dcb6a6a	0.09932406
105	0x3d325055	0.04353364
106	0x3e09c63e	0.1345453
107	0xbdabe776	-0.08393757
108	0x3da87152	0.08224739
109	0xbdae6c95	-0.08516804
110	0xbc1ee45e	-0.009698002
111	0xbd23e8fa	-0.040017106
112	0xbdbbb926	-0.09166174
113	0x3d27655c	0.04086815
114	0x3e1553ab	0.14582698
115	0x3cc893c3	0.02448452
116	0x3d4f6533	0.05063362
117	0x3dd294d9	0.10282297
118	0x3cc07b11	0.023496183
119	0xbdb5c5be	-0.08875607
120	0xbd68f802	-0.056877144
121	0x3c297c94	0.010344643
122	0x3c59dc10	0.013297096
123	0xbca1de23	-0.019759243
124	0x3b6c1e80	0.0036028922
125	0x3cf0b476	0.029382925
126	0xbe7fce07	-0.24980937
127	0xbd15f197	-0.03660735
128	0xbe649bb7	-0.22325025
129	0x3d413ede	0.047179095
130	0xbdc50e74	-0.09621897
131	0xbbfa8e66	-0.0076463697
132	0x3db23bc9	0.08702809
133	0xbebe8edc	-0.37218368
134	0xbd1262f2	-0.035738893
135	0x3d1a49b3	0.03766794
136	0x3c9773e9	0.018487887
137	0x3e18bc61	0.14915611
138	0xbd18a221	-0.037263993
139	0x3d093607	0.03349879
140	0xbeccb69a	-0.39983064
141	0xbddf5008	-0.109039366
142	0xbdbff4c9	-0.09372861
143	0xbd2cd8c8	-0.042198926
144	0xbdbf2aed	-0.09334359
145	0xbe0969d4	-0.13419276
146	0x3d43fe4c	0.04784994
147	0xbc2c4e37	-0.010516695
148	0x3df21496	0.11820333
149	0xbd52ab23	-0.05143274
150	0x3e103eb2	0.14086416
151	0xbd239416	-0.039936148
152	0x3d30462d	0.043035675
153	0x3d698d7b	0.057019692
154	0xbbbe92fe	-0.0058158627
155	0x3e12309d	0.14276357
156	0x3e1ba0ea	0.15198103
157	0x3cc15608	0.023600593
158	0xbcd5eadc	-0.026112966
159	0x3da4a4e9	0.080392666
160	0x3d52d568	0.05147305
161	0xbca293a4	-0.019845791
162	0xbc08e970	-0.008356437
163	0x3b8f52cd	0.0043738843
164	0x3e1df449	0.15425219
165	0x3d3eba00	0.046564102
166	0x3d812496	0.06305806
167	0x3c923721	0.017848553
168	0xbda11944	-0.07866147
169	0x39aaf04b	0.0003260396
170	0x3d92c9c0	0.07167387
171	0xbda063ce	-0.07831536
172	0x3d3c3832	0.04595203
173	0xbe44ec9a	-0.19230881
174	0xbe11c770	-0.14236236
175	0xbd49696c	-0.049172804
176	0x3d11262c	0.035436794
177	0x3d89c7ac	0.067275375
178	0x3dc6e159	0.097109504
179	0x3c4251a4	0.011860285
180	0xbde9e75d	-0.11421082
181	0x3d6c4469	0.05768243
182	0xbe0bf9a8	-0.13669455
183	0xbdedae11	-0.11605466
184	0x3da3a6a8	0.079907715
185	0x3af61f90	0.0018777717
186	0x3ccd27e5	0.025043437
187	0xbdfe40a1	-0.12414671
188	0x3dd04b5e	0.10170625
189	0xbde6f287	-0.11276727
190	0x3d053ec4	0.03253056
191	0xbe1c63b3	-0.15272407
192	0x3cf98c1e	0.03046232
193	0x3ccdd3d8	0.025125429
194	0xbd6a672c	-0.0572273
195	0x3d2e0429	0.042484436
196	0xbdfb435c	-0.12268707
197	0xb8369b86	-4.3537024e-05
198	0x3da39395	0.079871334
199	0x3c8dc8eb	0.01730772
200	0xbd926a29	-0.07149155
201	0x3cbcfe14	0.023070373
202	0x3e068fef	0.13140844
203	0x3d8e7a5d	0.06956933
204	0xbdc4593e	-0.09587334
205	0x3d74dbf7	0.059780087
206	0x3d79e587	0.06100991
207	0xbd54a575	-0.051915605
208	0xbf2aaa4e	-0.66666114
209	0x3d31f254	0.043443993
210	0xbda8ccac	-0.08242163
211	0xbe0fd182	-0.14044765
212	0xbde69a92	-0.11259951
213	0x3cb597a9	0.022167044
214	0x3d399328	0.045306355
215	0x3d70e334	0.058810428
216	0xbd4c4177	-0.04986712
217	0x3ba17d9d	0.0049283043
218	0xbe05a3dd	-0.1305079
219	0x3e39f295	0.18158944
220	0xbf1a165e	-0.6019038
221	0xbde1e316	-0.11029641
222	0x3d996562	0.0749004
223	0x3ded10b2	0.1157545
224	0xbdddfacd	-0.10838852
225	0xbd6a2412	-0.057163306
226	0xbd1118df	-0.03542411
227	0x3e047c7a	0.12938109
228	0x3e1dba1f	0.15403031
229	0xbe207aa3	-0.15671782
230	0x3e2263fd	0.15858455
231	0xbe15671c	-0.14590114
232	0xbc2f3629	-0.010694065
233	0x3cbcc9ac	0.023045383
234	0xbceab3c2	-0.028650168
235	0xbd8f1738	-0.069868505
236	0x3dbd76cb	0.092511736
237	0xbd18165f	-0.03713071
238	0xbd1020fc	-0.035187706
239	0x3ba29b33	0.004962349
240	0xbdedda04	-0.11613849
241	0xbe428c43	-0.18998818
242	0x3d930038	0.07177776
243	0xbdebd1e2	-0.11514641
244	0xbe04206f	-0.12902997
245	0x3b9994bc	0.00468692
246	0xbe0444c2	-0.12916854
247	0x3d0116be	0.03151583
248	0x3e4c4fa8	0.19952261
249	0x3d9d0aee	0.076681
250	0x3e13cb95	0.14433129
251	0x3ca57131	0.020195575
252	0xbcbe7f58	-0.023254082
253	0xbf192194	-0.5981686
254	0xbd7d745e	-0.061878555
255	0x3daad81a	0.08341999

bias f4 [9]
0	0xbceaeef9	-0.028678404
1	0x3e93a03c	0.28833187
2	0xbd71a7f5	-0.058998067
3	0xbe354fca	-0.17706218
4	0xbe3c8bbe	-0.18412682
5	0xbdfd5a97	-0.12370794
6	0xbe8ea68e	-0.27861446
7	0x3e80c245	0.25148216
8	0x3e81ca3e	0.2534961

weight f4 [40, 60]
0	0x3d7412d0	0.059588253
1	0xbd84f3dc	-0.06491825
2	0x3d79e370	0.061007917
3	0x3d8d8a43	0.06911137
4	0x3d3dba65	0.046320338
5	0xbdb87afb	-0.09007832
6	0x3cfdd8fb	0.030987253
7	0xbb7c9a3a	-0.0038544075
8	0xbd22dc77	-0.039761033
9	0x3d6733fc	0.05644606
10	0xbdb4a21f	-0.08819985
11	0xbd25f40c	-0.040515944
12	0x3d47d390	0.048785746
13	0x3d6da11c	0.058014974
14	0xbd8bd454	-0.06827608
15	0xbdf6e1d8	-0.12054795
16	0xbc6066e0	-0.013696402
17	0xbde9cf35	-0.11416475
18	0xbde944ff	-0.11390113
19	0x3d53e6f8	0.05173394
20	0xbe005714	-0.12533218
21	0x3d2f9324	0.042864934
22	0xbc825edc	-0.015914373
23	0x3d96f66e	0.073712215
24	0xbdc1d642	-0.094646946
25	0x3d56b604	0.052419677
26	0x3d8d78ea	0.06907828
27	0x3d8d3956	0.068957016
28	0xbe01a7e8	-0.12661707
29	0x3c9b6ce8	0.018972829
30	0x3b8248e0	0.0039759725
31	0x3cb4b218	0.022057578
32	0x3db89130	0.09012067
33	0xbde13100	-0.10995674
34	0xbd3a0820	-0.045417905
35	0xbc98d42c	-0.018655859
36	0x3dcd6494	0.100289494
37	0x3db03f7c	0.08605859
38	0x3d82bb8e	0.063834295
39	0x3d9cdcde	0.076593146
40	0xbd6a9c4e	-0.05727797
41	0x3d2be5f8	0.041967362
42	0x3e21e9af	0.158118
43	0x3e1adedb	0.15124075
44	0x3d84095c	0.06447098
45	0x3c358c00	0.011080742
46	0xbcdf3964	-0.027249046
47	0x3c3a5eb0	0.011375114
48	0x3d721584	0.05910255
49	0x3dbab954	0.0911738
50	0xbdd55f74	-0.10418597
51	0x3d55cc87	0.052197006
52	0xbd2f97dc	-0.042869434
53	0x3db05b8a	0.0861121
54	0xbd7f9ca6	-0.06240525
55	0xbcb80f64	-0.022468276
56	0x3d53e824	0.05173506
57	0xbddc7d7b	-0.10766121
58	0xbd5fdac2	-0.054651983
59	0xbd9ea66d	-0.07746587
60	0xbdf43b1e	-0.11925338
61	0x3dd01c0c	0.101615995
62	0x3c631560	0.013860077
63	0x3cfe780a	0.031063098
64	0xbdc4ef20	-0.09615922
65	0x3c1c6d30	0.009547517
66	0xbc9268d1	-0.017872246
67	0x3ca2b018	0.019859359
68	0xbe0233f7	-0.12715136
69	0xbd4beda3	-0.049787175
70	0x3db3b99d	0.08775637
71	0x3d417200	0.04722786
72	0x3d7d6a40	0.061868906
73	0xbd3c87dc	-0.046028003
74	0xbd9dbf08	-0.07702452
75	0xbdb5595c	-0.088549346
76	0xbd7400c4	-0.059571043
77	0xbdb26b81	-0.08711911
78	0x3dda4d1a	0.10659237
79	0xbdc7acd4	-0.09749761
80	0x3de1d6b6	0.11027281
81	0x3d372154	0.04470952
82	0xbdd093a7	-0.101844124
83	0xbde11c3e	-0.10991715
84	0xbdd686db	-0.104749404
85	0x3dabbbf6	0.0838546
86	0xbdd4bd41	-0.1038766
87	0x3d423674	0.04741521
88	0xbc0f9330	-0.00876312
89	0x3cf12c10	0.029439956
90	0x3d8c7eb8	0.06860107
91	0xbd846c39	-0.06465954
92	0xbd94a908	-0.07258803
93	0x3c99c550	0.018770844
94	0x3d9957ca	0.074874476
95	0x3ddbaf78	0.107268274
96	0x3ddb8850	0.10719359
97	0xbde0867e	-0.10963152
98	0xbd93d2d7	-0.07217949
99	0x3da72b22	0.08162524
100	0x3e031a67	0.1280304
101	0x3dc19398	0.094519794
102	0xbd242f8f	-0.040084418
103	0x3b92f7cd	0.0044851066
104	0xbe402fa9	-0.18768181
105	0x3cedbdf8	0.029021248
106	0x3d1c6978	0.03818652
107	0x3a924800	0.0011160374
108	0x3de46b14	0.11153236
109	0x3cd3b7c0	0.025844455
110	0xbd630802	-0.05542756
111	0x3d150dd3	0.036390137
112	0x3ce2d76f	0.027690617
113	0x3d36b34e	0.044604592
114	0xbd2f37a6	-0.04277768
115	0xb9803e00	-0.00024460256
116	0x3d638444	0.05554606
117	0x3ca48a90	0.020085603
118	0xbc981094	-0.018562593
119	0xbdd2f69d	-0.10300944
120	0xbdf3fae6	-0.119130895
121	0xbcf3e034	-0.029769994
122	0xbb8b7f2a	-0.0042571025
123	0x3d68d798	0.05684623
124	0x3e02f95c	0.12790436
125	0x3ceb9db0	0.028761715
126	0x3d2275c1	0.03966308
127	0x3d90bcf4	0.0706729
128	0xbd2b7394	-0.04185827
129	0x3c79f147	0.015255279
130	0xbe15eee9	-0.14641918
131	0xbdd408a5	-0.10353211
132	0xbddb787f	-0.10716342
133	0x3d54cff8	0.051956147
134	0x3d9af3f8	0.075660646
135	0x3d4101e4	0.047120944
136	0xbcf34ccc	-0.029699706
137	0xbd4b112e	-0.04957693
138	0xbb91fb10	-0.004454978
139	0xbb29c340	-0.0025903732
140	0x3dfd77c6	0.123763606
141	0xbd43e098	-0.04782161
142	0x3dd1223a	0.10211606
143	0x390b3c00	0.00013278425
144	0xbd304478	-0.043034047
145	0x3da3cfd6	0.07998626
146	0xbc123bb0	-0.008925363
147	0xbbce4a70	-0.0062954947
148	0xbd8376f7	-0.06419175
149	0xbde2cbb3	-0.11074009
150	0xbdd95522	-0.10611941
151	0x3d2c31c8	0.042039663
152	0x3dc111ac	0.09427199
153	0xbcd13de0	-0.0255422
154	0xbda459d9	-0.080249496
155	0xbd6d404e	-0.057922654
156	0xbc9d4878	-0.019199595
157	0xbd42f60e	-0.047597937
158	0x3d980048	0.07421929
159	0x3de685cc	0.112559885
160	0x3ddeda7e	0.10881518
161	0xbd07baf4	-0.033137277
162	0x3d819f70	0.063292384
163	0x3c9cf46c	0.019159518
164	0x3b998be4	0.0046858657
165	0x3d80393c	0.062609166
166	0xbd84db1c	-0.06487104
167	0xbd27491c	-0.040841207
168	0x3e02c893	0.12771825
169	0x3df4b806	0.11949162
170	0xbdcd1cc5	-0.10015253
171	0x3d16ff3d	0.036864508
172	0x3df19165	0.1179531
173	0x3c9775cf	0.018488793
174	0x3dd60420	0.104500055
175	0xbdb6620c	-0.0890542
176	0x3d126f60	0.035750747
177	0xbb6db040	-0.0036268383
178	0xbd8886a2	-0.06666304
179	0xbd7aa1ec	-0.061189577
180	0x3dce92c2	0.100865856
181	0xbdab0248	-0.083500445
182	0xbe013381	-0.12617303
183	0xbdd864ef	-0.105661266
184	0x3acef580	0.0015789717
185	0xbd1b122c	-0.037859127
186	0x3cb7a0c0	0.022415519
187	0xbdb62db0	-0.08895433
188	0x3d7e5b2c	0.062098667
189	0x3d57f0d4	0.052719906
190	0x3c48eb70	0.012263164
191	0xbdde2d5c	-0.10848495
192	0x3d2961d4	0.04135306
193	0x3cc25b50	0.023725182
194	0xbdb6f1cd	-0.089328386
195	0x3d0e78fc	0.03478335
196	0xbd5026ec	-0.05081837
197	0xbd8f2761	-0.06989933
198	0x3dc47fda	0.09594698
199	0xbd2acbd6	-0.0416983
200	0x3e014b0b	0.12626283
201	0xbb3cb700	-0.00287956
202	0xbdadef94	-0.084929615
203	0xbdda4576	-0.1065778
204	0x3dd4185a	0.10356207
205	0xbc88078c	-0.016605161
206	0xbc400300	-0.011719465
207	0xbdaa13f9	-0.08304591
208	0xbd7fe0fa	-0.062470414
209	0xbcf52758	-0.029925987
210	0xbdb3dc70	-0.087822795
211	0xbd917a91	-0.07103456
212	0x3cf9cff8	0.030494675
213	0x3de3a1f6	0.11114876
214	0xbd12fb04	-0.03588392
215	0xbd1a5708	-0.037680656
216	0x3c0438b0	0.008070156
217	0x3d3a5e10	0.04549986
218	0xbd8cf1c1	-0.068820484
219	0x3de75c30	0.1129688
220	0x3dd6b77a	0.10484214
221	0x3cbd42e0	0.023103178
222	0x3d0a8e68	0.033827215
223	0xbdbe0244	-0.09277776
224	0x3c4a10b0	0.01233308
225	0xbc5c0f30	-0.013431355
226	0x3d3f1e88	0.046659976
227	0x3d97c344	0.07410291
228	0x3d556908	0.05210212
229	0x3d886ab2	0.066609755
230	0xbb099b00	-0.0020996928
231	0xbd5f6cd0	-0.05454713
232	0xbd031cd6	-0.032009922
233	0xbd95a5c4	-0.07307008
234	0xbdee9873	-0.11650171
235	0x3c84e1a0	0.016220868
236	0x3dd5c8fa	0.10438724
237	0xbe01f2e7	-0.12690316
238	0x3da002de	0.07813047
239	0xbdccefe2	-0.100066915
240	0xbc7bff60	-0.01538071
241	0x3daca0b6	0.08429091
242	0xbe1d1588	-0.15340245
243	0xbd7e4382	-0.0620761
244	0x3d1b32f7	0.0378904
245	0xbd0d781c	-0.034538373
246	0xbd34a2f8	-0.04410073
247	0x3d3b7155	0.04576238
248	0xbdd4aae2	-0.10384156
249	0x3e11e52e	0.14247581
250	0x3da6dc41	0.08147479
251	0xbdbe6384	-0.09296325
252	0xbdd8b314	-0.105810314
253	0x3dc5fa74	0.09666911
254	0xbd00188c	-0.03127341
255	0x3cdffd90	0.027342588

bias f4 [40]
0	0x3d15fdd3	0.03661902
1	0xbca577ff	-0.02019882
2	0x3e0d5148	0.13800538
3	0xbd717b4e	-0.058955483
4	0xbd61bf1b	-0.055113893
5	0xbd4afef4	-0.04955955
6	0xbda7507f	-0.0816965
7	0x3dd0767e	0.101788506
8	0xbddbc6e0	-0.10731292
9	0x3d03c5b4	0.032170966
10	0x3def89a1	0.116961725
11	0x3d919cf1	0.07110012
12	0xbde2e56c	-0.11078915
13	0x3d964d7e	0.07338999
14	0xbd59e9ee	-0.05320161
15	0x3de6122d	0.112339355
16	0x3d84de62	0.06487729
17	0xbceca5f2	-0.028887723
18	0x3ddf4aac	0.109029144
19	0x3d4aae94	0.049482897
20	0xbd941f4e	-0.072325334
21	0x3c218f6a	0.009860853
22	0xbcf15954	-0.02946154
23	0x3dc04c6a	0.09389575
24	0xbd8450d1	-0.06460727
25	0xbd075105	-0.03303625
26	0x3cb31a48	0.021863118
27	0xbd1b335a	-0.03789077
28	0xbd340772	-0.043952413
29	0xbd0b7877	-0.03405043
30	0xbbaa0232	-0.00518825
31	0x3c34a060	0.0110245645
32	0x3e09da10	0.1346209
33	0xbdc81f7e	-0.09771632
34	0xbce8e681	-0.028430225
35	0xbcdade8a	-0.026717443
36	0xbd05218b	-0.032502692
37	0x3e054b71	0.1301706
38	0xbb9814a9	-0.0046411348
39	0x3c890414	0.016725577

weight f4 [1, 40]
0	0x3dc42e7b	0.09579178
1	0xbdb1af72	-0.08676042
2	0x3ddcd31c	0.107824534
3	0x3d34273c	0.04398273
4	0x3cb55045	0.022133002
5	0xbe978bad	-0.29598752
6	0xbe86890a	-0.26276428
7	0xbede4f70	-0.4341998
8	0xbc171882	-0.009222152
9	0x3e78ae3b	0.24285214
10	0x3e056b70	0.13029265
11	0x3e2440bf	0.16040324
12	0xbe0a2c7e	-0.13493535
13	0x3cda6538	0.026659593
14	0x3c18fa88	0.009337075
15	0x3e81d33c	0.25356472
16	0xbde7b229	-0.11313278
17	0xbe5ff555	-0.2187093
18	0xbe5673be	-0.2094259
19	0x3d9778c0	0.07396078
20	0xbe7e500b	-0.24835221
21	0xbe2ab1ad	-0.1666934
22	0x3ceb75dd	0.028742725
23	0xbdbf248c	-0.09333143
24	0xbe020233	-0.12696151
25	0xbe2e295d	-0.17007966
26	0x3d469b6c	0.048488066
27	0x3d8d1d50	0.068903565
28	0x3cefad4f	0.029257445
29	0x3e046e8e	0.12932798
30	0x3e0b055a	0.1357626
31	0x3e99a952	0.30011994
32	0xbe4f3a5b	-0.20237105
33	0xbdef0a92	-0.11671938
34	0x3e1e9e22	0.1549001
35	0xbe09bbfa	-0.13450614
36	0x3ec07f09	0.3759692
37	0xbe4bd93c	-0.19907087
38	0xbc284613	-0.010270613
39	0xbee54b42	-0.4478398

probs f4 [9]
0	0x3de38e39	0.11111111
1	0x3de38e39	0.11111111
2	0x3de38e39	0.11111111
3	0x3de38e39	0.11111111
4	0x3de38e39	0.11111111
5	0x3de38e39	0.11111111
6	0x3de38e39	0.11111111
7	0x3de38e39	0.11111111
8	0x3de38e39	0.11111111

logits f4 [9]
0	0xc00c9f54	-2.1972246
1	0xc00c9f54	-2.1972246
2	0xc00c9f54	-2.1972246
3	0xc00c9f54	-2.1972246
4	0xc00c9f54	-2.1972246
5	0xc00c9f54	-2.1972246
6	0xc00c9f54	-2.1972246
7	0xc00c9f54	-2.1972246
8	0xc00c9f54	-2.1972246
