coinjump_learn/training/PPO_preTrained/CoinJumpEnvKD-v0/PPO_CoinJumpEnvKD-v0_15795.pth (torch, 30151 bytes, 9 tensors)

weight f4 [40, 60]
0.0011041462 0.08205393 0.034567013 0.14826325 0.086746745 0.049045295 0.08950713 0.3759123
-0.077233545 -0.098590165 0.023441004 0.11990647 0.013523489 -0.127548 -0.10191071 -0.06632639
0.0036533475 -0.05354161 -0.1253018 -0.050361767 -0.002290219 0.044889465 0.048331127 0.10425688
-0.093774654 -0.059429735 -0.095805064 -0.051126167 -0.12408503 0.1135478 -0.0966423 0.039911643
0.024567336 -0.06521376 0.09208436 0.118505135 -0.06078001 -0.05453936 -0.07391985 -0.102797404
-0.040706947 0.0070756525 -0.014452372 0.15948564 0.022794308 -0.052188054 -0.12744527 -0.03426583
0.11541873 -0.040525854 0.04779525 0.47150767 -0.31407553 0.2967953 0.07992628 0.06368831
-0.0893613 0.12040815 -0.105717435 0.015824363 -0.025215015 0.0029838532 0.01573897 0.09994034
-0.01342063 0.011921406 0.07875813 -0.16129224 0.030542474 -0.023962244 0.0068687513 -0.084600866
0.065788284 0.12797667 -0.120654695 -0.12629133 -0.060279317 -0.06538785 -0.052759603 0.041948855
-0.035448097 0.055666387 -0.11073053 -0.03483989 0.048952863 0.1068808 -0.048903488 0.11786233
-0.07756637 0.06905137 0.066924095 -0.027668849 0.12719353 0.08129467 0.036244243 0.082761005
0.0146867335 -0.029494897 -0.08643163 -0.092172615 0.008419856 0.0313939 -0.14251657 0.011813684
-0.096360095 -0.0636098 -0.068569645 -0.0037180781 0.015582606 0.09398641 -0.048948824 -0.10341574
0.047407705 -0.08559807 0.056110278 0.12579794 0.011213347 0.08879526 -0.06882619 0.11148514
0.007291347 0.05982597 0.051213965 -0.08752853 0.006361723 0.080176905 -0.08209463 0.023385987
-0.07290992 -0.07141104 -0.044047177 -0.12809813 -0.0105636865 -0.046210878 0.059247255 -0.11049987
0.122227535 0.042554826 0.102465495 0.07227866 0.08466293 -0.0055496097 0.0929137 -0.041998215
0.11398889 0.0036628693 0.10902324 -0.1099529 -0.037397064 -0.12867178 -0.07014296 -0.048592202
-0.044359602 -0.059647314 0.09733349 -0.089998856 -0.034854755 0.056576505 -0.045708463 -0.025960036
0.01572305 0.085930705 -0.09529699 -0.10636452 -0.09454153 -0.07510588 -0.037448563 -0.008022651
-0.1105714 -0.123225026 -0.010782503 0.10737613 -0.08493814 0.11296402 -0.08891766 0.11911692
0.08203973 -0.12455491 -0.099888146 -0.048047826 0.11403595 -0.08324579 0.15544568 0.016014582
-0.086197466 0.055241644 -0.004212357 -0.64401245 0.14072435 -0.123648904 -0.26613158 -0.0137445405
-0.07164246 -0.01010365 -0.003994465 0.055064514 -0.05981213 -0.049418524 0.08388902 -0.062001258
-0.06719886 0.11636576 0.10861096 -0.058896936 -0.060928352 0.002846554 -0.046396464 -0.073353544
-0.10146195 -0.09862189 0.1261205 0.0010794848 0.015033603 0.1073606 0.09425339 0.03312117
-0.0047845542 -0.011674069 0.09091906 0.09476292 -0.09122069 0.11836019 0.06193999 0.106715634
-0.054121386 -0.018977351 0.07988782 -0.001572758 -0.10769236 0.012984067 0.0004645586 0.014084569
0.539085 0.11123574 0.09750259 0.0066358447 0.033208758 0.08629589 -0.08578127 -0.03607014
0.08063553 0.104864895 0.10192974 -0.00081692636 -0.12587573 0.11741038 -0.043174937 -0.11895773
-0.12624614 0.11979999 -0.032359213 0.050607473 -0.03315199 0.062164083 -0.028703474 0.023219928
00000000: 00b9 903a e40b a83d 2496 0d3d 52d2 173e
00000010: 47a8 b13d b8e3 483d 844f b73d 9477 c03e
00000020: 9f2c 9ebd a4e9 c9bd 5907 c03c 8691 f53d
00000030: a091 5d3c f19b 02be 90b6 d0bd 21d6 87bd
00000040: 006d 6f3b 724e 5bbd 1d4f 00be 2448 4ebd
00000050: 8017 16bb 04de 373d dcf6 453d a284 d53d
00000060: ed0c c0bd 986c 73bd 7235 c4bd ac69 51bd
00000070: 4b20 febd c08b e83d 66ec c5bd 647a 233d
00000080: 7041 c93c cb8e 85bd ba96 bc3d d2b2 f23d
00000090: 76f4 78bd aa64 5fbd 4a63 97bd 7287 d2bd
000000a0: 54bc 26bd e0da e73b a4c9 6cbc 3450 233e
000000b0: 21bb ba3c 24c3 55bd 0381 02be 545a 0cbd
000000c0: a860 ec3d 70fe 25bd f4c4 433d 7469 f13e
000000d0: 82ce a0be 8ef5 973e 64b0 a33d 046f 823d
000000e0: 0f03 b7bd 8c98 f63d 6282 d8bd 18a2 813c
000000f0: b88f cebc c08c 433b 03ef 803c 85ad cc3d
00000100: 34e2 5bbc 0052 433c f14b a13d cb29 25be
00000110: 3634 fa3c 784c c4bc 4313 e13b 3843 adbd
00000120: 02bc 863d 510c 033e cf19 f7bd 8452 01be
00000130: 72e7 76bd 11ea 85bd 741a 58bd 90d2 2b3d
00000140: 0632 11bd 7002 643d b0c6 e2bd 46b4 0ebd
00000150: cc82 483d 52e4 da3d 064f 48bd ce61 f13d
00000160: 1edb 9ebd ce6a 8d3d 800f 893d c8a9 e2bc
00000170: 053f 023e d27d a63d d874 143d 9a7e a93d
00000180: a0a0 703c 489f f1bc 1103 b1bd ffc4 bcbd
00000190: 70f3 093c e496 003d ddef 11be 2f8e 413c
000001a0: 7158 c5bd db45 82bd 3e6e 8cbd 00ab 73bb
000001b0: 304e 7f3c f27b c03d 907e 48bd a2cb d3bd
000001c0: 952e 423d 0a4e afbd e4d3 653d 2dd1 003e
000001d0: 30b8 373c 4ada b53d bff4 8cbd 5252 e43d
000001e0: 40ec ee3b 140c 753d bcc5 513d 2842 b3bd
000001f0: 0076 d03b ca33 a43d 3b21 a8bd f893 bf3c
00000200: cc51 95bd f43f 92bd d06a 34bd 282c 03be
00000210: 5013 2dbc 9e47 3dbd 40ad 723d c14d e2bd
00000220: 6e52 fa3d f84d 2e3d 6ed9 d13d d606 943d
00000230: c263 ad3d 80d9 b5bb 8a49 be3d 5206 2cbd
00000240: 0273 e93d c00c 703b 9447 df3d fc2e e1bd
00000250: aa2d 19bd 89c2 03be 1da7 8fbd 9e08 47bd
00000260: 6ab2 35bd be50 74bd c856 c73d 5251 b8bd
00000270: dcc3 0ebd c4bc 673d cc38 3bbd 24aa d4bc
00000280: a0cd 803c 70fc af3d 112b c3bd a4d5 d9bd
00000290: fd9e c1bd 1dd1 99bd aa63 19bd 7071 03bc
000002a0: 4273 e2bd 675d fcbd 18a9 30bc 04e8 db3d
000002b0: 0cf4 adbd ae59 e73d 761a b6bd 92f3 f33d
000002c0: 7204 a83d a516 ffbd 2892 ccbd cccd 44bd
000002d0: ae8b e93d c57c aabd 272d 1f3e 0331 833c
000002e0: 4c88 b0bd 1045 623d d007 8abb 00de 24bf
000002f0: 0b1a 103e a33b fdbd 6642 88be c830 61bc
00000300: 48b9 92bd c889 25bc 00e4 82bb 548b 613d
00000310: 90fd 74bd 146b 4abd 02ce ab3d 08f5 7dbd
00000320: 8e9f 89bd 2c51 ee3d 6c6f de3d ea3d 71bd
00000330: 0290 79bd 408d 3a3b 380a 3ebd 623a 96bd
00000340: 48cb cfbd 46fa c9bd bb25 013e 807d 8d3a
00000350: 804f 763c e0df db3d ec07 c13d 10aa 073d
00000360: c0c7 9cbb 9844 3fbc c633 ba3d 1013 c23d
00000370: ead1 babd d466 f23d c9b4 7d3d ba8d da3d
00000380: 63ae 5dbd 6476 9bbc 3a9c a33d 0025 ceba
00000390: d08d dcbd 20bb 543c 0090 f339 f7c2 663c
000003a0: 7901 0a3f 90cf e33d 70af c73d 8071 d93b
000003b0: e805 083d e6bb b03d 17ae afbd 48be 13bd
000003c0: 3e24 a53d 68c3 d63d 8ac0 d03d 0027 56ba
000003d0: 91e5 00be da74 f03d 34d8 30bd 1ca0 f3bd
000003e0: ab46 01be b259 f53d 188b 04bd c849 4f3d
000003f0: 62ca 07bd c49f 7e3d 8c23 ebbc b837 be3c

bias f4 [40]
0.061020974 0.01601155 -0.08588943 -0.081853785 0.027773142 -0.07914046 -0.041165434 -0.0034405242
-0.1052952 0.031893164 -0.099812135 0.17539747 -0.12643696 -0.09358034 -0.095825955 0.089886114
0.02381028 -0.060985774 0.032804392 0.0056449324 -0.042514145 -0.025421336 -0.104082346 -0.026310973
-0.07341476 -0.05550253 -0.09549368 -0.11932347 0.013967276 0.071700335 -0.13522062 0.12652932
-0.05606472 0.0188043 0.006006407 -0.13741207 -0.02494625 -0.122409396 0.13616443 -0.08891002
00000000: 21f1 793d a72a 833c cce6 afbd f5a2 a7bd
00000010: 8084 e33c 6514 a2bd 169d 28bd 6b7a 61bb
00000020: 03a5 d7bd 68a2 023d 4e6a ccbd 659b 333e
00000030: b178 01be 0da7 bfbd 6640 c4bd 3616 b83d
00000040: c70d c33c 38cc 79bd e65d 063d 20f9 b83b
00000050: 5023 2ebd 6840 d0bc 2029 d5bd 1c8a d7bc
00000060: 7a5a 96bd 9f56 63bd 3192 c3bd dd5f f4bd
00000070: 00d7 643c a0d7 923d 4677 0abe e790 013e
00000080: 1fa4 65bd 7a0b 9a3c 65d1 c43b c0b5 0cbe
00000090: 145c ccbc c7b1 fabd b06e 0b3e 7516 b6bd

weight f4 [9, 40]
-0.030949248 -0.030972322 0.12816401 -0.09007922 -0.048891217 0.04448968 0.1404209 -0.075023994
-0.05601608 0.08961331 0.08277388 0.11300358 -0.0058008344 -0.046782866 0.023936719 -0.15412158
-0.11203121 0.16077168 0.08526853 -0.0897052 -0.09329158 0.06666824 -0.010797575 0.015150741
0.032946035 -0.09211586 -0.066155784 -0.08512606 0.077542976 0.16380131 -0.12243165 -0.14047344
0.10594068 0.043819156 -0.027727395 0.172656 -0.12494438 -0.07884598 -0.21668507 -0.041403554
0.21905832 0.0060590077 -0.0823996 -0.5881944 -0.15763545 0.047714252 0.06088986 0.022441097
-0.027605925 -0.011364463 -0.050238438 -0.23966014 0.10360259 -0.026396696 -0.124580994 -0.09608267
-0.005765207 -0.08733921 -0.038428526 -0.0105115175 -0.10286061 -0.02193567 0.13494818 0.055682123
-0.09735377 0.1155385 -0.11674993 0.13947546 0.07877323 -0.0028862115 -0.10354164 -0.019363895
0.017280882 -0.038954955 -0.07540769 -0.15087609 0.07289902 0.14474414 -0.2260325 0.049304597
-0.31738144 -0.09944574 -0.10480276 0.2900579 0.066396385 0.046986505 -0.099051386 0.045337643
0.053063154 0.13339178 -0.08882701 0.00078224816 0.015569624 -0.09668104 -0.10984528 0.20414366
-0.123765394 -0.036698256 -0.088550866 -0.07635167 -0.026851756 0.089484945 0.1423484 0.10806544
0.09932406 0.030799566 0.07306376 -0.09102488 0.08224739 -0.09468357 -0.016259577 -0.040017106
-0.08202249 0.09790028 0.13965742 0.019636393 0.036836922 0.10753347 0.030322304 -0.11484697
-0.24626957 0.016965546 0.013297096 -0.084313415 0.0036028922 0.02328068 -0.03648744 -0.053425174
-0.0880911 0.07124904 -0.09621897 -0.05017424 0.05235087 -0.056901205 -0.035738893 -0.04003399
0.044833194 0.15181358 -0.11421691 0.0320666 -0.1413224 -0.17545466 -0.09372861 -0.042198926
-0.09334359 -0.106657796 -0.05346692 0.049653567 0.11820333 -0.035479873 0.13725078 -0.039936148
0.102712005 0.08627675 -0.039769333 0.10115016 0.10463313 0.018183643 -0.040966153 0.104155555
-0.055068348 -0.14228526 -0.008356437 -0.0342448 0.15425219 0.032427013 0.12280061 -0.035170346
-0.036544494 -0.0044198968 0.07167387 -0.13761309 0.016693264 0.07619318 -0.14236236 0.07418072
-0.028693996 0.10855631 0.109706976 -0.02863793 0.121481895 0.05159711 -0.13669455 -0.11605466
0.079907715 0.03538703 0.06476816 -0.053779762 0.10170625 -0.13899584 0.04109977 -0.15272407
0.044716097 0.034433454 -0.08910445 -0.022672711 -0.12890725 0.055396777 0.012136775 -0.0061699534
0.51648515 0.03807526 0.13140844 -0.9854348 -0.09587334 0.061995085 0.10832251 -0.015314499
-0.08058622 0.046219446 -0.08242163 -0.5755597 -0.118630275 0.12718013 0.045306355 -0.5266122
0.13172445 0.037263665 -0.09752279 0.14549403 0.08112135 -0.15941288 0.0749004 0.1157545
-0.10838852 -0.11047415 0.07864436 0.02126722 0.15403031 -0.13135704 0.14791784 -0.14590114
-0.0050407844 -0.035262454 -0.028699499 -0.084583044 0.076986976 -0.042009052 -0.2570917 -0.0065744678
-0.15051842 -0.110694885 0.07177776 1.1181883 -0.12902997 0.038482234 0.06836185 0.046576817
0.02230043 0.074865 0.14433129 0.59901494 0.0046799965 -0.024039099 -0.061878555 0.6709271
00000000: 4789 fdbc abb9 fdbc 6d3d 033e 747b b8bd
00000010: 2842 48bd d03a 363d 7fca 0f3e 2ea6 99bd
00000020: 1e71 65bd 2f87 b73d 5a85 a93d 6c6e e73d
00000030: ed14 bebb 649f 3fbd f016 c43c 0cd2 1dbe
00000040: 9e70 e5bd 55a1 243e 44a1 ae3d 5cb7 b7bd
00000050: a80f bfbd 5c89 883d 50e8 30bc d03a 783c
00000060: 6cf2 063d 3da7 bcbd af7c 87bd 9256 aebd
00000070: dace 9e3d 88bb 273e 72bd fabd 45d8 0fbe
00000080: 6df7 d83d b77b 333d 9024 e3bc bccc 303e
00000090: d7e2 ffbd 007a a1bd b1e2 5dbe c696 29bd
000000a0: d350 603e a48a c63b 1fc1 a8bd e893 16bf
000000b0: 306b 21be 0570 433d a567 793d 64d6 b73c
000000c0: d225 e2bc 0332 3abc d2c6 4dbd 7869 75be
000000d0: 982d d43d e23d d8bc 5224 ffbd fec6 c4bd
000000e0: 10ea bcbb e6de b2bd 3b67 1dbd 8038 2cbc
000000f0: 95a8 d2bd 6fb2 b3bc db2f 0a3e f012 643d
00000100: 6a61 c7bd 739f ec3d 961a efbd a8d2 0e3e
00000110: dc53 a13d 9826 3dbb a40d d4bd 08a1 9ebc
00000120: a390 8d3c 3b8f 1fbd 596f 9abd 437f 1abe
00000130: 154c 953d cf37 143e 1075 67be 9ef3 493d
00000140: d27f a2be 35aa cbbd d4a2 d6bd 7882 943e
00000150: d4fa 873d ec74 403d 74db cabd f7b3 393d
00000160: c058 593d db97 083e efea b5bd c90f 4d3a
00000170: bc17 7f3c b600 c6bd 90f6 e0bd 090b 513e
00000180: b678 fdbd e950 16bd 285a b5bd 445e 9cbd
00000190: 37f8 dbbc e243 b73d c7c3 113e 6a51 dd3d
000001a0: 6a6a cb3d 5f4f fc3c 74a2 953d 416b babd
000001b0: 5271 a83d 76e9 c1bd ce32 85bc fae8 23bd
000001c0: 68fb a7bd f17f c83d 5b02 0f3e 80dc a03c
000001d0: 50e2 163d 823a dc3d 7b66 f83c e334 ebbd
000001e0: 172e 7cbe 54fb 8a3c 10dc 593c 83ac acbd
000001f0: 801e 6c3b 20b7 be3c db73 15bd 5bd4 5abd
00000200: 1b69 b4bd 04eb 913d 740e c5bd 8183 4dbd
00000210: de6d 563d 3d11 69bd f262 12bd aefa 23bd
00000220: 03a3 373d 0575 1b3e 8eea e9bd 4458 033d
00000230: d2b6 10be 63aa 33be c9f4 bfbd c8d8 2cbd
00000240: ed2a bfbd 676f dabd 2100 5bbd 8a61 4b3d
00000250: 9614 f23d 5853 11bd 788b 0c3e 1694 23bd
00000260: ac5a d23d ddb1 b03d 2be5 22bd d127 cf3d
00000270: e549 d63d ddf5 943c 20cc 27bd 824f d53d
00000280: 598f 61bd 3ab3 11be 70e9 08bc 4744 0cbd
00000290: 49f4 1d3e 30d2 043d e37e fb3d c80e 10bd
000002a0: aeaf 15bd c8d4 90bb c0c9 923d 72ea 0cbe
000002b0: 50c0 883c 2c0b 9c3d 70c7 11be 10ec 973d
000002c0: ac0f ebbc c552 de3d 0dae e03d 189a eabc
000002d0: 80cb f83d 7e57 533d a8f9 0bbe 11ae edbd
000002e0: a8a6 a33d fef1 103d 2ba5 843d 2b48 5cbd
000002f0: 5e4b d03d ed54 0ebe 3c58 283d b363 1cbe
00000300: 3a28 373d 180a 0d3d 657c b6bd 1fbc b9bc
00000310: 4300 04be bbe7 623d 53d9 463c 522d cabb
00000320: 5f38 043f cef4 1b3d ef8f 063e 7445 7cbf
00000330: 3e59 c4bd 8fee 7d3d 31d8 dd3d aae9 7abc
00000340: 630a a5bd 9a50 3d3d accc a8bd e157 13bf
00000350: 6ef4 f2bd 823b 023e 2893 393d 0fd0 06bf
00000360: c6e2 063e c9a1 183d 07ba c7bd 63fc 143e
00000370: f322 a63d 213d 23be 6265 993d b210 ed3d
00000380: cdfa ddbd 4540 e2bd 4b10 a13d 9838 ae3c
00000390: 1fba 1d3e 7682 06be c677 173e 1c67 15be
000003a0: 2a2d a5bb 5d6f 10bd 361b ebbc e039 adbd
000003b0: 59ab 9d3d af11 2cbd 86a1 83be a26e d7bb
000003c0: 8021 1abe 00b4 e2bd 3800 933d cb20 8f3f
000003d0: 6f20 04be 8c9f 1d3d 4c01 8c3d 55c7 3e3d
000003e0: 64af b63c d252 993d 95cb 133e 0b59 193f
000003f0: a85a 993b a5ed c4bc 5e74 7dbd e1c1 2b3f

bias f4 [9]
-0.04195177 0.027180316 -0.048257254 -0.033629432 -0.13901202 0.21089941 0.13489501 -0.14365128
-0.0025787682
00000000: 9fd5 2bbd 41a9 de3c 66a9 45bd 04bf 09bd
00000010: 2b59 0ebe 04f6 573e eb21 0a3e 5219 13be
00000020: 8d00 29bb

weight f4 [40, 60]
0.059588253 -0.06491825 0.03431511 0.0424182 0.01962754 -0.09007832 0.0042943577 -0.0417252
-0.0830137 0.08090627 -0.117199294 -0.040515944 0.048785746 0.058014974 -0.06827608 -0.12054795
-0.013696402 -0.11416475 -0.11390113 0.05173394 -0.12533218 0.042864934 -0.015914373 0.073712215
-0.094646946 0.052419677 0.06907828 0.068957016 -0.12661707 0.018972829 0.0039759725 0.022057578
0.09012067 -0.10995674 -0.045417905 -0.018655859 0.100289494 0.08605859 0.063834295 0.076593146
-0.05727797 0.041967362 0.13142519 0.12949254 0.037777834 0.011080742 -0.027249046 0.011375114
0.05910255 0.0911738 -0.10418597 0.059901167 -0.04338423 0.09381655 -0.06240525 -0.022468276
0.05173506 -0.10766121 -0.054651983 -0.07746587 -0.11925338 0.101615995 0.07043465 0.08763778
-0.039584722 0.009547517 0.03870226 0.049337156 -0.06700873 -0.13292937 0.14590599 0.04722786
0.061868906 -0.046028003 -0.07702452 -0.088549346 -0.059571043 -0.08711911 0.10659237 -0.09749761
0.11027281 0.04470952 -0.101844124 -0.10991715 -0.104749404 0.0838546 -0.1038766 0.04741521
-0.00876312 0.029439956 0.06860107 -0.06465954 -0.07258803 0.018770844 0.074874476 0.107268274
0.10719359 -0.10963152 -0.07217949 0.08162524 0.1280304 0.094519794 0.016490187 0.0032917156
-0.1311061 0.029021248 0.03818652 0.0011160374 0.11153236 0.025844455 -0.05542756 -0.024938516
-0.00021587135 -0.016724057 -0.04277768 -0.00024460256 0.05554606 0.020085603 -0.018562593 -0.10300944
-0.119130895 -0.029769994 -0.018340921 0.042762253 0.11382025 0.028761715 0.025579385 0.04548775
-0.07161979 0.008422868 -0.15619515 -0.10353211 -0.10716342 0.051956147 0.075660646 0.047120944
-0.029699706 -0.04957693 -0.004454978 -0.0025903732 0.123763606 -0.04782161 0.10211606 0.00013278425
-0.043034047 0.07998626 -0.008925363 -0.0062954947 -0.06419175 -0.11074009 -0.10611941 0.042039663
0.09427199 -0.0255422 -0.080249496 -0.057922654 -0.019199595 -0.047597937 0.07421929 0.112559885
0.10881518 -0.033137277 0.049208365 -0.0052702012 -0.009397966 0.062609166 -0.06487104 -0.040841207
0.12771825 0.11949162 -0.10015253 0.059071485 0.13555466 0.04069599 0.104500055 -0.0890542
0.035750747 -0.0036268383 -0.06666304 -0.061189577 0.100865856 -0.083500445 -0.12617303 -0.105661266
0.0015789717 -0.037859127 0.022415519 -0.08895433 0.062098667 0.052719906 0.012263164 -0.10848495
0.04135306 0.023725182 -0.089328386 0.03478335 -0.05081837 -0.06989933 0.09594698 -0.0416983
0.12626283 -0.00287956 -0.084929615 -0.1065778 0.10356207 -0.016605161 -0.011719465 -0.08304591
-0.062470414 -0.029925987 -0.087822795 -0.07103456 0.030494675 0.11114876 -0.03588392 -0.037680656
0.008070156 0.04549986 -0.068820484 0.1129688 0.10484214 0.023103178 0.033827215 -0.09277776
0.01233308 -0.013431355 0.046659976 0.07410291 0.05210212 0.066609755 -0.0020996928 -0.05454713
-0.032009922 -0.07307008 -0.11650171 0.016220868 0.10438724 -0.12690316 0.07813047 -0.100066915
-0.01538071 0.08429091 -0.08354328 0.007782802 0.10774977 -0.034538373 0.025757425 0.10232712
-0.005932193 0.53048265 -0.14044297 -0.09296325 -0.105810314 0.09666911 -0.03127341 0.027342588
00000000: d012 743d dcf3 84bd 008e 0c3d b5be 2d3d
00000010: efc9 a03c fb7a b8bd afb7 8c3b 0be8 2abd
00000020: 1603 aabd 30b2 a53d 2f06 f0bd 0cf4 25bd
00000030: 90d3 473d 1ca1 6d3d 54d4 8bbd d8e1 f6bd
00000040: e066 60bc 35cf e9bd ff44 e9bd f8e6 533d
00000050: 1457 00be 2493 2f3d dc5e 82bc 6ef6 963d
00000060: 42d6 c1bd 04b6 563d ea78 8d3d 5639 8d3d
00000070: e8a7 01be e86c 9b3c e048 823b 18b2 b43c
00000080: 3091 b83d 0031 e1bd 2008 3abd 2cd4 98bc
00000090: 9464 cd3d 7c3f b03d 8ebb 823d dedc 9c3d
000000a0: 4e9c 6abd f8e5 2b3d 5394 063e b199 043e
000000b0: eebc 1a3d 008c 353c 6439 dfbc b05e 3a3c
000000c0: 8415 723d 54b9 ba3d 745f d5bd ed5a 753d
000000d0: aab3 31bd e422 c03d a69c 7fbd 640f b8bc
000000e0: 24e8 533d 7b7d dcbd c2da 5fbd 6da6 9ebd
000000f0: 1e3b f4bd 0c1c d03d 0b40 903d 707b b33d
00000100: 9723 22bd 306d 1c3c 4386 1e3d c215 4a3d
00000110: df3b 89bd a31e 08be 6168 153e 0072 413d
00000120: 406a 7d3d dc87 3cbd 08bf 9dbd 5c59 b5bd
00000130: c400 74bd 816b b2bd 1a4d da3d d4ac c7bd
00000140: b6d6 e13d 5421 373d a793 d0bd 3e1c e1bd
00000150: db86 d6bd f6bb ab3d 41bd d4bd 7436 423d
00000160: 3093 0fbc 102c f13c b87e 8c3d 396c 84bd
00000170: 08a9 94bd 50c5 993c ca57 993d 78af db3d
00000180: 5088 db3d 7e86 e0bd d7d2 93bd 222b a73d
00000190: 671a 033e 9893 c13d 6e16 873c d3b9 573b
000001a0: ad40 06be f8bd ed3c 7869 1c3d 0048 923a
000001b0: 146b e43d c0b7 d33c 0208 63bd dc4b ccbc
000001c0: 865b 62b9 e400 89bc a637 2fbd 003e 80b9
000001d0: 4484 633d 908a a43c 9410 98bc 9df6 d2bd
000001e0: e6fa f3bd 34e0 f3bc b33f 96bc 7927 2f3d
000001f0: 971a e93d b09d eb3c dc8b d13c 5d51 3a3d
00000200: 65ad 92bd 1200 0a3c 9ff1 1fbe a508 d4bd
00000210: 7f78 dbbd f8cf 543d f8f3 9a3d e401 413d
00000220: cc4c f3bc 2e11 4bbd 10fb 91bb 40c3 29bb
00000230: c677 fd3d 98e0 43bd 3a22 d13d 003c 0b39
00000240: 7844 30bd d6cf a33d b03b 12bc 704a cebb
00000250: f776 83bd b3cb e2bd 2255 d9bd c831 2c3d
00000260: ac11 c13d e03d d1bc d959 a4bd 4e40 6dbd
00000270: 7848 9dbc 0ef6 42bd 4800 983d cc85 e63d
00000280: 7eda de3d f4ba 07bd b68e 493d a7b1 acbb
00000290: edf9 19bc 3c39 803d 1cdb 84bd 1c49 27bd
000002a0: 93c8 023e 06b8 f43d c51c cdbd f1f4 713d
000002b0: d7ce 0a3e d7b0 263d 2004 d63d 0c62 b6bd
000002c0: 606f 123d 40b0 6dbb a286 88bd eca1 7abd
000002d0: c292 ce3d 4802 abbd 8133 01be ef64 d8bd
000002e0: 80f5 ce3a 2c12 1bbd c0a0 b73c b02d b6bd
000002f0: 2c5b 7e3d d4f0 573d 70eb 483c 5c2d debd
00000300: d461 293d 505b c23c cdf1 b6bd fc78 0e3d
00000310: ec26 50bd 6127 8fbd da7f c43d d6cb 2abd
00000320: 0b4b 013e 00b7 3cbb 94ef adbd 7645 dabd
00000330: 5a18 d43d 8c07 88bc 0003 40bc f913 aabd
00000340: fae0 7fbd 5827 f5bc 70dc b3bd 917a 91bd
00000350: f8cf f93c f6a1 e33d 04fb 12bd 0857 1abd
00000360: b038 043c 105e 3a3d c1f1 8cbd 305c e73d
00000370: 7ab7 d63d e042 bd3c 688e 0a3d 4402 bebd
00000380: b010 4a3c 300f 5cbc 881e 3f3d 44c3 973d
00000390: 0869 553d b26a 883d 009b 09bb d06c 5fbd
000003a0: d61c 03bd c4a5 95bd 7398 eebd a0e1 843c
000003b0: fac8 d53d e7f2 01be de02 a03d e2ef ccbd
000003c0: 60ff 7bbc b6a0 ac3d bd18 abbd e006 ff3b
000003d0: e9ab dc3d 1c78 0dbd 3c01 d33c e290 d13d
000003e0: d762 c2bb b6cd 073f 48d0 0fbe 8463 bebd
000003f0: 14b3 d8bd 74fa c53d 8c18 00bd 90fd df3c

bias f4 [40]
0.00992621 0.036375698 0.1239214 -0.058955483 0.014744346 -0.0837965 -0.0922526 0.06990436
-0.09532263 0.044613108 0.12169458 0.08630544 -0.08698333 0.07338999 -0.06189202 0.121451125
0.06487729 -0.06593514 0.09862576 0.020923736 -0.059921544 0.05096318 -0.0058144405 0.10588487
-0.045228895 -0.07658024 0.021863118 -0.072992355 -0.05489898 -0.0505064 0.023814335 0.03178236
0.08403416 -0.068233386 -0.062950395 -0.07802455 -0.06187366 0.13519774 -0.0021992575 0.09091852
00000000: 8ba1 223c affe 143d 81ca fd3d 4e7b 71bd
00000010: 4592 713c 809d abbd eeee bcbd 042a 8f3d
00000020: 8338 c3bd 3cbc 363d 023b f93d e8c0 b03d
00000030: 5124 b2bd 7e4d 963d 7d82 7dbd 5ebb f83d
00000040: 62de 843d 0109 87bd 4dfc c93d 4168 ab3c
00000050: 4b70 75bd c4be 503d 1087 bebb 2bda d83d
00000060: ef41 39bd 1ad6 9cbd 481a b33c 047d 95bd
00000070: c1dd 60bd cddf 4ebd 4816 c33c 382e 023d
00000080: 1a1a ac3d f2bd 8bbd 23ec 80bd 56cb 9fbd
00000090: 3c6f 7dbd 4771 0a3e 6b21 10bb 7d33 ba3d

weight f4 [1, 40]
0.08293752 -0.051024694 0.114200346 0.04398273 0.12500289 -0.30224288 0.0036963045 -0.08696334
-0.031996224 0.14979683 0.13425489 0.13147683 -0.14584954 0.026659593 0.026164202 0.14007525
-0.11313278 -0.010935951 -0.057955552 0.06839633 -0.12439156 -0.036768932 0.055740967 -0.090606704
0.017123181 -0.1485112 0.048488066 0.09103875 0.0106428135 0.13657048 0.15067618 0.08939351
0.31191897 -0.0927614 0.15067293 -0.008611545 0.127995 -0.375189 -0.049398705 -0.30055094
00000000: 26db a93d 45ff 50bd dfe1 e93d 3c27 343d
00000010: c200 003e 94bf 9abe b33d 723b d619 b2bd
00000020: 790e 03bd 5764 193e 1d7a 093e dda1 063e
00000030: 9559 15be 3865 da3c 4f56 d63c e36f 0f3e
00000040: 29b2 e7bd b42c 33bc cd62 6dbd 6013 8c3d
00000050: 01c1 febd 059b 16bd a450 643d 0290 b9bd
00000060: ea45 8c3c 5213 18be 6c9b 463d 8672 ba3d
00000070: 325f 2e3c 22d9 0b3e db4a 1a3e f213 b73d
00000080: d8b3 9f3e b0f9 bdbd 014a 1a3e 7017 0dbc
00000090: 1f11 033e c618 c0be 4c56 4abd d0e1 99be

probs f4 [9]
0.11111111 0.11111111 0.11111111 0.11111111 0.11111111 0.11111111 0.11111111 0.11111111
0.11111111
00000000: 398e e33d 398e e33d 398e e33d 398e e33d
00000010: 398e e33d 398e e33d 398e e33d 398e e33d
00000020: 398e e33d

logits f4 [9]
-2.1972246 -2.1972246 -2.1972246 -2.1972246 -2.1972246 -2.1972246 -2.1972246 -2.1972246
-2.1972246
00000000: 549f 0cc0 549f 0cc0 549f 0cc0 549f 0cc0
00000010: 549f 0cc0 549f 0cc0 549f 0cc0 549f 0cc0
00000020: 549f 0cc0
