src/coinjump/coinjump_learn/training/PPO_preTrained/CoinJumpEnv-v2/PPO_CoinJumpEnv-v2_92439_10282.pth (torch, 6619 bytes, 4 tensors)

actor.im.W f4 [5, 10]
00000000: 02c2 2abf e889 35bf b23f 1abf 92ac 9fbf
00000010: 83d8 e93f ecc2 c2bf a8dc 11c0 be91 46bf
00000020: 4b48 aa3d fb3f 7abf 117c a73f edef cf3f
00000030: 73a4 ba3e 311f a03f 3fa0 4cbf 2045 19bf
00000040: 3aff dd3f 2b1e f13e 39c7 823f bc03 8d3d
00000050: 18fc 2540 4aa3 33c0 58f3 1ec0 0790 39c0
00000060: e131 5cc0 b6e0 cdbf 638c 60c0 7184 b7bf
00000070: d929 08c0 3715 27c0 a6dd b5bf b733 2c40
00000080: 9cfd 1140 810f 073e f257 c6bf 8db1 0bbf
00000090: 9573 5bbf 8e13 72be e8cb 36c0 9b33 653e
000000a0: 20f3 50bf 93ac d2bf 5138 913d 37cc 4840
000000b0: 2322 083f 4ed9 8b3e 9897 bc3d 8d3e 98bf
000000c0: aa3e 75bf 9a04 6ebf
-0.6670228 -0.70913553 -0.6025344 -1.2474539 1.8269199 -1.5215735 -2.2790928 -0.77566135
0.0831457 -0.97753876 1.3084737 1.6245095 0.3645359 1.2509519 -0.79932016 -0.598711
1.7343514 0.4709333 1.0217048 0.06885478 2.5935116 -2.8068414 -2.4836025 -2.8994157
-3.4405444 -1.6084201 -3.5085685 -1.4337293 -2.1275542 -2.6106699 -1.4208267 2.6906564
2.281104 0.13189508 -1.5495589 -0.54567796 -0.8572324 -0.23640272 -2.8561954 0.22382967
-0.8162098 -1.6458915 0.070908196 3.1374643 0.5317709 0.27314228 0.09208602 -1.1894089
-0.9579874 -0.9297577

critic.mlp.0.weight f4 [40, 24]
00000000: a893 38be 004e deba a0c9 1bbe 08e0 0ebe
00000010: f6b9 8b3d 6fb2 b6bc 8c7e bebd 8b41 1d3c
00000020: e833 e6bc bacf 063e 901d 89be 035d acbd
00000030: 4677 3a3e 78cb 2b3d 0e1c f13d 659c 3abe
00000040: e86c 8bbe f7f9 f3bd 9292 41be 2f7d ecbd
00000050: d399 d1bd 8d10 f4bc 2eb0 e23d bac2 21be
00000060: 84f1 01be e4dd cfbd 8eb9 093e 9093 f43c
00000070: ea69 173e a44b 01bd 986a b6bd d035 8c3e
00000080: 40d7 fc3d 7776 3abe dc58 5abe 9838 ef3d
00000090: e6fa 25be 7c34 2d3d 4cb9 8ebd 40fd 363c
000000a0: 6fef db3c b583 4c3d e8c4 2b3e 8e9d 38be
000000b0: 7cc2 bb3d b668 ca3d b3f4 45bc 4b08 1bbd
000000c0: bd3b 17be c06e 233e ac54 293e 70e2 963d
000000d0: 33b1 61be bf64 d93d 32cc 423e 09b7 e7be
000000e0: 318c 41be 12ca 16be 0091 09bf 40b2 14bf
000000f0: 9607 1b3e 4c86 58bd 7750 25be 8e28 363e
00000100: dfe2 1d3e 6608 2f3e a580 43be 2ce4 b33d
00000110: 641d df3d 41a4 22be c1b6 93bc e9fb 3c3e
00000120: af8a e33d f44f a03d 54e8 b83d 2838 a53d
00000130: 90e6 5ebe 197d ed3d d0bc c1bc 0d1d fabd
00000140: a4a5 193e cba3 fcbd 0b61 023e fa9b 9bbc
00000150: 97c5 33be 7c1f 0dbe fc6d 37be 10a7 35bc
00000160: cbc0 2b3e f33f 943d 6376 2fbe f6ef 36be
00000170: d8bb 03be b29c b93c 86bf 85bc cb3f 9fbd
00000180: cbc4 63be 444f 06be 3cd0 bfbd 98ef 8c3c
00000190: 624a 2ebe cc07 1cbe 5899 e13c 8573 7bbd
000001a0: 0c04 87bd 90f3 0ebc db6f f53d 28d5 dbbd
000001b0: 2ad9 213e 9854 f9bc 227d 6ebe e4bf 1ebd
000001c0: 700d c63d a7e1 a1bb 2048 c93d 316e 13be
000001d0: 426a 45be d5a1 a43d 9e00 60be 5034 0d3e
000001e0: be97 06be 28f2 bfbd 1673 4d3e b810 cebc
000001f0: 8fee 433e 9733 8b3e e8d8 063e 23b7 003d
00000200: adaa 46be a87f fb3d c0d5 e53d 8e67 a53e
00000210: c0ad 543b c28f 123e 971d 393c e86a aabd
00000220: a252 3a3c 76cd 75be 3f7e 08be 4004 683d
00000230: d01d e1bd da0e 443c f3a4 9fbd 5d6d 083e
00000240: b765 0b3e b0ec 823d 40a5 05bd c857 22bd
00000250: 1d91 cdbc 517f 8cbd 88f2 dbbc e061 b13d
00000260: b896 5e3d 60d8 2b3d 0878 263c cb4b 723e
00000270: e2e7 4f3e 9282 1b3e eab2 54be a80c 66bd
00000280: 8324 b23d e3ce ca3c 240a fb3d 7efd 3e3e
00000290: 32d3 163e 07d9 29be c503 44bb d24a f9bd
000002a0: 5cf4 d53d 7850 4f3d a25b 28be 3001 fe3d
000002b0: d826 673e 6083 6fbe 02bb 27be 961d 15be
000002c0: 1021 75bc a438 42bd 8e50 23bc 4c69 4abd
000002d0: f81a 1e3d 18fa 9b3c d1f1 09bd 1a64 443e
000002e0: 44f2 0d3c 67de 083e 6054 4f3d 601b 233d
000002f0: 581d f93d bce0 f3bd 0902 32be 0139 a53d
00000300: ebc5 29be 0492 55bd 6929 10be 90dd aabc
00000310: 754f dabc ae35 c13d ac7c 06bd dae5 08be
00000320: 40a4 ed3c b348 a2bd 53ff 243e c437 c5bc
00000330: f4f0 b63d be3c 293e 119b 483d 2873 8cbd
00000340: c049 1cbe c300 0dbe f4a2 483e b0a7 d6bc
00000350: b0b2 d13d 0993 f1bd 6edd edba 4bb0 85bd
00000360: 2ee4 3b3c fc3f ff3d 1858 753d 1022 2fbd
00000370: f093 d53d 2d9b 81be f6a4 413e 969c 18be
00000380: acd6 b53d 7072 9f3c e80a 6f3d 0e1b 833d
00000390: 606a cbbb 76b9 0b3e 6574 c93d 70a7 3c3d
000003a0: b54b ae3d 92c0 783e d430 9e3d f83b 16be
000003b0: d4a8 153e 2cdc 28bc db2c 173d 7e8d 373e
000003c0: e091 233d 3c2a 49be 60f8 8bbd de8c 233e
000003d0: 5246 dfbd 41cd f8bd 26c2 2dbe aef4 69bd
000003e0: 3c63 6cbd b96e 3ebe b1ec 053b 3fa2 263c
000003f0: f8c9 b53c d068 1a3e 9618 153e b115 d5bd
-0.18025076 -0.0016960502 -0.15213633 -0.13952649 0.068225786 -0.02230188 -0.09301481 0.009598146
-0.028100923 0.13165179 -0.26780367 -0.08416178 0.18209562 0.04194209 0.11772929 -0.18223722
-0.27231526 -0.119129114 -0.18903568 -0.115473144 -0.10234418 -0.029793048 0.1106876 -0.15796939
-0.12689787 -0.10149744 0.1344969 0.02985552 0.14786497 -0.031566277 -0.0890705 0.27384806
0.12345743 -0.18209253 -0.2132296 0.11680716 -0.16208991 0.04228638 -0.06968936 0.011168778
0.02684757 0.049930293 0.16774333 -0.18028852 0.09167954 0.09883253 -0.012082267 -0.037849706
-0.14768882 0.15960217 0.16536206 0.07367408 -0.22040252 0.10614919 0.19023207 -0.45256832
-0.18901135 -0.14725521 -0.5373688 -0.5808449 0.15139613 -0.05286245 -0.16143976 0.17788908
0.15418576 0.17093047 -0.19092043 0.08783755 0.10894278 -0.1588297 -0.01803148 0.18455471
0.11110436 0.0782775 0.09028688 0.080673516 -0.2176764 0.11596126 -0.023649603 -0.12212572
0.15004593 -0.123359285 0.12732331 -0.018995274 -0.17555843 -0.13781542 -0.1791305 -0.011087194
0.16772763 0.0723876 -0.17135005 -0.17864975 -0.12864625 0.022657726 -0.016326677 -0.077758394
-0.2224304 -0.13116175 -0.093658894 0.017204091 -0.17020562 -0.1523735 0.02753894 -0.061389465
-0.06592569 -0.008725062 0.11984225 -0.10734016 0.15805498 -0.030435845 -0.23289922 -0.03875722
0.09670532 -0.00494023 0.0982821 -0.14397503 -0.19278815 0.080386795 -0.21875235 0.13789487
-0.13143823 -0.093723595 0.20063433 -0.025154456 0.19133972 0.27187797 0.1316868 0.031424653
-0.19401045 0.12280208 0.1122241 0.32305568 0.0032452196 0.14312652 0.011298559 -0.08321172
0.01137224 -0.24004158 -0.13329409 0.056644678 -0.109920144 0.0119664315 -0.077951334 0.13322969
0.1361302 0.06392801 -0.032628298 -0.039634496 -0.02509361 -0.06860221 -0.026849046 0.08661246
0.054342955 0.0419544 0.010160454 0.23661725 0.203033 0.15186527 -0.20771375 -0.056164414
0.0869837 0.024756854 0.122577935 0.18651387 0.14729002 -0.16586696 -0.0029909473 -0.12172474
0.104469985 0.05061385 -0.16441205 0.1240257 0.22573411 -0.2338996 -0.16379932 -0.14562067
-0.014961496 -0.047417298 -0.009967936 -0.049416825 0.03859994 0.019040152 -0.03367788 0.1917881
0.008663718 0.1336609 0.050617576 0.03982103 0.121638 -0.11908099 -0.17383589 0.08067513
-0.16579406 -0.052141204 -0.14078297 -0.020857602 -0.026649216 0.09434067 -0.03283374 -0.13368931
0.029008985 -0.079240225 0.16113023 -0.024074443 0.08932677 0.16527078 0.048976008 -0.06857902
-0.15262508 -0.13769822 0.19593412 -0.026203007 0.1023916 -0.11795623 -0.0018147656 -0.06527766
0.0114679765 0.12463376 0.059898466 -0.042757094 0.104286075 -0.25313702 0.18910584 -0.14903483
0.08878836 0.019463748 0.05836001 0.06401645 -0.0062077492 0.13644966 0.098366536 0.04605812
0.08510534 0.2429221 0.07724157 -0.14671314 0.14615184 -0.010306399 0.036908012 0.17925069
0.03993404 -0.19645017 -0.06834483 0.15971705 -0.109020844 -0.12148524 -0.16968593 -0.05711811
-0.057711825 -0.18596925 0.0020435269 0.010170518 0.022191033 0.15079045 0.1456016 -0.10404528

critic.mlp.0.bias f4 [40]
00000000: 6e92 d1bd f42f 45be be51 dfbd b369 b93d
00000010: 3219 78bd 3c78 a73d c4e6 b0bb d1be fbbd
00000020: 4de4 a93d 3380 853d 4b0c a63c df19 38be
00000030: 0c56 103d 8278 58be bf2a f9bb eafe 003e
00000040: 0f96 613d 86de 46bd cbbc ca3d fe1f 793d
00000050: de1b aebd b5da 103e 9d3f d43b 0287 e3bd
00000060: 4461 67be e0aa 10be 67e9 26be 8fb8 5ebc
00000070: 245a 353e be5b 03be 123d 3e3d 80ec 5c3d
00000080: 79c2 8a3c 5314 2fbe 02e0 5c3d 6c0a 8e3b
00000090: fbf3 81bc 57f5 fbbb 0ba9 9bbd 29cc 6fbe
-0.10233007 -0.19256574 -0.10904263 0.09053364 -0.060570903 0.0817723 -0.005398603 -0.12292255
0.08295498 0.06518593 0.020269534 -0.17978619 0.03523831 -0.2113972 -0.0076039727 0.12597242
0.055074748 -0.04855206 0.09899291 0.060821526 -0.08501409 0.1414593 0.00647731 -0.11109735
-0.22595698 -0.14127684 -0.16299973 -0.013593807 0.17710167 -0.12827966 0.04644496 0.05393648
0.016938435 -0.17097597 0.053924568 0.0043347385 -0.01586341 -0.007689159 -0.07600602 -0.23417725

critic.mlp.2.weight f4 [1, 40]
00000000: 3d19 c3bd 58d8 5bbe 8b58 dabe b1a1 48bd
00000010: 39ed 103d 4387 80bd 864e 85bd 56ae 6c3e
00000020: 4a06 d2bd 9e6c ad3c a38d aebd 495b 0bbe
00000030: 2c76 033e 3928 23be f2a5 c5bd d0b6 043e
00000040: 3936 82bd b442 2f3e 444f d4bd 17f7 373e
00000050: 94fd 39be 6063 1e3e 739c 64be 7a1e 7d3e
00000060: 6282 90bd d188 97bd 4953 04bd 6dac 23be
00000070: 2df7 79be 8076 b1bb 2319 c13c 6cb8 cdbd
00000080: ecef f73d 77a6 673d 92c6 ad3d d8d2 133e
00000090: f143 1d3e f882 943d 9135 403d 6497 a7b8
-0.09526298 -0.21469247 -0.42645678 -0.048982326 0.035382483 -0.06275799 -0.06509118 0.23113379
-0.10255106 0.021169957 -0.08523109 -0.13609041 0.12838048 -0.15933312 -0.09650792 0.12960362
-0.063579984 0.17115289 -0.10366681 0.17965351 -0.18163139 0.15467596 -0.22325306 0.24718657
-0.070561185 -0.073991425 -0.03230599 -0.15983744 -0.24410696 -0.0054157376 0.023571556 -0.10044941
0.12106308 0.056555238 0.0848514 0.144359 0.15357949 0.07251543 0.046926085 -7.991379e-05
