src/coinjump/coinjump_learn/training/PPO_preTrained/CoinJumpEnv-v2/PPO_CoinJumpEnv-v2_92439_3748.pth (torch, 6619 bytes, 4 tensors)

actor.im.W f4 [5, 10]
00000000: f2f7 cabd 2a4d 19be 5533 11bd 1204 35bf
00000010: 7669 a93e d7ea 3abf dfb6 debf 2808 86be
00000020: 17d2 b83f 9049 b73d fe17 973d 7e0f bd3e
00000030: 9c25 63bf 2357 bbbc 030d 04c0 511a c3bf
00000040: 0c4c 8d3f ffc1 433e 38cd ed3f 13f4 dc3e
00000050: 96f9 b03f 60c9 d4bf f93c abbf 069a e0bf
00000060: 0402 13c0 da74 dfbe 03f2 16c0 fa66 2fbf
00000070: 39d4 7bbf 3a9f babf df7a 5ebe aff1 bf3f
00000080: aa73 c23f 1d4c ab3f 3759 afbe db58 363f
00000090: adf6 b03e 85e5 2d3f e792 d3bf ad3f 813f
000000a0: 2dc5 e7be bd36 a4bf 5354 df3e 9875 d33f
000000b0: 8a32 463f 60d0 883f dd09 e93e 20e8 54bf
000000c0: 1c75 19bf 56f3 0bbf
-0.09910573 -0.14970842 -0.035449345 -0.70709336 0.33088273 -0.7301459 -1.7399558 -0.26178098
1.4439114 0.08949578 0.07377623 0.36925882 -0.8872926 -0.022868698 -2.0632942 -1.5242406
1.1038833 0.19116972 1.8578253 0.43154964 1.3826168 -1.6623955 -1.3377982 -1.7547004
-2.296998 -0.43643838 -2.3585212 -0.68516505 -0.983707 -1.4579842 -0.21726559 1.4995631
1.5191548 1.3382603 -0.34247753 0.7122933 0.345632 0.67928344 -1.6529206 1.0097557
-0.4526762 -1.2829205 0.43619022 1.6520262 0.77420866 1.0688591 0.45515338 -0.83166695
-0.5994432 -0.54668176

critic.mlp.0.weight f4 [40, 24]
00000000: 13df 00be 004e deba a0c9 1bbe 08e0 0ebe
00000010: 5dc0 babc 667e 813c 8c7e bebd 3545 243d
00000020: e833 e6bc bacf 063e c2c9 78be e7c4 5bbd
00000030: 4677 3a3e 78cb 2b3d 9542 303e 659c 3abe
00000040: f31a 4fbe eb90 84bd 9292 41be 2f7d ecbd
00000050: d399 d1bd 9293 c93c 8f8c 3b3e 1d1c d4bd
00000060: 41c9 a5bd e4dd cfbd 8eb9 093e 9093 f43c
00000070: 7250 e73d 08dc 63bd 986a b6bd d91a 733e
00000080: 40d7 fc3d 7776 3abe a5a0 0abe 6997 a43d
00000090: e6fa 25be 7c34 2d3d e57d c2bc 40fd 363c
000000a0: 40e4 373d ad5b c43d e8c4 2b3e 8e9d 38be
000000b0: 7cc2 bb3d 3441 143e 676f 71bc 6fad 043c
000000c0: 443f 06be c06e 233e ac54 293e 70e2 963d
000000d0: cf5a 3ebe cefa 0d3e 32cc 423e 8c99 87bd
000000e0: 318c 41be 12ca 16be df13 18be 1d2f 47be
000000f0: 9607 1b3e 4c86 58bd fe53 14be 8e28 363e
00000100: 2034 e23c 8803 403e a580 43be 2ce4 b33d
00000110: 641d df3d c4a7 11be e703 fcbd 0ef7 4d3e
00000120: eb71 2f3e f44f a03d 54e8 b83d 2838 a53d
00000130: 1e95 39be b69c 093e d0bc c1bc 3a40 f1bd
00000140: a4a5 193e cba3 fcbd c177 0c3e 7851 70bc
00000150: 97c5 33be 7c1f 0dbe db82 f3bd 10a7 35bc
00000160: 92b4 1a3e 9ecc 073e 6376 2fbe f6ef 36be
00000170: d8bb 03be 6fc0 a93d 75d8 9bbc c799 8fbc
00000180: fb12 54be 444f 06be 3cd0 bfbd 98ef 8c3c
00000190: b9f6 18be c86c 07be 5899 e13c e1e4 83bd
000001a0: 0c04 87bd 90f3 0ebc a203 073e 5400 e2bd
000001b0: 2ad9 213e 9854 f9bc 52cb 5ebe e4bf 1ebd
000001c0: 1964 fb3d fc2a 2a3c 2048 c93d 316e 13be
000001d0: 426a 45be 4c05 c43d 75f0 54be 22e6 1c3e
000001e0: a9eb cfbd 28f2 bfbd 1673 4d3e b810 cebc
000001f0: f6c4 2a3e 9cca 603e e8d8 063e 9e47 8a3c
00000200: adaa 46be a87f fb3d 983e 063e 28f5 9d3e
00000210: c0ad 543b c28f 123e 1ecf 283d e86a aabd
00000220: 0e1c 363c 812b 57be 3f7e 08be 4004 683d
00000230: d01d e1bd 6a8b 2b3d c101 05be 540f 273e
00000240: 59dc 333e b0ec 823d 40a5 05bd c857 22bd
00000250: 0940 9a3c 2867 d5bd 88f2 dbbc bd5b 2b3d
00000260: b896 5e3d 60d8 2b3d 730b 1e3b cf71 443e
00000270: e2e7 4f3e 9282 1b3e 4b3c 2cbe a80c 66bd
00000280: e471 963d fda0 833d 240a fb3d 7efd 3e3e
00000290: 32d3 163e 6762 01be a2d7 b2bd aa5d a8bd
000002a0: feb1 bf3d 7850 4f3d a25b 28be 3001 fe3d
000002b0: df1d 3c3e ddc5 44be 02bb 27be 27ab 62be
000002c0: 1021 75bc a438 42bd 4cc3 10bc e527 00be
000002d0: f81a 1e3d 18fa 9b3c 7b76 36bd 1a64 443e
000002e0: 4933 f13c 737a fb3d 6054 4f3d 601b 233d
000002f0: 581d f93d 7b11 05be 2f92 24be a9f6 8e3d
00000300: 74cb 07be 0492 55bd 6929 10be 90dd aabc
00000310: 9093 4e3b 3868 ed3d ac7c 06bd 9ab3 cdbd
00000320: 40a4 ed3c b348 a2bd 9ec5 1f3e 9352 163c
00000330: f4f0 b63d be3c 293e 4342 a83d 2873 8cbd
00000340: f6ac 20be b90c d6bd f4a2 483e b0a7 d6bc
00000350: b0b2 d13d 419e adbd 6feb 95bc cb76 03bd
00000360: c7a1 c7bc fc3f ff3d 1858 753d 1022 2fbd
00000370: 7b26 073e c25d 5cbe f6a4 413e 0129 f4bd
00000380: acd6 b53d 7072 9f3c 58d0 533d 2b2b c03d
00000390: 606a cbbb 76b9 0b3e 880f 803d 70a7 3c3d
000003a0: 6255 be3d f50d 543e d430 9e3d f83b 16be
000003b0: d4a8 153e ff00 3dbd 1f2b 3c3d e8da 123e
000003c0: 7e68 6a3d 3c2a 49be 60f8 8bbd de8c 233e
000003d0: f2ff c5bd b969 d1bd 26c2 2dbe 09ae 6bbd
000003e0: 3c63 6cbd b96e 3ebe 347b e03a 40bd 1f3c
000003f0: f8c9 b53c d068 1a3e 36ce 263e b115 d5bd
-0.12585096 -0.0016960502 -0.15213633 -0.13952649 -0.022796804 0.015807342 -0.09301481 0.040105063
-0.028100923 0.13165179 -0.24295714 -0.053654578 0.18209562 0.04194209 0.17212899 -0.18223722
-0.20225124 -0.064729534 -0.18903568 -0.115473144 -0.10234418 0.0246065 0.18315338 -0.10356925
-0.08095027 -0.10149744 0.1344969 0.02985552 0.112946406 -0.05562976 -0.0890705 0.2374071
0.12345743 -0.18209253 -0.13537844 0.08036692 -0.16208991 0.04228638 -0.023741672 0.011168778
0.04489541 0.09587798 0.16774333 -0.18028852 0.09167954 0.14477998 -0.014736033 0.00809799
-0.13110071 0.15960217 0.16536206 0.07367408 -0.18589328 0.13865206 0.19023207 -0.066210836
-0.18901135 -0.14725521 -0.1485133 -0.19451566 0.15139613 -0.05286245 -0.14485165 0.17788908
0.027612746 0.18751347 -0.19092043 0.08783755 0.10894278 -0.14224154 -0.12305432 0.20113775
0.171333 0.0782775 0.09028688 0.080673516 -0.1812329 0.13438687 -0.023649603 -0.11779828
0.15004593 -0.123359285 0.13717557 -0.014667861 -0.17555843 -0.13781542 -0.11890193 -0.011087194
0.15107945 0.13261649 -0.17135005 -0.17864975 -0.12864625 0.08288657 -0.019024113 -0.017529381
-0.20710365 -0.13116175 -0.093658894 0.017204091 -0.14937867 -0.1322509 0.02753894 -0.064401396
-0.06592569 -0.008725062 0.1318498 -0.11035219 0.15805498 -0.030435845 -0.21757248 -0.03875722
0.122749515 0.010386225 0.0982821 -0.14397503 -0.19278815 0.09571323 -0.20794852 0.15322164
-0.101523705 -0.093723595 0.20063433 -0.025154456 0.16676697 0.2195229 0.1316868 0.016879853
-0.19401045 0.12280208 0.13109815 0.30851102 0.0032452196 0.14312652 0.041213147 -0.08321172
0.011115087 -0.21012689 -0.13329409 0.056644678 -0.109920144 0.041881002 -0.1298895 0.16314441
0.17564525 0.06392801 -0.032628298 -0.039634496 0.018829362 -0.10420066 -0.026849046 0.041835535
0.054342955 0.0419544 0.002411571 0.1918404 0.203033 0.15186527 -0.16819875 -0.056164414
0.07345942 0.064271905 0.122577935 0.18651387 0.14729002 -0.12635194 -0.08732535 -0.0822099
0.09360121 0.05061385 -0.16441205 0.1240257 0.1837077 -0.19216104 -0.16379932 -0.22135602
-0.014961496 -0.047417298 -0.008835625 -0.12515219 0.03859994 0.019040152 -0.044546586 0.1917881
0.0294434 0.12279215 0.050617576 0.03982103 0.121638 -0.1299495 -0.1607139 0.069806404
-0.13261205 -0.052141204 -0.14078297 -0.020857602 0.003152106 0.11592144 -0.03283374 -0.10044022
0.029008985 -0.079240225 0.15602729 0.009174961 0.08932677 0.16527078 0.082157634 -0.06857902
-0.1569098 -0.104516454 0.19593412 -0.026203007 0.1023916 -0.0847745 -0.01830074 -0.03209571
-0.024369134 0.12463376 0.059898466 -0.042757094 0.13198273 -0.21520141 0.18910584 -0.119218834
0.08878836 0.019463748 0.051712364 0.09383234 -0.0062077492 0.13644966 0.06252962 0.04605812
0.09293629 0.20708449 0.07724157 -0.14671314 0.14615184 -0.046143528 0.04593956 0.14341319
0.057228558 -0.19645017 -0.06834483 0.15971705 -0.09667958 -0.10225243 -0.16968593 -0.05753902
-0.057711825 -0.18596925 0.0017126561 0.009749711 0.022191033 0.15079045 0.162896 -0.10404528

critic.mlp.0.bias f4 [40]
00000000: ef52 44bd 1e23 16be a958 bdbd 7361 1a3e
00000010: 4752 39bd 0ebc e43d a8bd 0b3d 8400 09be
00000020: 13d9 ed3d 3f6d f03c bbdc 193d d7f9 0dbe
00000030: 0a3f 0dbd 96d0 55be 820d 533d b76f fb3d
00000040: f9bc d03d e070 b0bd 713c 053e 0d7d 0dbb
00000050: 5b8c e9bc 8b7a cc3d 1828 e03b d1a2 e8bd
00000060: b756 4cbe a35c b2bd db7e bbbd 0b33 52bc
00000070: 77c4 473e 5aa6 7ebd 2a95 8cbc 80ec 5c3d
00000080: e121 cb3c 0d50 2bbe c8fc 043d 59f1 74bc
00000090: 1171 8fbd 8f05 81bd 74cf aabd c5b4 06be
-0.047930654 -0.14661834 -0.09245426 0.15076236 -0.04524448 0.11168681 0.034116417 -0.13379103
0.11613669 0.029348968 0.03756402 -0.13864838 -0.034483947 -0.2088035 0.051526554 0.12277167
0.10192294 -0.08615279 0.13011338 -0.0021589429 -0.02850931 0.09984311 0.006840717 -0.1135918
-0.19954954 -0.08709075 -0.09155055 -0.012829552 0.19508539 -0.062170364 -0.01716097 0.05393648
0.024796428 -0.16729756 0.032467633 -0.01495012 -0.070039876 -0.06299888 -0.0834035 -0.13154896

critic.mlp.2.weight f4 [1, 40]
00000000: 9742 09be 5bda 19be d0f9 91bd de01 abbc
00000010: a2d6 9e3d 92f3 82bd c055 c6bd c669 303e
00000020: 83d5 ebbd 219f 9e3c 800f b7bd 5966 afbd
00000030: f219 073d ddde 0abe fe42 d4bd 6215 c73d
00000040: 9bbc 72bd 42d3 2f3e e8cb aebd 86e6 233e
00000050: 866e 25be 9f24 1c3e a92a 00be 2184 463e
00000060: a41e 7dbd d2fd 97bd 6840 97bc 8fca c2bd
00000070: 29ed 2fbe b883 febb 1a0d a13c 6cb8 cdbd
00000080: 93c8 023e 2043 693d ed5d e03d 1d4c 063e
00000090: 5aae 223e 4788 8b3d c761 2e3d d00b 6b3a
-0.13404308 -0.15024702 -0.07127726 -0.020874914 0.07755782 -0.063941136 -0.09684324 0.1722785
-0.115153335 0.019362988 -0.08938503 -0.08564443 0.032983728 -0.13561578 -0.1036434 0.09720875
-0.0592619 0.17170432 -0.08534986 0.16005906 -0.16155443 0.15248345 -0.12516274 0.1938634
-0.0617968 -0.07421459 -0.018463328 -0.09511291 -0.17180313 -0.007767167 0.019659568 -0.10044941
0.12771825 0.05694878 0.10955415 0.13114972 0.15886822 0.06813102 0.042573716 0.0008966299
