src/coinjump/coinjump_learn/training/PPO_preTrained/CoinJumpEnv-v2/PPO_CoinJumpEnv-v2_92439_8825.pth (torch, 6619 bytes, 4 tensors)

actor.im.W f4 [5, 10]
-0.701647 -0.745471 -0.6360226 -1.2869729 1.7183592 -1.4201105 -2.3154614 -0.74125767
0.25938237 -0.920945 1.0591444 1.3690045 0.11217083 0.9880775 -1.0526968 -0.613449
1.5889078 0.53920954 1.1820413 0.11009397 2.3880973 -2.6205626 -2.2968311 -2.7135227
-3.2532005 -1.4033234 -3.3225694 -1.2859223 -1.9412566 -2.4218714 -1.1980282 2.6236713
2.126794 0.3543858 -1.3257042 -0.30055556 -0.6351068 -0.039397947 -2.633652 0.34577525
-0.7005364 -1.5306208 0.1871698 2.9010289 0.63792914 0.394242 0.20624904 -1.0733954
-0.8433282 -0.8077107
00000000: 239f 33bf 30d7 3ebf 61d2 22bf 87bb a4bf
00000010: 32f3 db3f 2ec6 b5bf 8530 14c0 10c3 3dbf
00000020: c4cd 843e 0dc3 6bbf 0b92 873f 8a3b af3f
00000030: d2b9 e53d a6f2 7c3f c5be 86bf fe0a 1dbf
00000040: 5561 cb3f a309 0a3f 214d 973f f378 e13d
00000050: 96d6 1840 4cb7 27c0 48ff 12c0 5baa 2dc0
00000060: 7034 50c0 1aa0 b3bf faa4 54c0 1a99 a4bf
00000070: 197b f8bf f1ff 1ac0 fd58 99bf 3bea 2740
00000080: 651d 0840 0e72 b53e adb0 a9bf 6be2 99be
00000090: 5c96 22bf be5f 21bd c18d 28c0 7409 b13e
000000a0: 5a56 33bf 62eb c3bf 71a9 3f3e 75aa 3940
000000b0: 534f 233f 16da c93e f332 533e 0565 89bf
000000c0: 5be4 57bf 21c6 4ebf

critic.mlp.0.weight f4 [40, 24]
-0.16805536 -0.0016960502 -0.15213633 -0.13952649 0.068011895 -0.01098686 -0.09301481 0.009289705
-0.028100923 0.13165179 -0.26305717 -0.08447019 0.18209562 0.04194209 0.12992461 -0.18223722
-0.25918278 -0.106933944 -0.18903568 -0.115473144 -0.10234418 -0.017597767 0.12060057 -0.14577392
-0.12580767 -0.10149744 0.1344969 0.02985552 0.14560647 -0.03540951 -0.0890705 0.27182257
0.12345743 -0.18209253 -0.20505735 0.114781804 -0.16208991 0.04228638 -0.06859924 0.011168778
0.033197176 0.05102043 0.16774333 -0.18028852 0.09167954 0.09992266 -0.0025661632 -0.03675957
-0.1421591 0.15960217 0.16536206 0.07367408 -0.19993779 0.116715185 0.19023207 -0.42037427
-0.18901135 -0.14725521 -0.50578225 -0.548651 0.15139613 -0.05286245 -0.15591004 0.17788908
0.1648047 0.1764602 -0.19092043 0.08783755 0.10894278 -0.15329999 -0.015859686 0.19008444
0.1157038 0.0782775 0.09028688 0.080673516 -0.20170769 0.11988964 -0.023649603 -0.13058825
0.15004593 -0.123359285 0.12857307 -0.027457792 -0.17555843 -0.13781542 -0.17453101 -0.011087194
0.172899 0.07698706 -0.17135005 -0.17864975 -0.12864625 0.027257198 -0.0032529149 -0.073158935
-0.21141803 -0.13116175 -0.093658894 0.017204091 -0.16058391 -0.13983971 0.02753894 -0.050688725
-0.06592569 -0.008725062 0.119441524 -0.09663941 0.15805498 -0.030435845 -0.22188686 -0.03875722
0.10566761 0.0060721836 0.0982821 -0.14397503 -0.19278815 0.09139924 -0.22145867 0.14890729
-0.13857006 -0.093723595 0.20063433 -0.025154456 0.19118622 0.26042214 0.1316868 0.02381317
-0.19401045 0.12280208 0.11676186 0.3154445 0.0032452196 0.14312652 0.0041668587 -0.08321172
0.010095385 -0.24717343 -0.13329409 0.056644678 -0.109920144 0.004834731 -0.07769128 0.12609784
0.13004707 0.06392801 -0.032628298 -0.039634496 -0.01585275 -0.079767324 -0.026849046 0.0679042
0.054342955 0.0419544 0.011336901 0.21790905 0.203033 0.15186527 -0.21379691 -0.056164414
0.08608745 0.01867382 0.122577935 0.18651387 0.14729002 -0.17195012 -0.014239017 -0.12780789
0.10602962 0.05061385 -0.16441205 0.1240257 0.2179453 -0.22969364 -0.16379932 -0.18220574
-0.014961496 -0.047417298 -0.0106606735 -0.08600205 0.03859994 0.019040152 -0.032118276 0.1917881
0.009361104 0.13522033 0.050617576 0.03982103 0.121638 -0.11752129 -0.16578813 0.082234785
-0.14587285 -0.052141204 -0.14078297 -0.020857602 -0.0050645927 0.114885904 -0.03283374 -0.11370071
0.029008985 -0.079240225 0.17256361 -0.0040856246 0.08932677 0.16527078 0.06889725 -0.06857902
-0.1317764 -0.11777689 0.19593412 -0.026203007 0.1023916 -0.09803498 0.0034674825 -0.0453564
0.020586034 0.12463376 0.059898466 -0.042757094 0.10853981 -0.2400826 0.18910584 -0.13955852
0.08878836 0.019463748 0.054180045 0.07349262 -0.0062077492 0.13644966 0.10748468 0.04605812
0.08674893 0.25203985 0.07724157 -0.14671314 0.14615184 -0.0011883305 0.03817741 0.18836851
0.046296958 -0.19645017 -0.06834483 0.15971705 -0.10605874 -0.114271656 -0.16968593 -0.05266591
-0.057711825 -0.18596925 0.009504101 0.014622757 0.022191033 0.15079045 0.15196462 -0.10404528
00000000: b416 2cbe 004e deba a0c9 1bbe 08e0 0ebe
00000010: d249 8b3d 3b02 34bc 8c7e bebd d933 183c
00000020: e833 e6bc bacf 063e 6eaf 86be b5fe acbd
00000030: 4677 3a3e 78cb 2b3d f50a 053e 659c 3abe
00000040: 9bb3 84be 2f00 dbbd 9292 41be 2f7d ecbd
00000050: d399 d1bd 3129 90bc 6ffd f63d c245 15be
00000060: bad3 00be e4dd cfbd 8eb9 093e 9093 f43c
00000070: dd19 153e 9009 11bd 986a b6bd 542c 8b3e
00000080: 40d7 fc3d 7776 3abe 8efa 51be b912 eb3d
00000090: e6fa 25be 7c34 2d3d c27d 8cbd 40fd 363c
000000a0: c3f9 073d ccfa 503d e8c4 2b3e 8e9d 38be
000000b0: 7cc2 bb3d 40a4 cc3d 132d 28bb 3491 16bd
000000c0: 2892 11be c06e 233e ac54 293e 70e2 963d
000000d0: 7ebc 4cbe 5f08 ef3d 32cc 423e 4c3b d7be
000000e0: 318c 41be 12ca 16be f27a 01bf 6474 0cbf
000000f0: 9607 1b3e 4c86 58bd e2a6 1fbe 8e28 363e
00000100: 90c2 283e fcb1 343e a580 43be 2ce4 b33d
00000110: 641d df3d acfa 1cbe 2cec 81bc 7fa5 423e
00000120: 1df6 ec3d f44f a03d 54e8 b83d 2838 a53d
00000130: 768c 4ebe b388 f53d d0bc c1bc edb8 05be
00000140: a4a5 193e cba3 fcbd a9a8 033e 2aef e0bc
00000150: 97c5 33be 7c1f 0dbe 42b8 32be 10a7 35bc
00000160: 6f0c 313e 64ab 9d3d 6376 2fbe f6ef 36be
00000170: d8bb 03be 7d4a df3c db2e 55bb 5ad4 95bd
00000180: f87d 58be 444f 06be 3cd0 bfbd 98ef 8c3c
00000190: 1c70 24be 2432 0fbe 5899 e13c fb9e 4fbd
000001a0: 0c04 87bd 90f3 0ebc c29d f43d e2ea c5bd
000001b0: 2ad9 213e 9854 f9bc 4f36 63be e4bf 1ebd
000001c0: 4368 d83d 2bf9 c63b 2048 c93d 316e 13be
000001d0: 426a 45be 862f bb3d 10c6 62be 277b 183e
000001e0: 4fe5 0dbe 28f2 bfbd 1673 4d3e b810 cebc
000001f0: 52c6 433e 0d56 853e e8d8 063e d613 c33c
00000200: adaa 46be a87f fb3d d820 ef3d f181 a13e
00000210: c0ad 543b c28f 123e 258a 883b e86a aabd
00000220: 1d67 253c 081b 7dbe 3f7e 08be 4004 683d
00000230: d01d e1bd aa6c 9e3b 9b1c 9fbd cb1f 013e
00000240: 0f2b 053e b0ec 823d 40a5 05bd c857 22bd
00000250: a0dd 81bc 0d5d a3bd 88f2 dbbc 5b11 8b3d
00000260: b896 5e3d 60d8 2b3d 69be 393c 8d23 5f3e
00000270: e2e7 4f3e 9282 1b3e 94ed 5abe a80c 66bd
00000280: 9e4e b03d d7f9 983c 240a fb3d 7efd 3e3e
00000290: 32d3 163e b113 30be c44a 69bc 12e0 02be
000002a0: 0f26 d93d 7850 4f3d a25b 28be 3001 fe3d
000002b0: 0d2d 5f3e cf34 6bbe 02bb 27be 2494 3abe
000002c0: 1021 75bc a438 42bd 1baa 2ebc d821 b0bd
000002d0: f81a 1e3d 18fa 9b3c 748e 03bd 1a64 443e
000002e0: 515f 193c 3377 0a3e 6054 4f3d 601b 233d
000002f0: 581d f93d 01af f0bd 5dc4 29be b66a a83d
00000300: b15f 15be 0492 55bd 6929 10be 90dd aabc
00000310: e2f4 a5bb 4d49 eb3d ac7c 06bd ebdb e8bd
00000320: 40a4 ed3c b348 a2bd 84b4 303e b4e0 85bb
00000330: f4f0 b63d be3c 293e 001a 8d3d 2873 8cbd
00000340: 65f0 06be 0335 f1bd f4a2 483e b0a7 d6bc
00000350: b0b2 d13d 90c6 c8bd b43e 633b a2c7 39bd
00000360: 0ba4 a83c fc3f ff3d 1858 753d 1022 2fbd
00000370: 1f4a de3d 37d8 75be f6a4 413e 6ee8 0ebe
00000380: acd6 b53d 7072 9f3c e5eb 5d3d 4c83 963d
00000390: 606a cbbb 76b9 0b3e ee20 dc3d 70a7 3c3d
000003a0: 6ca9 b13d 5e0b 813e d430 9e3d f83b 16be
000003b0: d4a8 153e c1c1 9bba ea5f 1c3d ade3 403e
000003c0: e1a1 3d3d 3c2a 49be 60f8 8bbd de8c 233e
000003d0: 5335 d9bd 4207 eabd 26c2 2dbe 36b8 57bd
000003e0: 3c63 6cbd b96e 3ebe 17b7 1b3c 4a94 6f3c
000003f0: f8c9 b53c d068 1a3e 9d9c 1b3e b115 d5bd

critic.mlp.0.bias f4 [40]
-0.09013488 -0.19147551 -0.10351304 0.09513307 -0.049558546 0.07464064 -0.011481627 -0.121362954
0.10287623 0.074304074 0.026632432 -0.17910998 0.027458245 -0.2188653 -0.013191248 0.12277167
0.051022626 -0.04231354 0.087143704 0.066703275 -0.086948276 0.15192433 -0.012911883 -0.10806537
-0.22868972 -0.13969237 -0.17021076 -0.022037588 0.16998045 -0.13050197 0.053864576 0.05393648
0.016938435 -0.17097597 0.042069238 0.009273196 -0.00935007 -0.0010738773 -0.071263745 -0.22472009
00000000: a398 b8bd 2812 44be a5fe d3bd 21d5 c23d
00000010: e7fd 4abd 31dd 983d 6f1d 3cbc 248d f8bd
00000020: c6b0 d23d bc2c 983d 422c da3c 9b68 37be
00000030: 1df0 e03c 3a1e 60be 1b20 58bc b76f fb3d
00000040: 1afd 503d f650 2dbd 6678 b23d ba9b 883d
00000050: f011 b2bd 0d92 1b3e 5d8c 53bc 6051 ddbd
00000060: a32d 6abe 840b 0fbe bb4b 2ebe 2c88 b4bc
00000070: 5b0f 2e3e 4fa2 05be 1aa1 5c3d 80ec 5c3d
00000080: 79c2 8a3c 5314 2fbe cb50 2c3d 9aee 173c
00000090: 0931 19bc 58c1 8cba baf2 91bd 061d 66be

critic.mlp.2.weight f4 [1, 40]
-0.09088476 -0.21126045 -0.41089502 -0.042612877 0.030849256 -0.06254872 -0.063828155 0.22013296
-0.10403692 0.022793995 -0.08569177 -0.13474381 0.12010156 -0.16682439 -0.10013988 0.09720875
-0.061758336 0.16965546 -0.11043193 0.18059151 -0.18259092 0.15699828 -0.21510322 0.22969714
-0.06839711 -0.07418622 -0.032835867 -0.16265395 -0.24878776 -0.009390246 0.021424789 -0.10044941
0.12106308 0.056555238 0.07782901 0.15228735 0.15458164 0.07185878 0.05037537 0.001157945
00000000: ca21 babd a954 58be d560 d2be d78a 2ebd
00000010: 94b7 fc3c 8b19 80bd 56b8 82bd 896a 613e
00000020: 4f11 d5bd 79ba ba3c 2b7f afbd 48fa 09be
00000030: cff7 f53d 03d4 2abe 2316 cdbd 6215 c73d
00000040: 4ff6 7cbd 29ba 2d3e 232a e2bd fbec 383e
00000050: 1df9 3abe 28c4 203e 0544 5cbe ba35 6b3e
00000060: c913 8cbd f2ee 97bd e77e 06bd c28e 26be
00000070: 38c2 7ebe 8cd9 19bc 0a83 af3c 6cb8 cdbd
00000080: ecef f73d 77a6 673d d164 9f3d 37f1 1b3e
00000090: a64a 1e3e b22a 933d 6756 4e3d 30c6 973a
