src/coinjump/coinjump_learn/training/PPO_preTrained/CoinJumpEnv-v2/PPO_CoinJumpEnv-v2_92439_3319.pth (torch, 6619 bytes, 4 tensors)

actor.im.W f4 [5, 10]
00000000: 1173 ebbd 0704 29be 156f 1dbd 87f7 38bf
00000010: dde1 8f3e ce91 41bf 129d dfbf 3dd3 22be
00000020: 3bff b83f 2abe 0e3e 6a1f 8d3d 2bc3 ba3e
00000030: 97cb 63bf da66 dfbc 4755 04c0 73e4 c3bf
00000040: 087a 8a3f 9a37 733e 3654 ee3f e991 e23e
00000050: db15 a13f 3125 c7bf 5255 9dbf f2ea d2bf
00000060: 6934 0cc0 2dae abbe 66f5 0fc0 33f9 18bf
00000070: ca81 60bf 4f13 adbf dd42 26be 946f af3f
00000080: 4af7 b93f 8876 b23f 8bcf 92be 3058 443f
00000090: 52da cd3e 803c 473f 6c76 ccbf 13a2 863f
000000a0: 9854 ddbe 258b a1bf 1586 ea3e 44aa c73f
000000b0: 1dec 3b3f 7a40 8e3f b91b f43e 559d 4fbf
000000c0: 7d26 14bf cac4 06bf
-0.114965566 -0.16505443 -0.038436014 -0.72252697 0.28102008 -0.75613105 -1.7469809 -0.15900894
1.445289 0.1393973 0.068907574 0.36477026 -0.8898253 -0.027270723 -2.067705 -1.5304092
1.0818491 0.23751679 1.8619449 0.44251946 1.2584795 -1.5558225 -1.2291663 -1.647795
-2.1906989 -0.33531323 -2.249353 -0.5975525 -0.8769804 -1.3521518 -0.16236444 1.3705926
1.4528592 1.3942423 -0.28673968 0.76697063 0.40205628 0.7782669 -1.597364 1.0518211
-0.43228602 -1.2620589 0.4580542 1.5598836 0.73407155 1.1113427 0.476774 -0.81099445
-0.5787123 -0.52644026

critic.mlp.0.weight f4 [40, 24]
00000000: 0fe8 04be 004e deba a0c9 1bbe 08e0 0ebe
00000010: a5b2 bbbc fab8 d53b 8c7e bebd e5db 883d
00000020: e833 e6bc bacf 063e 8472 57be 81a4 dcbc
00000030: 4677 3a3e 78cb 2b3d 9a39 2c3e 659c 3abe
00000040: f0b5 4bbe eba2 8cbd 9292 41be 2f7d ecbd
00000050: d399 d1bd a14b a93c 34b2 403e 1b2e dcbd
00000060: 5d87 9ebd e4dd cfbd 8eb9 093e 9093 f43c
00000070: 2093 db3d 8596 7bbd 986a b6bd 207e 663e
00000080: 40d7 fc3d 7776 3abe 3318 14be de5d 8b3d
00000090: e6fa 25be 7c34 2d3d 5176 a5bc 40fd 363c
000000a0: 63ee 283d 919d cb3d e8c4 2b3e 8e9d 38be
000000b0: 7cc2 bb3d 1fe2 173e 1ca2 80bc 86bc 3e3c
000000c0: 443f 06be c06e 233e ac54 293e 70e2 963d
000000d0: cf5a 3ebe cefa 0d3e 32cc 423e 8c99 87bd
000000e0: 318c 41be 12ca 16be df13 18be 1d2f 47be
000000f0: 9607 1b3e 4c86 58bd fe53 14be 8e28 363e
00000100: 2034 e23c 8803 403e a580 43be 2ce4 b33d
00000110: 641d df3d c4a7 11be e703 fcbd 0ef7 4d3e
00000120: 4eb4 333e f44f a03d 54e8 b83d 2838 a53d
00000130: 19a3 3ebe d836 093e d0bc c1bc 5ba7 00be
00000140: a4a5 193e cba3 fcbd ef95 0d3e cb62 b8bc
00000150: 97c5 33be 7c1f 0dbe 10fe eabd 10a7 35bc
00000160: eee2 153e 020f 0c3e 6376 2fbe f6ef 36be
00000170: d8bb 03be 3a45 b23d 0d66 cabc 140d 5bbc
00000180: 2d3c 58be 444f 06be 3cd0 bfbd 98ef 8c3c
00000190: 2f01 1bbe 95ea 0abe 5899 e13c 0757 8fbd
000001a0: 0c04 87bd 90f3 0ebc 3428 053e 7d72 edbd
000001b0: 2ad9 213e 9854 f9bc 84f4 62be e4bf 1ebd
000001c0: a696 fc3d 5530 cf3b 2048 c93d 316e 13be
000001d0: 426a 45be f5b2 bb3d 3bc5 56be f1bc 183e
000001e0: 3b7e b2bd 28f2 bfbd 1673 4d3e b810 cebc
000001f0: 01eb 293e 19fb 633e e8d8 063e c283 543c
00000200: adaa 46be a87f fb3d 79c5 033e ccf4 9b3e
00000210: c0ad 543b c28f 123e fda9 633d e86a aabd
00000220: ac29 653c cb74 48be 3f7e 08be 4004 683d
00000230: d01d e1bd 4966 663d 5804 febd 0ac6 353e
00000240: 0330 423e b0ec 823d 40a5 05bd c857 22bd
00000250: 5f68 383c 860c c6bd 88f2 dbbc 7b3e 0b3d
00000260: b896 5e3d 60d8 2b3d ab9e ad39 766a 3c3e
00000270: e2e7 4f3e 9282 1b3e a1e8 1dbe a80c 66bd
00000280: 6c6b 893d 5748 a03d 240a fb3d 7efd 3e3e
00000290: 32d3 163e 751d e6bd 5d08 bebd 50b6 8bbd
000002a0: f142 b23d 7850 4f3d a25b 28be 3001 fe3d
000002b0: c9d7 3e3e 82e7 42be 02bb 27be 7473 54be
000002c0: 1021 75bc a438 42bd d1f1 d3b8 6de0 e3bd
000002d0: f81a 1e3d 18fa 9b3c 8a54 51bd 1a64 443e
000002e0: 0fcf 103d 650b ee3d 6054 4f3d 601b 233d
000002f0: 581d f93d 00c9 0bbe 981c 24be 9a87 813d
00000300: cae7 04be 0492 55bd 6929 10be 90dd aabc
00000310: 7aa0 3aba 07df f23d ac7c 06bd 53ec c7bd
00000320: 40a4 ed3c b348 a2bd 96fa 1b3e f28c 443c
00000330: f4f0 b63d be3c 293e 8a09 ae3d 2873 8cbd
00000340: 6834 1bbe 7145 d0bd f4a2 483e b0a7 d6bc
00000350: b0b2 d13d fad6 a7bd b6cb f4bc 6dd0 efbc
00000360: 4d6e 06bd fc3f ff3d 1858 753d 1022 2fbd
00000370: 1627 093e ca72 5cbe f6a4 413e aa3d edbd
00000380: acd6 b53d 7072 9f3c ce96 5c3d 8616 c73d
00000390: 606a cbbb 76b9 0b3e a481 5d3d 70a7 3c3d
000003a0: dafc bc3d 9566 4b3e d430 9e3d f83b 16be
000003b0: d4a8 153e 6b9e 5fbd 0e6a 363d 8833 0a3e
000003c0: f8c1 5e3d 3c2a 49be 60f8 8bbd de8c 233e
000003d0: 9615 cebd 89f2 d6bd 26c2 2dbe 7791 71bd
000003e0: 3c63 6cbd b96e 3ebe 364f 833a 6e2f 083c
000003f0: f8c9 b53c d068 1a3e 92e4 233e b115 d5bd
-0.12979148 -0.0016960502 -0.15213633 -0.13952649 -0.022912333 0.006522295 -0.09301481 0.066825666
-0.028100923 0.13165179 -0.21039778 -0.02693391 0.18209562 0.04194209 0.16818848 -0.18223722
-0.19893622 -0.06867012 -0.18903568 -0.115473144 -0.10234418 0.020665945 0.18817979 -0.107509814
-0.07740662 -0.10149744 0.1344969 0.02985552 0.10721421 -0.061422843 -0.0890705 0.2250905
0.12345743 -0.18209253 -0.14462356 0.06805013 -0.16208991 0.04228638 -0.02019802 0.011168778
0.04124297 0.09942163 0.16774333 -0.18028852 0.09167954 0.14832352 -0.0157023 0.011641627
-0.13110071 0.15960217 0.16536206 0.07367408 -0.18589328 0.13865206 0.19023207 -0.066210836
-0.18901135 -0.14725521 -0.1485133 -0.19451566 0.15139613 -0.05286245 -0.14485165 0.17788908
0.027612746 0.18751347 -0.19092043 0.08783755 0.10894278 -0.14224154 -0.12305432 0.20113775
0.1754925 0.0782775 0.09028688 0.080673516 -0.18616904 0.13399827 -0.023649603 -0.12563841
0.15004593 -0.123359285 0.13826726 -0.022508046 -0.17555843 -0.13781542 -0.1147424 -0.011087194
0.14637348 0.136776 -0.17135005 -0.17864975 -0.12864625 0.0870461 -0.024706865 -0.013369817
-0.21116705 -0.13116175 -0.093658894 0.017204091 -0.1513717 -0.13566048 0.02753894 -0.06999021
-0.06592569 -0.008725062 0.13003618 -0.115941025 0.15805498 -0.030435845 -0.22163588 -0.03875722
0.123334214 0.0063229003 0.0982821 -0.14397503 -0.19278815 0.09164993 -0.20973675 0.14915825
-0.08715483 -0.093723595 0.20063433 -0.025154456 0.16593553 0.22263755 0.1316868 0.012970867
-0.19401045 0.12280208 0.12868299 0.30460203 0.0032452196 0.14312652 0.055582035 -0.08321172
0.013986986 -0.19575803 -0.13329409 0.056644678 -0.109920144 0.05624989 -0.12403172 0.17751327
0.18963628 0.06392801 -0.032628298 -0.039634496 0.011255353 -0.096703574 -0.026849046 0.033995133
0.054342955 0.0419544 0.00033115348 0.18399987 0.203033 0.15186527 -0.15420772 -0.056164414
0.06709942 0.07826298 0.122577935 0.18651387 0.14729002 -0.11236087 -0.09278939 -0.06821883
0.08704174 0.05061385 -0.16441205 0.1240257 0.18637003 -0.19033626 -0.16379932 -0.20747167
-0.014961496 -0.047417298 -0.00010106306 -0.1112679 0.03859994 0.019040152 -0.051106013 0.1917881
0.035353716 0.11623267 0.050617576 0.03982103 0.121638 -0.13650894 -0.16026533 0.06324692
-0.12979046 -0.052141204 -0.14078297 -0.020857602 -0.000711925 0.11858945 -0.03283374 -0.09761872
0.029008985 -0.079240225 0.1523231 0.011996495 0.08932677 0.16527078 0.08497913 -0.06857902
-0.1515671 -0.10169495 0.19593412 -0.026203007 0.1023916 -0.081953004 -0.029882293 -0.02927419
-0.032820035 0.12463376 0.059898466 -0.042757094 0.13393816 -0.21528164 0.18910584 -0.11584027
0.08878836 0.019463748 0.053854756 0.09721093 -0.0062077492 0.13644966 0.054078713 0.04605812
0.09227915 0.1986335 0.07724157 -0.14671314 0.14615184 -0.05459444 0.044534735 0.1349622
0.0543842 -0.19645017 -0.06834483 0.15971705 -0.10062711 -0.10495479 -0.16968593 -0.058976617
-0.057711825 -0.18596925 0.0010018114 0.008312089 0.022191033 0.15079045 0.16005161 -0.10404528

critic.mlp.0.bias f4 [40]
00000000: ee76 54bd 3282 12be a958 bdbd d6a3 1e3e
00000010: faf6 49bd bd14 013e 5a0c 453d 09b8 0fbe
00000020: 5ba0 f33d 6e32 ab3c 3536 0e3d 7cd0 09be
00000030: 91b4 f9bc a629 57be 24fe 7e3d b76f fb3d
00000040: 0f65 e93d 5b36 c2bd 5576 0e3e 81fa 48bc
00000050: 3acc a1bc 9cf6 ba3d f139 8f3c 2c10 eebd
00000060: 6cba 38be 0b34 a4bd 14a7 9bbd c5b7 b4bb
00000070: 0713 513e d341 5fbd e68a ffbc 80ec 5c3d
00000080: ea21 cb3c 7d4f 2bbe 5984 0e3d 8d8f a4bc
00000090: 0e8e a4bd ef0c 96bd f604 bfbd a445 05be
-0.051871233 -0.14307478 -0.09245426 0.15492186 -0.0493078 0.12605567 0.048107482 -0.14035048
0.1189582 0.02089807 0.034719665 -0.13458437 -0.030481609 -0.21011981 0.062254086 0.12277167
0.113962285 -0.09483024 0.13912328 -0.012266756 -0.019750703 0.09129068 0.017483683 -0.11624178
-0.18039864 -0.08017739 -0.07600227 -0.005515071 0.20417415 -0.054506134 -0.031194162 0.05393648
0.024796445 -0.16729541 0.034794185 -0.020087982 -0.08034907 -0.07326686 -0.09327118 -0.13014847

critic.mlp.2.weight f4 [1, 40]
00000000: a1f6 03be fd2a 1bbe d0f9 91bd bb8c c1bc
00000010: 420a ad3d f801 78bd 34b3 b4bd 9624 353e
00000020: dcb7 d6bd 38b0 9c3c 5726 b5bd 2b95 b3bd
00000030: eb5f 183d febe 0cbe fa12 d3bd 6215 c73d
00000040: 3143 73bd 63bd 303e 2be6 adbd ac0b 223e
00000050: e8f1 22be 2816 173e 0a1b fabd 60b9 3a3e
00000060: 920e 68bd 114a 95bd 12c3 97bc 3162 c0bd
00000070: fccf 30be 57e9 d4bb c84e bc3c 6cb8 cdbd
00000080: 93c8 023e bd43 693d 899d f03d f06c f83d
00000090: e923 243e 5bde 903d efe0 3a3d 1e06 8cba
-0.1288705 -0.15153117 -0.07127726 -0.023626676 0.08449222 -0.060548753 -0.08823243 0.17689738
-0.10484287 0.019126996 -0.08845203 -0.08768686 0.03720085 -0.13744733 -0.10306354 0.09720875
-0.05939025 0.17259745 -0.08491167 0.15824765 -0.15912592 0.14754546 -0.122121885 0.18234777
-0.05665452 -0.07289518 -0.018525634 -0.093937285 -0.1726684 -0.006497543 0.022986785 -0.10044941
0.12771825 0.056949366 0.117487974 0.12130153 0.16029324 0.07073661 0.04562467 -0.0010682975
