src/models/coinjump/logic/coinjump_LP_bm_top3.pth (torch, 6683 bytes, 4 tensors)

actor.im.W f4 [5, 15]
0	0xbf55b493	-0.8347866
1	0xbf1de189	-0.61672264
2	0xbf0e5fe9	-0.556151
3	0xbf14d9d1	-0.5814486
4	0x3eb36e49	0.35045078
5	0x3f66838f	0.9004449
6	0x4046fdd8	3.1092434
7	0xbea3cec8	-0.319937
8	0xbfccfe11	-1.6015035
9	0xbeec0a37	-0.46101543
10	0xbf498740	-0.78722
11	0xbc7563c2	-0.014977397
12	0xbef5b4eb	-0.47989592
13	0x3fe3e61e	1.7804601
14	0x3e3eeed6	0.18645796
15	0xc03e59ce	-2.9742312
16	0x40271ae4	2.6110163
17	0xc0620856	-3.5317588
18	0xc0471a36	-3.1109748
19	0xbff531a6	-1.9155777
20	0xc001023a	-2.015761
21	0xbfdbaa26	-1.71613
22	0xc0024b84	-2.035859
23	0xbe50c6fc	-0.20388407
24	0xc03eec6a	-2.9831796
25	0xbfa5442c	-1.291143
26	0xc036ab25	-2.8541958
27	0xbf0a5ac6	-0.5404476
28	0x402b2f3e	2.6747584
29	0x3f4f56ff	0.8099212
30	0x4065f4b6	3.593061
31	0x3f939fa8	1.1533098
32	0xbffa0e99	-1.9535705
33	0xbf3cf3be	-0.7380942
34	0xbf9a89fe	-1.2073362
35	0xbfe76c6f	-1.8079966
36	0xc02eecdd	-2.733207
37	0xc093514e	-4.603675
38	0xbfddfe8a	-1.7343304
39	0xc01a5618	-2.4115047
40	0xc00305a1	-2.0472186
41	0xc005acfe	-2.0886836
42	0xc030f4e1	-2.7649462
43	0xc02b2dd4	-2.6746721
44	0xbfc789c4	-1.5588918
45	0xbfd0169c	-1.62569
46	0xc067b204	-3.6202402
47	0xbf976583	-1.1827854
48	0xbfa6e584	-1.3038793
49	0xbf9478de	-1.1599386
50	0x4033e1e6	2.8106627
51	0xbfa8e3c0	-1.3194504
52	0xc0160597	-2.3440912
53	0xbf84c97c	-1.0373988
54	0xbf925029	-1.1430713
55	0xbf316941	-0.6930123
56	0x3ef6da15	0.48213258
57	0xbf829401	-1.0201417
58	0xbff4fda2	-1.9139903
59	0xbea6fe66	-0.32615966
60	0x3e057bd0	0.13035512
61	0xbfd0a11e	-1.6299169
62	0xbf812019	-1.008792
63	0xc011adc6	-2.2762313
64	0xc008b1c9	-2.1358511
65	0xbf1baf4e	-0.6081437
66	0xc03921c7	-2.8926866
67	0xbffa9a40	-1.9578323
68	0xc01daa8d	-2.4635346
69	0xc0029a0e	-2.0406528
70	0x4016b123	2.3545616
71	0x401c9fe9	2.4472601
72	0xc046f836	-3.1088996
73	0xbf179bb3	-0.59221953
74	0xbd6c3e35	-0.057676513

critic.mlp.0.weight f4 [40, 24]
0	0xbdb912bc	-0.090367764
1	0xbcddd85f	-0.027080713
2	0x3dfd0b00	0.12355614
3	0x3e19f23c	0.15033811
4	0x3d184a3b	0.037180167
5	0xbdac3149	-0.08407838
6	0xbda805df	-0.08204245
7	0xbe959d70	-0.29221678
8	0xbd82223c	-0.06354186
9	0x3e4d6506	0.20058069
10	0x3d989ab0	0.07451379
11	0xbe450f5c	-0.1924414
12	0x3db5c8f8	0.08876222
13	0xbcd3d61a	-0.025858928
14	0x3df88b8a	0.1213599
15	0xbdcc178e	-0.0996543
16	0x3c588664	0.013215635
17	0x3e6ccc0d	0.23124714
18	0x3e31cf36	0.17364201
19	0xbccc6d8c	-0.02495458
20	0x3e2262a9	0.15857948
21	0x3dc04c34	0.093895346
22	0x3c1f6b1a	0.009730125
23	0x3e89029f	0.26759812
24	0x3d9c9a4c	0.07646617
25	0xbe2620e7	-0.16223489
26	0xbdd11b6a	-0.10210307
27	0x3e392a83	0.18082623
28	0xbe261ce0	-0.16221952
29	0x3de22d77	0.11043828
30	0xbe228319	-0.15870322
31	0x3dd1959e	0.10233615
32	0xbe296960	-0.16544104
33	0x3db38fde	0.08767675
34	0xbdcf831f	-0.10132431
35	0x3d3ab5c1	0.04558349
36	0x3e3178d5	0.1733125
37	0xbe0bd11a	-0.13653985
38	0x3e05ea09	0.13077559
39	0xbe00a416	-0.12562594
40	0xbc7cd948	-0.015432663
41	0xbda4cad3	-0.08046498
42	0x3dadb9fd	0.0848274
43	0xbd12a8d6	-0.035805546
44	0xbd737a3a	-0.059442736
45	0xbe0a169c	-0.13485187
46	0x3e42016b	0.18945853
47	0xbd70488a	-0.05866293
48	0x3decbd55	0.1155955
49	0xbe83bd2a	-0.25730258
50	0xbe3662bb	-0.178111
51	0xbdd3b0c5	-0.103364505
52	0x3e4c305a	0.1994032
53	0xbde1153d	-0.10990379
54	0x3dc49fa4	0.096007615
55	0xbdc733fb	-0.09726711
56	0xbd8f9db6	-0.07012503
57	0xbe048baa	-0.12943903
58	0xbcc3bc91	-0.023893626
59	0xbdec0a9f	-0.11525463
60	0x3c810b4f	0.015752463
61	0xbe422826	-0.18960628
62	0xbe03460f	-0.12819694
63	0x3e2fa24c	0.17151755
64	0x3e224640	0.15847111
65	0xbdda8f1d	-0.10671828
66	0x3c6822ab	0.014168422
67	0xbe347a21	-0.17624713
68	0xbd8236ae	-0.063580856
69	0xbd8706c0	-0.06593084
70	0xbd07fa54	-0.033197716
71	0xbdb5c7e0	-0.08876014
72	0x3e26a5c2	0.16274169
73	0x3dc36613	0.095409535
74	0xbd350dc9	-0.0442026
75	0x3c35d4cf	0.011098101
76	0xbe29bacc	-0.16575164
77	0x3d1861a2	0.037202485
78	0xbde8fc2f	-0.11376225
79	0x3dc1b62c	0.09458575
80	0x3d260238	0.04052946
81	0xbcff6671	-0.031176778
82	0x3e39ecac	0.1815669
83	0x3e74479e	0.23855445
84	0xbdd8736a	-0.105688885
85	0x3e20be05	0.15697487
86	0xbd95947d	-0.073037125
87	0x3e14a939	0.14517678
88	0x3d82e9b4	0.063922316
89	0xbe49339a	-0.1964859
90	0x3dca9dbc	0.09893367
91	0x3dfeacb1	0.12435282
92	0x3d18b89c	0.037285432
93	0xbddc80d7	-0.10766762
94	0x3bf6f2be	0.0075362613
95	0xbd5a9820	-0.053367734
96	0x3d834bce	0.06410943
97	0x3d86ed16	0.06588189
98	0x3dbac1f3	0.09119024
99	0xbdba01a9	-0.09082348
100	0x3e415480	0.1887989
101	0x3e312210	0.1729815
102	0xbc9d8d49	-0.01923241
103	0xbe050b5f	-0.12992619
104	0x3db2c046	0.087280795
105	0xbe034ef7	-0.12823091
106	0xbe08ace6	-0.13347206
107	0x3e5a4eed	0.2131917
108	0xbda2fbb9	-0.079581685
109	0x3d2d0707	0.04224303
110	0x3dbbd4df	0.09171461
111	0x3cc3f63f	0.02392113
112	0xbe76e0e4	-0.24109226
113	0xbe5af1bb	-0.21381275
114	0xbe4ca75c	-0.19985718
115	0xbd960235	-0.0732464
116	0xbdc60a09	-0.09669883
117	0x3dbf0fce	0.093291864
118	0x3d80287b	0.06257721
119	0xbca11d6b	-0.019667348
120	0xbe115a3d	-0.1419458
121	0xbca26731	-0.019824596
122	0xbe04314a	-0.12909427
123	0xbde49c7a	-0.11162658
124	0xbe6713d7	-0.22566162
125	0x3d7d918b	0.06190638
126	0xbe6fa451	-0.23402525
127	0x3e93860a	0.288132
128	0x3e25cd6e	0.16191646
129	0x3dd2b6aa	0.10288747
130	0x3d909e21	0.07061411
131	0x3e148889	0.14505209
132	0x3c20b9da	0.009809935
133	0x3e5f8b49	0.21830477
134	0x3cee4d48	0.029089585
135	0xbe0e12f6	-0.1387442
136	0x3e44cbbd	0.19218345
137	0xbe4234bf	-0.18965434
138	0xbe3373c9	-0.17524637
139	0xbc231105	-0.009952788
140	0xbe134722	-0.14382604
141	0x3df8b52b	0.1214393
142	0x3d4a94e7	0.04945841
143	0x3dffed8d	0.12496481
144	0xbe41b521	-0.18916751
145	0xbe08c407	-0.13356028
146	0xbe8bc83f	-0.27301213
147	0xbe90759f	-0.28214738
148	0xbe5e7f4e	-0.2172825
149	0xbc6ba5c1	-0.0143827805
150	0xbe878d30	-0.26474905
151	0x3dcd6312	0.10028662
152	0xbe7bf760	-0.24606085
153	0xbda34675	-0.07972423
154	0xbe24b22a	-0.16083589
155	0xbe4b277c	-0.19839281
156	0xbcd2d836	-0.025737863
157	0x3e2a0050	0.16601682
158	0x3ce42553	0.027849829
159	0xbe220645	-0.15822704
160	0x3de0f949	0.10985047
161	0xbe4b33fd	-0.1984405
162	0x3de5c575	0.112193026
163	0x3d5d3350	0.054004014
164	0xbe86b719	-0.26311567
165	0xbdd06c2e	-0.10176884
166	0xbd575f68	-0.05258122
167	0xbe0e32c9	-0.1388656
168	0xbada2e00	-0.0016645789
169	0xbdb7b32b	-0.089697205
170	0xbdf8b5f2	-0.12144078
171	0x3db798fc	0.08964726
172	0xbdd32aed	-0.10310922
173	0xbdcde78b	-0.10053929
174	0xbe3119bf	-0.17294978
175	0x3e1e5196	0.1546081
176	0x3aae6b00	0.0013307035
177	0xbe1d8c48	-0.15385544
178	0xbe1d2cbc	-0.15349096
179	0x3e292b14	0.16520339
180	0x3e11086c	0.14163369
181	0xbe0fa1b8	-0.14026535
182	0x3d7ef3b8	0.062244147
183	0x3d6e4998	0.058175653
184	0xbe44fcec	-0.19237107
185	0x3d010204	0.031496063
186	0xbd82cdce	-0.063869104
187	0xbc8d43a8	-0.017244175
188	0x3e2ae414	0.16688567
189	0xbdc79eac	-0.09747061
190	0x3c72e6e0	0.014825553
191	0x3da75580	0.08170605
192	0x3ddf870e	0.109144315
193	0x3df15ce2	0.11785294
194	0xbe72a8b7	-0.23697172
195	0x3d6644b6	0.05621787
196	0x3d7fcd5b	0.0624517
197	0x3d539fe2	0.051666148
198	0xbe166049	-0.14685167
199	0xbd371103	-0.044693958
200	0xbe1f73a9	-0.15571465
201	0xbcc60d62	-0.024176303
202	0xbe24df0f	-0.16100715
203	0x3d509b11	0.050929133
204	0x3de767e5	0.11299113
205	0x3d0fd5c0	0.035115957
206	0x3e205f13	0.15661268
207	0xbe099aa7	-0.13437901
208	0xbe653038	-0.22381675
209	0x3e2aa65f	0.16665028
210	0x3dcb498c	0.09926137
211	0xbe30efc1	-0.17278959
212	0x3d809663	0.06278684
213	0xbd80c6ba	-0.06287904
214	0xbd700853	-0.05860169
215	0xbe585fa9	-0.21130241
216	0xbd06ddc7	-0.032926347
217	0xbe8c046d	-0.27347127
218	0x3be3839c	0.0069431793
219	0x3cf3e18f	0.02977064
220	0xbdb01227	-0.08597212
221	0x3d2ba803	0.041908275
222	0xbdb5571d	-0.08854506
223	0xbe613839	-0.21994103
224	0x3e36f2f4	0.17866117
225	0xbd23d8df	-0.040001746
226	0x3ca272de	0.019830164
227	0xbe85aee1	-0.26109985
228	0xbd822980	-0.06355572
229	0x3d332f6c	0.043746397
230	0xbde82fd0	-0.113372445
231	0x3bbdcf73	0.005792552
232	0x3e1f0adc	0.15531486
233	0x3e84228c	0.25807607
234	0xbd9201d8	-0.07129258
235	0xbe5d4588	-0.21608555
236	0x3cc92f60	0.024558723
237	0xbd83fe7d	-0.06445024
238	0x3e3ddc0c	0.18540972
239	0x3df6767d	0.120343186
240	0x3e3cd2c3	0.18439774
241	0x3e4840ac	0.1955592
242	0x3cedfeca	0.029052157
243	0xbd372d85	-0.044721145
244	0xbd4618f7	-0.048363652
245	0xbd296f2b	-0.041365784
246	0x3dc029f4	0.09383002
247	0x3e5e9119	0.21735038
248	0xbe2e8341	-0.17042257
249	0x3dc40db6	0.09572928
250	0x3d35a4de	0.044346683
251	0x3e021fe7	0.12707482
252	0x3d555d11	0.05209071
253	0x3dad0e70	0.08450019
254	0x3dea3fe9	0.11437971
255	0x3e3bdae8	0.18345225

critic.mlp.0.bias f4 [40]
0	0x3c7088a7	0.014681018
1	0x3e03da09	0.12876143
2	0x3e1641aa	0.14673486
3	0x3df9a0fb	0.12188908
4	0xbe787b4b	-0.24265783
5	0x3c9a0e17	0.018805547
6	0xbe79861c	-0.24367565
7	0x3d9caa80	0.07649708
8	0xbc2a1510	-0.010380998
9	0x3e291113	0.1651042
10	0x3e4eef31	0.20208432
11	0x3d0b9fb4	0.03408785
12	0x3e292e42	0.16521552
13	0x3e296497	0.16542278
14	0x3e0bb02d	0.13641424
15	0x3cf48b56	0.029851597
16	0xbde11bd9	-0.1099164
17	0x3e657dac	0.22411221
18	0xbdf9a42f	-0.12189519
19	0x3e1d1de9	0.15343441
20	0xbcd99b03	-0.026563173
21	0xbe054910	-0.13016152
22	0x3d12bf48	0.03582695
23	0xbdd2ab06	-0.102865264
24	0xbe7459e2	-0.23862413
25	0xbd89841e	-0.067146525
26	0x3e02f2ee	0.12787983
27	0x3dfe9da8	0.12432414
28	0xbd868e26	-0.065700814
29	0xbe3a0ecf	-0.18169712
30	0x3d362fa1	0.044479016
31	0x3d999d18	0.075006664
32	0xbde7072f	-0.11280667
33	0xbdd0c693	-0.10194125
34	0xbdf8a0af	-0.12140023
35	0xbe01857d	-0.12648578
36	0x3d8c2949	0.06843812
37	0xbe0ac176	-0.13550362
38	0xbe0d522c	-0.13800877
39	0xbe365ba6	-0.17808399

critic.mlp.2.weight f4 [1, 40]
0	0x3d9a1ca2	0.075249925
1	0x3e13d11b	0.14435236
2	0x3dcc8c42	0.099876896
3	0x3e851bdc	0.25997818
4	0xbe069f55	-0.13146718
5	0xbe1fbabf	-0.15598582
6	0x3ddbfb5e	0.10741304
7	0x3ce86bc8	0.028371707
8	0x3d944aa2	0.072407976
9	0x3db5ffec	0.08886704
10	0x3dad7c05	0.084709205
11	0xbdbaa872	-0.0911416
12	0x3dedc54e	0.116098985
13	0x3d673f80	0.056457043
14	0x3e80fcda	0.2519291
15	0x3d7cfbf2	0.06176371
16	0xbe444a9e	-0.19169089
17	0x3dedbc50	0.116081834
18	0x3e47aeb8	0.19500244
19	0x3dfc1cad	0.12310157
20	0x3df4c61d	0.119518496
21	0x3cc56ab5	0.024098733
22	0x3e2cc11e	0.16870543
23	0xbdc894c7	-0.09794002
24	0xbd6d4e49	-0.057935987
25	0x3da2f362	0.07956578
26	0x3d946fc0	0.07247877
27	0xbde79bb7	-0.11308997
28	0x3d83b5d9	0.06431169
29	0xbe2cb99f	-0.16867684
30	0x3bf8012a	0.007568498
31	0xbe458558	-0.19289148
32	0xbe8f484f	-0.27984855
33	0xbe560e2c	-0.20903844
34	0xbda297db	-0.079391204
35	0x3e0ede63	0.13952021
36	0xbe279a32	-0.16367415
37	0xbc64d575	-0.013966908
38	0x3e2113cf	0.15730213
39	0xbeb715bc	-0.3575877
