src/models/coinjump/logic/coinjump_LP_KD_4C_weights.pth (torch, 6427 bytes, 4 tensors)

actor.im.W f4 [4, 4]
000000 12 07 ab 3f 80 9f 4b bf 83 e2 e4 bf 67 70 b4 bf
       1.3361533 -0.7954025 -1.7881626 -1.4096802
000010 b0 07 83 3e 59 b1 0f 40 1b 97 f0 be 66 e0 b4 bf
       0.25591803 2.2451994 -0.46990284 -1.4130981
000020 6b 47 96 bf a2 39 1a c0 a8 2c 96 bf 73 25 07 40
       -1.1740545 -2.4097676 -1.1732378 2.1116607
000030 ac b1 b9 bf 6a 76 29 c0 f4 97 ac 3f db dc b6 bf
       -1.4507346 -2.6478524 1.3483872 -1.428615

critic.mlp.0.weight f4 [40, 24]
000000 b4 88 28 3d 36 da 04 3e 00 57 07 bc e2 9f 2f 3e
       0.041145995 0.12973866 -0.0082604885 0.17150834
000010 65 ff 72 3e 55 82 ef 3d 44 fd a0 3d 47 b7 6a bd
       0.23730238 0.11694781 0.078608066 -0.057303693
000020 98 26 ae bc 00 1d f8 ba 92 a8 87 be c5 74 39 3e
       -0.021258637 -0.0018929541 -0.26495796 0.1811095
000030 68 2a af 3c de 82 4e be 4d 50 f9 bd bb c6 d6 bd
       0.021382526 -0.2016711 -0.12173519 -0.104871236
000040 d0 95 f0 3a cb 5e 39 bd da df 4a be 81 14 a3 bd
       0.0018355194 -0.045256417 -0.19811955 -0.07962895
000050 00 51 6d bb 1c 5c 91 3d 28 81 9c 3d 06 cd 28 3e
       -0.003621161 0.070976466 0.07641822 0.1648446
000060 8d bd 47 be 98 71 c0 bd de 1d 1b be 2c 8e a5 bd
       -0.19505902 -0.09396666 -0.15148112 -0.08083758
000070 7e 25 83 be ba ee 07 3e e4 78 1c be 7e ac 85 3c
       -0.25614542 0.1327466 -0.15280491 0.016317602
000080 44 1b 1f 3d 65 2c d3 bd fe 94 0e 3e 78 f5 0f 3e
       0.038844362 -0.10311202 0.13924024 0.14058483
000090 ef d0 c4 bd 9d 9b b0 bd 00 98 27 be 17 70 26 be
       -0.096101634 -0.08623431 -0.16366577 -0.16253696
0000a0 42 d5 c4 bc 0e d2 11 bd a0 a6 af bd 62 cb 41 3e
       -0.02402747 -0.035600714 -0.08576703 0.1892524
0000b0 90 28 dc bc 71 fe a8 bd 4a 58 4e be d8 ea 5d bd
       -0.02687481 -0.08251656 -0.20150867 -0.054179043
0000c0 3d 93 9f 3e ce 3a 83 bd f0 c4 9a 3d 98 06 12 3e
       0.3116702 -0.064077005 0.07557094 0.14260328
0000d0 d0 3d 86 bd 70 37 92 bb 54 68 01 3e ac 22 bc 3e
       -0.065547585 -0.004462175 0.12637454 0.36745203
0000e0 04 af 10 be 80 f3 42 3e 77 53 26 bc 56 63 95 3e
       -0.14129263 0.190382 -0.0101517355 0.2917735
0000f0 14 4d 23 bd 60 98 9a 3b b5 28 4b 3e d6 35 4f 3e
       -0.03986843 0.0047178715 0.19839747 0.2023538
000100 ec c2 87 3d 4b 94 17 3e 16 ea 2c 3e 67 62 4c be
       0.06628975 0.14802663 0.16886172 -0.19959413
000110 ac c1 bc 3d 9c 33 f2 3d 80 09 39 3e e2 f9 08 be
       0.092166275 0.1182625 0.1807003 -0.13376573
000120 a8 08 d5 3d 8c 34 4f 3e b1 59 43 be 00 7a 4c be
       0.10402042 0.20234889 -0.19077183 -0.19968414
000130 e0 31 c3 bd b6 bc d3 bd 3e d8 aa bd 70 d6 87 3d
       -0.09530997 -0.10338728 -0.08342026 0.066326976
000140 f8 92 65 bd e4 41 b4 3d 43 48 33 be 98 a2 61 bd
       -0.056048363 0.0880163 -0.17508034 -0.055086702
000150 90 84 9e 3d 9c 0c 2d 3e a2 5b 9e bd 4c d4 3e 3e
       0.07740128 0.16899341 -0.07732321 0.18635672
000160 5c 2c fb bd ac 99 df 3d 38 b6 d8 3d 68 31 33 bd
       -0.1226432 0.109179825 0.105816305 -0.04374829
000170 f2 ef 4d 3e 82 9f 03 3e f0 ba 6a 3d 4a ff 05 3e
       0.20111063 0.12853816 0.057307184 0.13085666
000180 06 ea 09 be e8 04 3f bd b5 f0 0b be 44 3c 15 be
       -0.13468179 -0.04663554 -0.13666041 -0.14573771
000190 f0 df 11 3e 5c ba dd bd 2a 59 39 be cf 1c 25 bf
       0.14245582 -0.10826561 -0.1810042 -0.64497083
0001a0 ee 3b dd bd c1 fa cd bd 0b cd e0 be d4 bf 36 bf
       -0.10802446 -0.10057593 -0.43906435 -0.71386456
0001b0 30 d6 c9 3c 0e 2c 18 3e 05 f2 70 be 1e 70 00 be
       0.024638265 0.14860556 -0.23529823 -0.1254277
0001c0 fe 1c b2 3d 3d a4 82 be dc b1 b5 3d 80 ad 4b 3e
       0.08696936 -0.2551593 0.088718146 0.19890404
0001d0 40 3e 91 3c 66 c4 0f 3e ff de de bd 0a 81 34 3e
       0.017729878 0.14039764 -0.10882377 0.1762735
0001e0 0a ad 5a bd 10 ba c1 3d f4 d6 a5 3d 5b b7 0d be
       -0.05338768 0.09459317 0.0809764 -0.13839476
0001f0 56 9c ba bd 00 5b 7d 3d 15 eb 04 be c9 6e 99 bd
       -0.0911185 0.061854362 -0.12980302 -0.07491834
000200 4b 18 ec bd c4 3d e7 bd 54 ea 8b bc bf fd a0 be
       -0.11528071 -0.11291078 -0.01707951 -0.31443593
000210 00 d4 88 bc 88 a3 95 bd d3 9d eb 3c a8 e8 32 be
       -0.016702652 -0.07306582 0.02876178 -0.17471564
000220 ab 9f 43 3e 3d 3d 1b 3b 86 e6 25 3e 00 0d ea 3d
       0.19103877 0.0023687624 0.16201219 0.11428261
000230 9c 13 09 3e d0 c3 0f bc 70 6f 16 3e 5a ff 87 bd
       0.13386387 -0.008774713 0.14690948 -0.06640501
000240 cb e0 8b 3e a0 c6 bd 3b 9e 84 30 3e f2 05 32 be
       0.2731994 0.0057915 0.1723809 -0.1738508
000250 c2 cd b5 bd 25 44 e2 bd 90 22 e3 bd 65 0d 49 3e
       -0.08877136 -0.11048154 -0.11090577 0.19634016
000260 e0 a4 8f bd f7 25 c1 bd 9d 10 4c 3e 05 03 06 3e
       -0.07013869 -0.09431069 0.19928212 0.1308709
000270 3c bb 61 bd 58 34 b7 3d 68 88 a9 3c 4c 20 28 bd
       -0.0551102 0.08945531 0.020694926 -0.041046426
000280 b8 b6 84 bc a9 53 6a 3e 46 4b 1a be 9d 36 2c be
       -0.016200408 0.22883476 -0.15067777 -0.16817708
000290 26 12 19 be b0 34 f3 bd a0 87 72 bd 70 d4 4f bc
       -0.1494833 -0.11875284 -0.059211373 -0.012684926
0002a0 4e 06 33 be 0f 83 47 be 90 a9 8b bc e8 d9 2d 3e
       -0.17482874 -0.19483589 -0.017048627 0.16977656
0002b0 ad 85 09 be 02 e6 36 3e 22 f7 0f be 4e dc 40 3e
       -0.134299 0.17861179 -0.14059117 0.1883404
0002c0 54 d4 04 3e 47 aa 49 be 3f ba 21 be 50 96 9b bd
       0.12971622 -0.19693862 -0.15793703 -0.07597029
0002d0 50 a2 38 3e 39 c8 06 be 34 21 45 3e c0 f8 e4 bc
       0.18030667 -0.13162316 0.19250947 -0.027950644
0002e0 87 1c 42 be c8 e1 b2 3d 2c 7b 75 bd de 88 36 be
       -0.18956195 0.087344706 -0.05993192 -0.17825648
0002f0 e4 69 2e 3e 04 05 90 bd 08 76 7c 3d 60 07 b2 bc
       0.17032582 -0.07032207 0.061636 -0.021732032
000300 ce de 33 bd 98 de 82 bc e0 f4 ce bb f0 4e b2 3d
       -0.043913655 -0.015975282 -0.0063158125 0.087064624
000310 f9 89 1e be 87 c2 0f bc d6 d2 07 3e 10 dc ea bc
       -0.1548232 -0.008774406 0.13264021 -0.028669387
000320 fb 99 d9 bd fc 67 3c 3e 32 9a 96 3e 42 a6 c2 bc
       -0.106250726 0.18399042 0.29414517 -0.023760919
000330 e8 4b c5 bd 60 7b 93 3b 5f f2 82 bb 0d 88 ed bd
       -0.096336186 0.0045007914 -0.003996178 -0.11598215
000340 a7 ea 10 be 9f 4c b1 bd 30 33 4c 3e 80 b7 df 3a
       -0.14152013 -0.086571924 0.19941401 0.0017068237
000350 c8 b9 c2 3c 7a d3 2d 3e b8 9a 18 3e 08 81 56 3d
       0.023770228 0.16975203 0.1490277 0.052369148
000360 ca a1 68 3d e8 35 97 bc b0 34 13 3e ea 6d 19 3e
       0.05679492 -0.018458322 0.14375567 0.14983335
000370 b7 51 8c bd 26 c5 80 3e b4 f1 36 3d 3c 65 26 3e
       -0.06851523 0.25150412 0.0446641 0.16249555
000380 7c 2d 0e be c8 ce f5 bc b5 bb 0a 3e 91 78 36 3d
       -0.13884538 -0.030005828 0.13548167 0.044548575
000390 fc 5c 2e be b8 2d a8 3c 2a 50 85 3d 18 99 38 bd
       -0.17027658 0.020529613 0.06509431 -0.045067877
0003a0 de 0d d9 3d 3a 0d 31 3e 76 dd 1d 3e 70 e7 2b 3c
       0.10598348 0.17290202 0.15416512 0.010492191
0003b0 48 12 57 3d 72 b8 0b 3e 24 e3 0a be 48 9a 69 bd
       0.05250767 0.13644579 -0.1356321 -0.0570319
0003c0 4e 8e 02 3e 0a c9 29 3e 74 08 25 3e 80 4d a9 ba
       0.12749597 0.16580597 0.16116506 -0.0012916774
0003d0 bd cd 4b be f8 18 3e 3e d2 ce 8b bd 53 9a 40 be
       -0.19902702 0.18564212 -0.06826557 -0.1880887
0003e0 44 67 4c be 6e f7 41 3e c4 91 51 bd 30 e0 a3 3d
       -0.19961268 0.18942043 -0.051164404 0.08001745
0003f0 28 b4 56 bd 4c 4c c9 3d c4 e4 39 bd 5c 61 16 3d
       -0.052417904 0.098290056 -0.045384184 0.036713943

critic.mlp.0.bias f4 [40]
000000 ce 44 e9 3d c8 c2 23 3d 0e f3 92 3e 42 ac 88 bd
       0.113900766 0.03998068 0.2870106 -0.066734806
000010 46 11 d4 bd c7 0c 6e be f8 5c be 3d ac 7b 15 3e
       -0.10354857 -0.23247062 0.09295076 0.14597958
000020 34 ef 51 3e 1e a2 96 bd c9 be eb bd f0 76 41 3d
       0.20501405 -0.0735514 -0.11510999 0.04723257
000030 dd c0 da 3c 03 2e 6a 3e a1 3e 26 be e6 46 95 3d
       0.026703293 0.22869115 -0.16234829 0.072889134
000040 0e 82 2d be 93 25 e3 3d 18 90 7a bd 70 ec 71 be
       -0.16944143 0.11091151 -0.061172575 -0.2362535
000050 58 d2 dc bd 27 e6 f6 bd 54 3c 09 3d 18 03 e0 bc
       -0.107823074 -0.12055617 0.0335048 -0.027345225
000060 de 87 00 3e 61 c3 e1 3d 76 ec d8 bc 10 3a f0 bd
       0.12551829 0.11023594 -0.02647994 -0.117298245
000070 56 79 54 bd 07 a8 55 3e a3 9e 46 be ad 16 cf 3a
       -0.051873527 0.20864879 -0.19396453 0.0015799605
000080 ab c9 e8 3c c6 39 27 bd 87 bf 16 be af 65 6e 3e
       0.028416475 -0.04082658 -0.147215 0.23280977
000090 22 c7 7c 3c 89 69 7d 3c ea 0a 48 3e a3 dc b3 3c
       0.015428336 0.015467056 0.19535413 0.021955794

critic.mlp.2.weight f4 [1, 40]
000000 33 79 9b be 21 4d 43 3e 68 1d 71 3e 21 49 00 be
       -0.30365905 0.19072391 0.23546374 -0.12527896
000010 27 d5 c9 3e b8 f6 a6 3d b0 e6 5e 3e 19 ee 08 3e
       0.39420435 0.081525266 0.21767688 0.13372077
000020 45 2d c0 be 40 29 b2 3d ca 34 eb 3d e4 04 68 3d
       -0.37534538 0.08699274 0.11484678 0.05664529
000030 1e f3 2b 3e f7 02 d6 3e 7d 4a 10 be 58 1d 46 be
       0.1679196 0.41799137 -0.14090915 -0.19347131
000040 00 2b 29 bc 40 2e e9 3d 81 dd 0b 3e 51 13 58 3d
       -0.010325193 0.113857746 0.13658716 0.052752797
000050 a5 b9 be 3d 40 54 1b bd 4d 75 52 be 58 b6 89 3d
       0.09312753 -0.037922144 -0.20552559 0.067242324
000060 13 11 6c be e2 fd 32 be ac 29 30 be 4b 1d 5d bd
       -0.23053388 -0.17479661 -0.17203397 -0.053983014
000070 f1 ff 82 be 57 55 f4 3d 2b ec ea be e3 ed 80 be
       -0.25585893 0.1193034 -0.45883307 -0.25181493
000080 54 ee 69 3e cc 68 c7 3c de a1 2d bd 36 76 a2 be
       0.22844821 0.024341963 -0.042390697 -0.31730813
000090 fb 1d 6f be b2 b0 a9 bd 20 8f c5 3c 66 ce f2 3d
       -0.2335128 -0.08285655 0.024116099 0.11855774
