src/environments/procgen/nsfr_bigfish_model/PPO_bigfishm_28994_173.pth (torch, 2971 bytes, 4 tensors)

actor.im.W f4 [6, 6]
0	0x3f7c9cfb	0.98677033
1	0x3eee3cc3	0.46530733
2	0xbf66b1e7	-0.9011521
3	0x3f556787	0.83361095
4	0xbe7dae82	-0.247736
5	0x3e8a0d11	0.26963094
6	0xbeddc80c	-0.43316686
7	0xbf8e3e6e	-1.1112802
8	0xbf7c907b	-0.9865796
9	0xbf7a71fc	-0.97830176
10	0xbf16d43d	-0.589176
11	0xbf951d7e	-1.1649625
12	0x3fe022c2	1.7510607
13	0xbe990d2b	-0.2989286
14	0xbe517748	-0.20455658
15	0xbe53c776	-0.20681557
16	0x3e587abb	0.21140568
17	0xc007173e	-2.1107936
18	0xbe163f72	-0.1467264
19	0xbfb329dc	-1.399715
20	0x4028f2ee	2.6398273
21	0x3f5719bb	0.84023637
22	0xbe731915	-0.23740037
23	0xbf69dbfc	-0.91351295
24	0x3f309eb9	0.6899219
25	0x3ebca706	0.3684618
26	0xbf5a751d	-0.8533495
27	0xbfac8370	-1.3477612
28	0xbf06b425	-0.5261863
29	0xbf5fe916	-0.87465036
30	0x3f51b26c	0.81912875
31	0xbec75c83	-0.38937768
32	0x3e697d5e	0.2280173
33	0x3fc5d3cf	1.5455264
34	0x40171235	2.3604863
35	0x3f9682af	1.1758631

critic.mlp.0.weight f4 [10, 9]
0	0x3e0ffaee	0.14060566
1	0x3d184751	0.037177388
2	0x3e9b3983	0.30317315
3	0xbe575f66	-0.21032485
4	0x3d6531dc	0.055955753
5	0xbe320430	-0.1738441
6	0xbe7a3ae4	-0.24436527
7	0xbd90f9a2	-0.07078864
8	0xbd45474b	-0.048163693
9	0xbdd93840	-0.10606432
10	0xbe8ee7b7	-0.2791116
11	0xbe581e30	-0.21105266
12	0x3ea0ba31	0.31392053
13	0xbea97f0e	-0.33104748
14	0xbe0829ee	-0.13297245
15	0xbcbe5010	-0.023231536
16	0xbe5de166	-0.21668014
17	0xbe4abc13	-0.19798307
18	0xbdc77e4b	-0.09740885
19	0x3e4d52ad	0.2005107
20	0x3e7b7979	0.24558057
21	0x3d1e7a61	0.03869093
22	0x3e8694d0	0.2628541
23	0xbe9d884a	-0.30768043
24	0x3e446629	0.19179596
25	0xbc64976d	-0.013952118
26	0xbe152d40	-0.14568043
27	0xbd98fcd7	-0.074701004
28	0x3d81624d	0.063175775
29	0xbca5b084	-0.02022577
30	0x3e916b02	0.28401953
31	0x3b9c7ce9	0.0047756326
32	0xbe49c83a	-0.19705287
33	0xbbc9c8f7	-0.00615799
34	0x3e302da4	0.1720491
35	0xbe66181b	-0.22470133
36	0x3e9372d6	0.2879855
37	0x3e018c1b	0.12651102
38	0xbe63837c	-0.22218126
39	0x3e535465	0.20637663
40	0x3e6962c2	0.2279158
41	0xbe863979	-0.26215723
42	0x3d736e0d	0.059431124
43	0x3e831427	0.25601313
44	0x3ea65c5b	0.32492337
45	0xbe3af419	-0.18257178
46	0xbe5d3d3a	-0.21605387
47	0x3e63ff19	0.22265281
48	0x3e966638	0.29374862
49	0x3d48beff	0.049010273
50	0x3e0ef3b8	0.13960159
51	0xbe45f690	-0.19332337
52	0xbd83ac93	-0.064294
53	0xbe3b82dc	-0.18311638
54	0x3e8243d8	0.25442386
55	0xbe45fa98	-0.19333875
56	0x3e130c5f	0.14360188
57	0xbc214d52	-0.009845095
58	0x3e8ff341	0.28115276
59	0xbe414fe8	-0.18878138
60	0x3e99a8b2	0.30011517
61	0x3dd55df8	0.10418314
62	0xbe548fb8	-0.2075795
63	0xbdad966b	-0.084759556
64	0xbe4ceee4	-0.20013005
65	0xbda9610f	-0.082704656
66	0x3e5b5c67	0.21421967
67	0x3e2afaa9	0.16697182
68	0xbc93dd06	-0.018049728
69	0x3d5b9fbd	0.053619135
70	0xbc5a27dd	-0.013315168
71	0xbda1b61b	-0.07896062
72	0xbc88e3f9	-0.016710268
73	0xbc4eaa0d	-0.012613785
74	0xbd58a728	-0.052893788
75	0x3e66328a	0.22480217
76	0x3e9a340d	0.30117837
77	0xbe9cffbe	-0.30663866
78	0x3df99a97	0.12187689
79	0xbd95e237	-0.07318538
80	0xbe5f5208	-0.21808636
81	0xbe8b5da6	-0.27219886
82	0xbe225746	-0.15853605
83	0xbd9c8115	-0.07641808
84	0x3d5888c7	0.052864816
85	0x3c658fa7	0.0140113
86	0xbea8f8a9	-0.33002213
87	0x3e82396f	0.25434443
88	0x3e42e274	0.19031698
89	0x3b91cbe2	0.0044493536

critic.mlp.0.bias f4 [10]
0	0xbda73007	-0.08163457
1	0xbe93f36f	-0.28896663
2	0xbe12c8ea	-0.14334455
3	0xbe9eec42	-0.31039625
4	0x3e0e4034	0.13891679
5	0xbdcef328	-0.10104972
6	0x3e8c72d3	0.27431354
7	0x3e31b3c2	0.17353728
8	0x3e951b45	0.29122368
9	0x3e0c68bc	0.13711828

critic.mlp.2.weight f4 [1, 10]
0	0x3ddc1069	0.107453175
1	0x3e407312	0.18793896
2	0xbe7fbbee	-0.24974033
3	0xbd78974a	-0.060691155
4	0x3dce5d57	0.10076397
5	0xbdd5ae04	-0.104335815
6	0x3e283931	0.16428067
7	0xbe6f496f	-0.23367856
8	0x3ddbef4b	0.10739001
9	0x3dcfaa3a	0.1013989
