src/environments/procgen/nsfr_bigfish_model/PPO_bigfishm_107603_166.pth (torch, 2971 bytes, 4 tensors)

actor.im.W f4 [6, 8]
1.9973294 0.110148415 -1.2573901 1.2442127 0.7616735 0.68564343 -1.5529612 -1.2546155
-0.5051926 -1.4658117 0.7032523 0.957395 0.53862494 0.80597734 0.41536134 -0.70723385
-1.6381508 0.124672025 -0.22572358 -0.5258111 -0.29298347 -0.2989638 1.5573349 -0.23842776
0.59120286 0.612406 0.10476429 -0.38450348 0.6528125 -0.56046563 -0.45713812 -0.41011396
1.5194517 -0.0033541908 1.3315821 -0.90698165 -0.8346488 1.9673282 -0.22119816 -0.19490045
1.0990962 -1.019958 -0.5802605 1.0424509 0.6267567 0.79123414 0.33162707 0.9267059
00000000: 7da8 ff3f 7e95 e13d 29f2 a0bf 5d42 9f3f
00000010: 09fd 423f 5486 2f3f 6fc7 c6bf 3e97 a0bf
00000020: 4d54 01bf b89f bbbf 5808 343f d717 753f
00000030: 53e3 093f 8854 4e3f 3eaa d43e 470d 35bf
00000040: edae d1bf 0c54 ff3d 1524 67be 8e9b 06bf
00000050: ee01 96be c811 99be c056 c73f 6826 74be
00000060: 1259 173f a4c6 1c3f a98e d63d a4dd c4be
00000070: b81e 273f ad7a 0fbf 020e eabe 75fa d1be
00000080: 657d c23f fcd1 5bbb 4871 aa3f f32f 68bf
00000090: 8bab 55bf 69d1 fb3f c581 62be fc93 47be
000000a0: 2faf 8c3f fc8d 82bf f48b 14bf 086f 853f
000000b0: 2173 203f 528e 4a3f 06cb a93e 993c 6d3f

critic.mlp.0.weight f4 [10, 9]
0.19758402 -0.19931984 0.0924294 -0.034976784 -0.21606208 0.30411556 -0.12468928 -0.08341251
-0.04659275 0.17387956 0.0803953 0.32330906 0.18955068 -0.26756695 -0.12084745 -0.2194586
-0.28492182 0.26415056 0.29990825 0.2031614 -0.06258936 -0.21143204 -0.18682174 -0.03665422
0.17301343 -0.29279065 0.36289883 0.14059938 -0.1697112 0.27669185 0.036426906 -0.09439722
0.1777543 -0.031778876 0.12040132 -0.091747575 -0.0076819896 -0.12028948 0.24373662 0.17957108
-0.03266892 0.24319763 0.15068938 -0.34828943 0.018847093 0.30987406 0.20004027 0.2645319
0.28535974 0.087504864 0.35601425 0.30510366 -0.0115914885 0.29274705 0.20198521 0.27261955
-0.2672152 0.22269821 0.146902 -0.096417055 0.204395 0.054299954 0.052682575 0.24411614
-0.25189424 -0.008751015 0.073124774 0.2260776 -0.023008388 -0.038564105 0.056132756 0.17382972
0.2571288 0.28285262 0.017286396 -0.32059467 0.06936166 0.18641368 -0.07631208 -0.14577295
-0.09794935 -0.019822778 0.24793242 0.19160026 0.08888767 0.051680848 -0.1600873 -0.16899881
0.23777261 -0.08442192
00000000: 7753 4a3e 801a 4cbe a04b bd3d d143 0fbd
00000010: 613f 5dbe 09b5 9b3e 185d ffbd 2ed4 aabd
00000020: 0ad8 3ebd 7c0d 323e 4ba6 a43d c488 a53e
00000030: 9319 423e 89fe 88be de7e f7bd c1b9 60be
00000040: 46e1 91be be3e 873e 938d 993e 8b09 503e
00000050: da2e 80bd a481 58be 334e 3fbe bc22 16bd
00000060: 6f2a 313e a8e8 95be e0cd b93e 49f9 0f3e
00000070: c6c8 2dbe 8eaa 8d3e 6134 153d 5453 c1bd
00000080: 3905 363e 912a 02bd f894 f63d 27e6 bbbd
00000090: 33b9 fbbb 555a f6bd 1896 793e 7be1 373e
000000a0: d8cf 05bd cd08 793e 514e 1a3e fe52 b2be
000000b0: 3865 9a3c d0a7 9e3e 5bd7 4c3e ba70 873e
000000c0: ac1a 923e c035 b33d 8047 b63e 8c36 9c3e
000000d0: 3aea 3dbc f1e2 953e 36d5 4e3e ca94 8b3e
000000e0: 6ed0 88be 000b 643e 7a6d 163e 4e76 c5bd
000000f0: ec4c 513e a169 5e3d afc9 573d 95f9 793e
00000100: 48f8 80be 6b60 0fbc 71c2 953d e380 673e
00000110: 167c bcbc 65f5 1dbd 76eb 653d 6b00 323e
00000120: 63a6 833e 0fd2 903e 339c 8d3c fc24 a4be
00000130: 7c0d 8e3d 3ae3 3e3e 8249 9cbd 8145 15be
00000140: ab99 c8bd 6163 a2bc ffe1 7d3e dc32 443e
00000150: bd0a b63d 4caf 533d eded 23be 060e 2dbe
00000160: aa7a 733e 66e5 acbd

critic.mlp.0.bias f4 [10]
-0.27085057 -0.2068175 -0.27985865 0.2339719 0.117098086 -0.15110086 0.18002301 -0.2062714
0.1474367 0.19263811
00000000: edac 8abe f7c7 53be a249 8fbe 5496 6f3e
00000010: 1fd1 ef3d 2fba 1abe f457 383e cf38 53be
00000020: a5f9 163e ed42 453e

critic.mlp.2.weight f4 [1, 10]
0.281474 -0.013336137 -0.17923018 -0.22545469 0.25264558 -0.045268606 0.19314054 -0.17948018
0.06681863 0.19630936
00000000: 5c1d 903e d07f 5abc 1e88 37be 98dd 66be
00000010: c35a 813e 936b 39bd a2c6 453e a7c9 37be
00000020: 35d8 883d 5205 493e
