src/models/bigfish/logic/PPO_bigfishm_11a_2_3285.pth (torch, 3099 bytes, 4 tensors)

actor.im.W f4 [6, 11]
0.90900487 -0.94234174 -1.8693644 0.15158543 0.61862004 0.87166464 -0.70333135 0.24984883
-0.4675912 -0.14146183 1.4229444 -0.7198081 -1.6706939 -0.5547253 -3.9511557 -0.41078934
-0.5246792 -1.8660312 -0.66983175 0.6106729 1.2493918 -0.041959547 0.5245413 1.1883454
-0.27150717 -1.1376215 1.3690584 0.68464446 -0.74915963 -0.098140895 -0.4798864 -0.11804124
0.38735443 -1.5808945 -1.856135 -1.4200258 -1.5074675 -0.9714705 2.9655414 -2.1771219
-1.6554329 -0.4084556 -3.5861757 -0.26202756 1.0821525 -0.45299962 -0.94404644 1.4762851
0.035803128 0.6922249 -1.0188577 -1.4786514 -2.5439134 -0.39123672 -0.24451984 -2.6921346
-1.4724405 0.67193437 0.60268396 3.6459954 -2.2895498 -0.91628265 -0.07781138 -2.2975698
-0.55564004 -2.8803973
00000000: 8bb4 683f 4f3d 71bf 5547 efbf 3639 1b3e
00000010: e25d 1e3f 6a25 5f3f 860d 34bf 5fd8 7f3e
00000020: 1d68 efbe 5fdb 10be 0b23 b63f 5845 38bf
00000030: 4cd9 d5bf 7a02 0ebf bcdf 7cc0 fb52 d2be
00000040: 6051 06bf 1cda eebf 187a 2bbf 0f55 1c3f
00000050: 12ec 9f3f c6dd 2bbd 5748 063f b41b 983f
00000060: fd02 8bbe 959d 91bf 4e3d af3f dc44 2f3f
00000070: edc8 3fbf 18fe c8bd acb3 f5be 9bbf f1bd
00000080: 5253 c63e c05a cabf d595 edbf 68c3 b5bf
00000090: b2f4 c0bf 4ab2 78bf 6ecb 3d40 f755 0bc0
000000a0: 3ae5 d3bf 1821 d1be e783 65c0 7a28 86be
000000b0: f983 8a3f 91ef e7be 07ad 71bf e9f6 bc3f
000000c0: 4da6 123d a735 313f ee69 82bf 7344 bdbf
000000d0: 7acf 22c0 2e50 c8be 6963 7abe ef4b 2cc0
000000e0: ee78 bcbf e403 2c3f 7f49 1a3f fd57 6940
000000f0: fc87 12c0 8091 6abf 935b 9fbd 620b 13c0
00000100: 6d3e 0ebf 6e58 38c0

critic.mlp.0.weight f4 [10, 9]
0.13314565 0.15288691 0.22524132 0.03459813 0.044433698 -0.14954461 -0.09322829 -0.07552363
0.18957722 0.2125164 -0.3702507 -0.3498646 0.060850665 -0.04144801 -0.046107173 0.05184804
0.20826198 -0.022513637 -0.17279004 0.26366422 0.33492485 0.13202795 0.1495866 -0.11296736
0.31592363 -0.15163873 0.25019827 0.20850818 -0.34415308 -0.32153216 -0.20198782 -0.3060368
0.26173532 0.05755067 0.21772188 -0.030030478 0.11932083 0.2445574 0.15868886 0.15368344
0.10896716 0.0652358 -0.18094392 -0.20110929 -0.043318853 0.105693094 -0.16524097 0.45449382
0.039761554 0.016231626 -0.1454191 0.20029871 0.18250716 -0.5816264 0.22724038 -0.23391089
0.0800087 0.29976213 -0.07053485 -0.17504014 0.26047018 0.3458951 0.03310099 -0.2834611
-0.049137384 0.1338589 0.108263806 0.25700802 -0.10078044 -0.029622952 -0.0022378494 0.3509721
-0.085507035 0.09380742 0.26728168 -0.36040324 -0.11985387 0.033334903 0.05909133 0.04259164
-0.12794735 0.32726955 -0.06522425 -0.37420022 0.22098711 0.0050590117 -0.04588995 -0.15083149
0.07010676 0.4165204
00000000: 5557 083e 638e 1c3e a9a5 663e c5b6 0d3d
00000010: 1c00 363d 3922 19be 79ee bebd 22ac 9abd
00000020: 8820 423e e69d 593e 8091 bdbe 7421 b3be
00000030: 8c3e 793d 63c5 29bd e0da 3cbd 9c5e 543d
00000040: a142 553e 856e b8bc dfef 30be fffe 863e
00000050: 457b ab3e 5632 073e 3b2d 193e 6e5b e7bd
00000060: bec0 a13e 2f47 1bbe fd19 803e 2b83 553e
00000070: d534 b0be dd9f a4be e5d5 4ebe dbb0 9cbe
00000080: 2c02 863e 40ba 6b3d 7cf2 5e3e 7a02 f6bc
00000090: 7b5e f43d 416d 7a3e 557f 223e 315f 1d3e
000000a0: 2d2a df3d 599a 853d 5d49 39be 98ef 4dbe
000000b0: 1c6f 31bd 9f75 d83d ee34 29be 6ab3 e83e
000000c0: 03dd 223d 30f8 843c bfe8 14be 1b1b 4d3e
000000d0: 28e3 3a3e 78e5 14bf b4b1 683e 5686 6fbe
000000e0: 9adb a33d 6c7a 993e 9374 90bd b93d 33be
000000f0: 595c 853e 2a19 b13e e794 073d d021 91be
00000100: 4844 49bd 4f12 093e 6ab9 dd3d 8e96 833e
00000110: fa65 cebd d5ab f2bc e2a8 12bb 9db2 b33e
00000120: 501e afbd 1b1e c03d 25d9 883e c686 b8be
00000130: f275 f5bd 2e8a 083d c009 723d 9274 2e3d
00000140: a104 03be e08f a73e 4b94 85bd 2c97 bfbe
00000150: 724a 623e 11c6 a53b 1af7 3bbd 9273 1abe
00000160: 2294 8f3d 2942 d53e

critic.mlp.0.bias f4 [10]
0.13954131 -0.041707285 -0.14575817 -0.006685478 -0.29213756 0.2111881 0.18611267 -0.23729216
-0.17787343 -0.044092305
00000000: ebe3 0e3e 42d5 2abd a141 15be db11 dbbb
00000010: 0e93 95be b141 583e 5294 3e3e b7fc 72be
00000020: 7424 36be 229a 34bd

critic.mlp.2.weight f4 [1, 10]
0.22961369 -0.15406379 -0.2952632 0.021334527 0.1860362 0.27118737 -0.13987571 0.07268214
0.13206685 0.4921515
00000000: da1f 6b3e e6c2 1dbe bd2c 97be bfc5 ae3c
00000010: 4680 3e3e 12d9 8a3e 943b 0fbe 60da 943d
00000020: 883c 073e 48fb fb3e
