src/nsfr_coinjump_model/PPO_CoinJumpEnv-v2_54030.pth (torch, 197711 bytes, 6 tensors)

W f4 [6, 6]
-0.65676147 -1.4055474 -2.6228569 -2.2368402 2.428305 -1.6661569 1.79706 0.71188486
0.90260094 -0.32826626 1.2698224 -0.655831 3.3541253 -3.3232245 -3.655023 -2.213497
-3.038086 -2.0745912 -0.5778028 -1.9608849 -1.5328648 1.73834 -2.3380742 -1.7030123
-0.6273033 1.6409177 -2.7646403 -2.0899615 -1.4216877 -2.4140284 -2.8471189 -0.6607992
2.5923738 -1.6123602 0.14868858 -3.036046
00000000: 8521 28bf fae8 b3bf e3dc 27c0 6428 0fc0
00000010: 5969 1b40 a144 d5bf 1006 e63f 163e 363f
00000020: db10 673f 8412 a8be 8a89 a23f 8ae4 27bf
00000030: fda9 5640 b6af 54c0 e6eb 69c0 efa9 0dc0
00000040: 0070 42c0 1ac6 04c0 e2ea 13bf 47fe fabf
00000050: ea34 c4bf ed81 de3f 02a3 15c0 4ffc d9bf
00000060: f396 20bf 9709 d23f deef 30c0 eec1 05c0
00000070: ddf9 b5bf 717f 1ac0 3237 36c0 232a 29bf
00000080: 74e9 2540 d261 cebf d241 183e 944e 42c0

weight f4 [40, 24]
-0.05026214 0.12973866 -0.0082604885 0.17150834 0.15489833 0.07006802 0.078608066 0.040845245
-0.021258637 -0.0018929541 -0.23390414 0.27925816 0.021382526 -0.2016711 -0.21314272 -0.104871236
0.04315914 -0.13666409 -0.19811955 -0.07962895 -0.003621161 0.018968701 0.003690435 0.11283648
-0.17989787 -0.09396666 -0.15148112 -0.08083758 -0.22016059 0.13769418 -0.15280491 0.03147837
0.038844362 -0.10311202 0.15457398 0.15574548 -0.096101634 -0.08623431 -0.14850464 -0.16253696
-0.084522605 -0.020439887 -0.08576703 0.1892524 -0.02687481 -0.11414366 -0.15855823 -0.085806236
0.18448666 -0.064077005 0.07557094 0.14260328 -0.2510367 -0.10385341 0.12637454 0.04821918
-0.14129263 0.190382 0.016743502 -0.027460357 -0.03986843 0.0047178715 0.071213305 0.2023538
0.02521223 0.020843042 0.16886172 -0.19959413 0.092166275 0.12025619 0.2018714 -0.13177216
0.1667712 0.20234889 -0.19077183 -0.19968414 -0.20521553 -0.0016685033 -0.08342026 -0.250594
-0.056048363 0.0880163 -0.49208364 -0.37207663 0.07740128 0.16899341 -0.014572764 0.18635672
0.033977583 0.17193128 0.105816305 -0.04374829 0.20111063 0.1912891 0.06772002 0.19360828
-0.018144246 -0.04663554 -0.13666041 -0.14573771 0.038258024 -0.023505498 -0.1810042 -0.3114452
-0.10802446 -0.10057593 -0.4269066 -0.38033757 0.024638265 0.14860556 -0.1187608 -0.1254277
0.13280141 -0.13862146 0.088718146 0.19890404 0.017729878 0.09903178 -0.028743582 0.13490751
0.045423813 0.09459317 0.0809764 -0.13839476 0.0047600064 0.10008718 -0.12980302 0.010548777
-0.11528071 -0.11291078 -0.050985917 -0.22896886 -0.016702652 -0.07306582 0.12757345 -0.17471564
0.18211325 0.1011805 0.16201219 0.11428261 0.13386387 0.025120454 0.12181403 -0.032509793
0.1783556 0.0057915 0.1723809 -0.1738508 -0.0477457 -0.24419571 -0.11090577 -0.07864979
-0.07013869 -0.09431069 0.14635874 -0.14411932 -0.0551102 0.08945531 -0.074148186 -0.041046426
0.011509202 0.13399164 -0.15067777 -0.16817708 -0.1494833 -0.12062954 -0.10748735 -0.0145614715
-0.1351069 -0.19483589 -0.017048627 0.16977656 -0.15457283 0.19899707 -0.14059117 0.25514755
0.12971622 -0.19693862 -0.10767252 -0.009162948 0.18030667 -0.13162316 0.2322313 -0.027950644
-0.15646282 0.12706597 -0.05993192 -0.17825648 0.17032582 -0.03060063 0.09454095 0.017989472
-0.18304563 -0.015975282 -0.0063158125 0.087064624 -0.09741677 -0.07067721 0.13264021 -0.18416987
-0.106250726 0.18399042 0.22996941 -0.17926168 -0.096336186 0.0045007914 -0.14312774 -0.11598215
-0.12240411 -0.22570392 0.19941401 0.0017068237 0.023770228 0.099983424 0.13148078 -0.017399166
-0.029992554 -0.018458322 0.14375567 0.14983335 -0.1463838 0.12729812 0.0446641 0.19195218
-0.13884538 -0.030005828 0.1443407 0.07400486 -0.17027658 0.020529613 -0.021692954 -0.045067877
0.06456163 0.08611446 0.15416512 0.010492191 0.05250767 0.114018165 -0.13533798 -0.079459526
0.11886118 0.16580597 0.16116506 -0.0012916774 -0.20772834 0.17693095 -0.06826557 -0.1880887
-0.19961268 0.18942043 -0.051164404 0.08001745 -0.052417904 0.098290056 -0.054019026 0.036713943
00000000: acdf 4dbd 36da 043e 0057 07bc e29f 2f3e
00000010: ab9d 1e3e d27f 8f3d 44fd a03d 584d 273d
00000020: 9826 aebc 001d f8ba 9184 6fbe edfa 8e3e
00000030: 682a af3c de82 4ebe 1642 5abe bbc6 d6bd
00000040: a3c7 303d acf1 0bbe dadf 4abe 8114 a3bd
00000050: 0051 6dbb 4064 9b3c 3adb 713b d016 e73d
00000060: 2637 38be 9871 c0bd de1d 1bbe 2c8e a5bd
00000070: c771 61be b4ff 0c3e e478 1cbe 77ef 003d
00000080: 441b 1f3d 652c d3bd a448 1e3e be7b 1f3e
00000090: efd0 c4bd 9d9b b0bd 9a11 18be 1770 26be
000000a0: 301a adbd 8d71 a7bc a0a6 afbd 62cb 413e
000000b0: 9028 dcbc 27c4 e9bd 175d 22be 2ebb afbd
000000c0: 12ea 3c3e ce3a 83bd f0c4 9a3d 9806 123e
000000d0: e287 80be 19b1 d4bd 5468 013e 7a81 453d
000000e0: 04af 10be 80f3 423e ab29 893c 8bf4 e0bc
000000f0: 144d 23bd 6098 9a3b 48d8 913d d635 4f3e
00000100: e189 ce3c 07bf aa3c 16ea 2c3e 6762 4cbe
00000110: acc1 bc3d e148 f63d 60b7 4e3e 48ef 06be
00000120: 12c6 2a3e 8c34 4f3e b159 43be 007a 4cbe
00000130: 0524 52be aeb1 daba 3ed8 aabd db4d 80be
00000140: f892 65bd e441 b43d 63f2 fbbe d480 bebe
00000150: 9084 9e3d 9c0c 2d3e 9ac2 6ebc 4cd4 3e3e
00000160: 142c 0b3d c10e 303e 38b6 d83d 6831 33bd
00000170: f2ef 4d3e 4ae1 433e cbb0 8a3d 4041 463e
00000180: 3ea3 94bc e804 3fbd b5f0 0bbe 443c 15be
00000190: 72b4 1c3d 9a8e c0bc 2a59 39be bf75 9fbe
000001a0: ee3b ddbd c1fa cdbd 8093 dabe 9bbb c2be
000001b0: 30d6 c93c 0e2c 183e dd38 f3bd 1e70 00be
000001c0: 18fd 073e c9f2 0dbe dcb1 b53d 80ad 4b3e
000001d0: 403e 913c 2dd1 ca3d a977 ebbc 3225 0a3e
000001e0: 520e 3a3d 10ba c13d f4d6 a53d 5bb7 0dbe
000001f0: d4f9 9b3b 82fa cc3d 15eb 04be c7d4 2c3c
00000200: 4b18 ecbd c43d e7bd 9cd6 50bd d076 6abe
00000210: 00d4 88bc 88a3 95bd 9da2 023e a8e8 32be
00000220: e57b 3a3e b937 cf3d 86e6 253e 000d ea3d
00000230: 9c13 093e 69c9 cd3c a279 f93d fd28 05bd
00000240: daa2 363e a0c6 bd3b 9e84 303e f205 32be
00000250: ff90 43bd 710e 7abe 9022 e3bd 2413 a1bd
00000260: e0a4 8fbd f725 c1bd 11df 153e 0494 13be
00000270: 3cbb 61bd 5834 b73d 01db 97bd 4c20 28bd
00000280: 1891 3c3c 1b35 093e 464b 1abe 9d36 2cbe
00000290: 2612 19be 9f0c f7bd 5422 dcbd 3d93 6ebc
000002a0: 7759 0abe 0f83 47be 90a9 8bbc e8d9 2d3e
000002b0: 5748 1ebe e3c5 4b3e 22f7 0fbe b3a2 823e
000002c0: 54d4 043e 47aa 49be 6983 dcbd 3020 16bc
000002d0: 50a2 383e 39c8 06be 0bce 6d3e c0f8 e4bc
000002e0: ca37 20be 951d 023e 2c7b 75bd de88 36be
000002f0: e469 2e3e 2cae fabc b09e c13d a85e 933c
00000300: 5070 3bbe 98de 82bc e0f4 cebb f04e b23d
00000310: 7282 c7bd 37bf 90bd d6d2 073e 0797 3cbe
00000320: fb99 d9bd fc67 3c3e 1a7d 6b3e 6090 37be
00000330: e84b c5bd 607b 933b 1490 12be 0d88 edbd
00000340: 02af fabd ee1e 67be 3033 4c3e 80b7 df3a
00000350: c8b9 c23c 1cc4 cc3d e6a2 063e b288 8ebc
00000360: f2b2 f5bc e835 97bc b034 133e ea6d 193e
00000370: a3e5 15be 705a 023e b4f1 363d 1d8f 443e
00000380: 7c2d 0ebe c8ce f5bc 0cce 133e dc8f 973d
00000390: fc5c 2ebe b82d a83c 6cb5 b1bc 1899 38bd
000003a0: e338 843d c75c b03d 76dd 1d3e 70e7 2b3c
000003b0: 4812 573d 5b82 e93d 0a96 0abe adbb a2bd
000003c0: 7e6d f33d 0ac9 293e 7408 253e 804d a9ba
000003d0: bdb6 54be 632d 353e d2ce 8bbd 539a 40be
000003e0: 4467 4cbe 6ef7 413e c491 51bd 30e0 a33d
000003f0: 28b4 56bd 4c4c c93d 0e43 5dbd 5c61 163d

bias f4 [40]
0.02249276 0.05514191 0.15982702 -0.003984136 0.012988994 -0.13365981 -0.0018922543 0.18570109
0.065882154 -0.16033871 -0.12374479 -0.06457285 -0.1307321 0.20710701 -0.19320066 0.007832695
-0.27351862 0.16609639 -0.023373073 -0.20656739 -0.05161483 -0.12832896 -0.04274246 -0.027345225
0.07272612 0.103047416 -0.017107204 -0.056909822 -0.09340843 0.20171428 -0.1685576 0.020330023
-0.13271591 0.0039105862 -0.147215 0.14353204 0.029074479 0.013041336 0.19535413 0.014599958
00000000: bd42 b83c 7cdc 613d b2a9 233e 5b8d 82bb
00000010: cacf 543c 1ede 08be 8505 f8ba 6d28 3e3e
00000020: 39ed 863d d52f 24be e96d fdbd c53e 84bd
00000030: a3de 05be dc13 543e 65d6 45be b454 003c
00000040: a20a 8cbe 2c15 2a3e e378 bfbc 6786 53be
00000050: 126a 53bd ab68 03be b812 2fbd 1803 e0bc
00000060: 6ff1 943d 860a d33d 6824 8cbc 461a 69bd
00000070: eb4c bfbd 308e 4e3e 5d9a 2cbe 268b a63c
00000080: aee6 07be 6024 803b 87bf 16be 10fa 123e
00000090: 9a2d ee3c 54ab 553c ea0a 483e aa34 6f3c

weight f4 [1, 40]
-0.17780936 0.13179891 0.20764416 -0.31379202 0.22687007 0.042714257 0.15289967 0.18528545
-0.13869677 0.07905172 0.106869966 0.043119542 0.27384025 0.08811086 -0.10706474 -0.1656695
-0.16067627 0.11546199 0.35919702 0.105833404 0.10221623 -0.02996377 -0.108786225 0.067242324
-0.07514216 -0.1402461 -0.17010053 -0.060770977 -0.1930998 0.08993125 -0.38614762 -0.13525535
0.09896716 0.024444543 -0.042390697 -0.15147084 -0.17076348 -0.10551269 0.024116099 0.09584478
00000000: a813 36be 4bf6 063e aca0 543e 59a9 a0be
00000010: a150 683e 25f5 2e3d bb91 1c3e 78bb 3d3e
00000020: 8706 0ebe dee5 a13d a4de da3d 1e9e 303d
00000030: ca34 8c3e 7773 b43d c244 dbbd 44a5 29be
00000040: 5288 24be 5677 ec3d ace8 b73e 2fbf d83d
00000050: be56 d13d 9576 f5bc 50cb debd 58b6 893d
00000060: 22e4 99bd ac9c 0fbe d52e 2ebe fdea 78bd
00000070: f4bb 45be e02d b83d 24b5 c5be 6180 0abe
00000080: 4baf ca3d ec3f c83c dea1 2dbd 2c1b 1bbe
00000090: 9fdc 2ebe 0a17 d8bd 208f c53c 454a c43d

probs f4 [6]
0.16666667 0.16666667 0.16666667 0.16666667 0.16666667 0.16666667
00000000: abaa 2a3e abaa 2a3e abaa 2a3e abaa 2a3e
00000010: abaa 2a3e abaa 2a3e

logits f4 [6]
-1.7917595 -1.7917595 -1.7917595 -1.7917595 -1.7917595 -1.7917595
00000000: 6058 e5bf 6058 e5bf 6058 e5bf 6058 e5bf
00000010: 6058 e5bf 6058 e5bf
