src/bigfish/ppo_bigfish_model/PPO_bigfishm_75705_4330.pth (torch, 28219 bytes, 13 tensors)

weight f4 [40, 9]
000000 85 5a 5f bd 38 19 09 be a1 df 9f 3e e0 1c c1 be
       -0.054529686 -0.13388526 0.31225303 -0.37717342
000010 7b 63 0f 3e ac 7a f5 bd 8a d6 98 3d 5c 67 b4 be
       0.14002793 -0.119862884 0.07462795 -0.35235107
000020 c0 ec 6c 3e 8b d7 5a 3e a8 53 b6 be 28 e2 16 be
       0.23137188 0.21371286 -0.356107 -0.1473471
000030 da e2 44 be 63 b0 c5 be e9 3d d4 3e 49 d6 77 bc
       -0.19227162 -0.38611135 0.41453484 -0.015126773
000040 cd 1f 6e 3b 21 67 93 3d dd d4 1f 3e 30 f3 b9 3d
       0.0036334873 0.07197405 0.15608545 0.090795875
000050 38 37 0d be 07 3c 64 be 2a f1 15 bf 49 6d 62 be
       -0.13790596 -0.22288524 -0.5857111 -0.22112001
000060 be 06 3d 3f 33 cb e9 3d 20 57 04 be 00 49 ac bd
       0.7383841 0.1141571 -0.1292386 -0.08412361
000070 8c 03 fe bd 12 1d 6e 3e ab 6b 6c be e8 7e 1b be
       -0.1240302 0.23253277 -0.23087947 -0.1518513
000080 eb 6e 86 3e eb b7 89 be b6 61 2d be 68 3d 79 be
       0.262565 -0.2689813 -0.16931805 -0.24339831
000090 c9 30 f9 3c 2c ee 53 be 86 16 44 3e df 3e 90 be
       0.03041877 -0.20696324 0.19149217 -0.28172967
0000a0 15 a5 6f be a6 60 42 be e4 70 80 3e c0 00 49 3f
       -0.23402818 -0.18982181 0.2508613 0.7851677
0000b0 03 13 d6 3d 74 22 10 bd cb 4a d8 3e 5b ce 5d be
       0.10452845 -0.035189107 0.42244563 -0.2166075
0000c0 df c1 c6 3d 15 6b 9c 3e 4a cd 04 be 8f 5d f2 be
       0.09704947 0.30550447 -0.12968937 -0.47337005
0000d0 fc d6 05 3d af d1 0f 3e 84 da ab be d3 8e 04 be
       0.03267573 0.14044832 -0.33565152 -0.12945108
0000e0 30 16 d8 bc 88 45 79 3e 6a 85 f9 bd bc 2d 10 be
       -0.026377767 0.2434293 -0.1218365 -0.14079946
0000f0 58 95 54 3e b3 5a c2 3d 5a 2f 97 be 88 a9 01 3d
       0.20760095 0.09489956 -0.29528314 0.03165582
000100 3e 57 2b be 06 56 27 be 20 14 1a 3c 48 3c 49 3d
       -0.16732499 -0.16341409 0.009404212 0.049129754
000110 3e fc 59 be 00 a2 31 3a c8 69 08 bd ac 61 dd bd
       -0.21287629 0.0006776154 -0.033304006 -0.10809645
000120 d6 36 52 3e 6c 03 4c be 7a 42 92 be 1b 70 32 bd
       0.20528731 -0.1992318 -0.28566343 -0.043563943
000130 7e b8 fb 3c d6 79 09 3d f0 3b d2 3e 81 60 2d 3f
       0.030727621 0.033563457 0.41061354 0.6772538
000140 23 be 6b 3e ab c2 31 be db 17 bd 3d de 2d 32 3e
       0.2302175 -0.17359416 0.09233066 0.1740031
000150 b5 5c 0a 3e fa da a6 bd e6 29 8b 3e c5 e9 79 bd
       0.13511927 -0.08147235 0.27180403 -0.061013956
000160 50 bb 2f bd 1e 36 95 3e af 58 33 3e 10 f5 b7 be
       -0.042903244 0.2914285 0.17514299 -0.35929155
000170 04 b4 a2 bd 5c a1 69 3e c6 16 aa be 3f 4a 8b 3e
       -0.079444915 0.2281546 -0.332205 0.27205083
000180 f9 ed 3e be 09 07 91 3e f1 c2 2a be a6 96 9c bc
       -0.18645467 0.2832568 -0.16675927 -0.019114804
000190 0a 7f bc be 00 ce 55 3b 24 44 bd bd 05 8c 8c be
       -0.36815673 0.0032624006 -0.092415124 -0.27450576
0001a0 04 aa 08 3d c2 60 87 3e 7a fd 6c 3f b5 cf ee 3b
       0.033365265 0.26441008 0.92574275 0.007287944
0001b0 86 ae 5d be 1c 9d a2 be 90 19 aa 3d ba b0 24 3e
       -0.21648607 -0.3176049 0.08305657 0.16083041
0001c0 34 ed f8 3d ad 88 87 3e 93 dd 8e 3e b0 81 32 be
       0.12154618 0.26471463 0.27903423 -0.17432284
0001d0 b2 a3 32 3e 31 f9 a3 3e 4d db b3 3e 39 91 83 3e
       0.17445257 0.32026055 0.3512825 0.25696734
0001e0 3c 3b d5 bd 43 22 a0 3d 96 d7 02 be bf bd 74 be
       -0.10411689 0.07819035 -0.12777552 -0.23900507
0001f0 5a 44 9a bf 14 a1 e0 3d ae f0 a3 3e 4c e6 d4 be
       -1.2052109 0.10968223 0.32019562 -0.41581953
000200 a8 b0 95 be 8b 18 37 be c8 62 bb bd 3e 5b 5a be
       -0.2923634 -0.17880456 -0.091497004 -0.21323869
000210 7b 2b 05 3f 47 30 34 3f 7c 85 eb 3d fc 83 5f 3e
       0.5201947 0.70386165 0.115000695 0.21827692
000220 a2 7e 2a be 8f 2e 92 3e 96 aa cb 3e 31 06 1b 3e
       -0.16649869 0.28551146 0.39778584 0.1513908
000230 69 d1 3e bd ef b6 24 3e fa 9e 73 3f 78 88 85 3e
       -0.046586428 0.16085409 0.95164454 0.2608068
000240 f5 88 c9 bd 1c 37 b4 3e a8 08 70 be 38 ff f7 bd
       -0.098405756 0.35198295 -0.23440802 -0.12109226
000250 33 de 05 bf 91 14 ab 3a 4d 9e db bd 8f 64 34 bd
       -0.52292174 0.0013052394 -0.10723553 -0.044041213
000260 01 db 3b be 6b de ef bd 03 06 b8 be 60 6e 3a bd
       -0.18345262 -0.11712345 -0.35942087 -0.045515418
000270 7d 1a 5a 3d 27 86 c8 be c7 e6 8d be fe 06 d6 3e
       0.053247917 -0.3916485 -0.27715132 0.4180221
000280 9d 52 34 3f 50 c8 6c 3e 84 43 b7 3d 71 68 84 3e
       0.7043856 0.23123288 0.089484245 0.25860932
000290 c8 2f 17 3e f3 b1 9e be 30 01 19 be da 23 50 3e
       0.14764321 -0.3099514 -0.14941859 0.20326176
0002a0 f4 37 8f 3d 80 a7 98 3d 24 39 82 bd 18 75 a6 be
       0.06993094 0.07453823 -0.06358555 -0.3251121
0002b0 ac 8c ac bd 33 b7 8d be ea f7 57 3e c0 22 23 3d
       -0.084252685 -0.27678832 0.21090665 0.039828062
0002c0 8b d9 9c 3e bb 46 33 be a4 b2 e1 3d be ad 05 be
       0.30634722 -0.1750745 0.11020401 -0.13054559
0002d0 8e 24 33 3e d4 c0 e3 3d 3f 29 9a 3e 50 20 e8 3d
       0.17494413 0.111207634 0.30109593 0.11334288
0002e0 d8 1e 3c be f8 81 33 be ec 39 89 be 98 09 77 bd
       -0.18371141 -0.17530048 -0.26802003 -0.060311884
0002f0 b0 f9 ef bd fc 05 af bd 08 72 0f bd bd 41 a7 3e
       -0.11717546 -0.08546063 -0.035020858 0.32667342
000300 f7 5a 8a 3e ee 0e 89 be fd a1 a7 3e d0 07 a6 bc
       0.27022526 -0.26769203 0.32740775 -0.020267397
000310 98 21 16 bd 32 be 86 be 73 bf c3 3d b8 1c 8d 3e
       -0.03665313 -0.26316983 0.095580004 0.27560973
000320 52 b5 97 be 16 64 17 be 46 bf 1c be e8 3f 94 3e
       -0.29630524 -0.14784274 -0.1530734 0.28955007
000330 5f 89 72 3e 31 e1 92 3e 34 c6 85 be aa 00 2a 3e
       0.23685215 0.28687432 -0.2612778 0.16601816
000340 8b d7 a3 3e 30 25 dd 3c df 19 a8 be 9a fe 55 3e
       0.32000384 0.026995271 -0.32832238 0.20897904
000350 9c c9 94 bd 38 d4 18 bd 36 0f 57 be f8 7f 65 be
       -0.072650164 -0.037311763 -0.21001896 -0.22412097
000360 51 51 14 3b e2 dc a3 be e1 48 89 3e b2 9a 00 3d
       0.0022631476 -0.32004458 0.26813415 0.03139753
000370 8e 16 32 3e 16 33 a0 3e fc a7 53 bd ea a5 03 3f
       0.17391416 0.31288975 -0.051673874 0.5142504
000380 d3 0c 3a 3b 67 37 b5 be 32 b9 a2 be 37 67 aa be
       0.0028388991 -0.3539383 -0.31781918 -0.33281872
000390 0d 31 c6 be ad 2b 1f be 6a 1a 7b bd 56 69 07 3e
       -0.38709298 -0.15544005 -0.061304487 0.13223776
0003a0 67 b0 f0 3e b6 73 93 bd e4 88 76 3d b9 c2 23 be
       0.47009584 -0.071998045 0.060189143 -0.1599225
0003b0 78 0d 0e 3d 72 53 80 be 79 ed df be bd 8c 3c be
       0.034680814 -0.25063664 -0.43735865 -0.18413062
0003c0 2e 67 38 3e 6b 1a 6d 3f 22 86 f8 bd c8 aa 33 3d
       0.1800811 0.92618436 -0.12134959 0.04386404
0003d0 d6 84 ad bd be 7a 1e be c2 47 63 3e 00 d6 d4 3c
       -0.08472602 -0.1547651 0.22195342 0.02598095
0003e0 59 dd a9 3e ac cf c5 3d 40 91 51 3d a0 0e 8f be
       0.33176687 0.09658751 0.05116391 -0.27940845
0003f0 f0 87 3f be a8 81 07 3e 8c ce c6 3d 0b 81 01 be
       -0.187042 0.13233054 0.097073644 -0.12646882

bias f4 [40]
000000 96 54 cc be cd cc 0b 3e 9c 72 98 3e 10 7b da 3d
       -0.39908284 0.13652344 0.2977494 0.106680036
000010 f0 0d e9 3d 4e 44 48 bd b1 b0 3c be 0e 24 68 be
       0.113796115 -0.048893265 -0.18426777 -0.22670004
000020 19 51 9e bd d7 fb 27 be af 69 c8 3c bb 66 bc 3e
       -0.07730312 -0.16404663 0.024464456 0.36797127
000030 aa 9d a6 be f2 84 83 3e e2 47 dd 3b eb eb 9c be
       -0.32542163 0.25687367 0.006752954 -0.3064874
000040 ef ae 8a bd 57 08 05 3d e7 9c 9d be 07 75 a7 be
       -0.06771647 0.032478657 -0.3078377 -0.32706472
000050 b3 e3 a3 be b8 dd 2e be be a1 9d 3d 00 b1 a5 be
       -0.32009658 -0.17076766 0.076968655 -0.32361603
000060 02 6d bf 3c fa 04 29 3e 0b 10 b8 3e fa 2e 54 3e
       0.023367409 0.16505805 0.3594974 0.20721045
000070 3f 5f a9 be 72 4a 99 3e d6 f0 8e be 0c 8a cf 3e
       -0.3308048 0.2993961 -0.27918118 0.4053501
000080 db 6e 97 bc a9 b6 8e 3d fa 7b 52 3e 4b 4c 33 be
       -0.018485477 0.069684334 0.20555106 -0.17509572
000090 69 41 73 bd ac ec 88 be c6 7d 3d bc ae 91 9f bd
       -0.05938855 -0.26743066 -0.011565631 -0.07791458

weight f4 [40, 40]
000000 c6 81 1e bd 55 d7 3e bd b8 26 a3 bd 8c 0f 10 3d
       -0.03869798 -0.046592075 -0.079663694 0.035171077
000010 c4 44 1a be fc 4e a7 bd f0 4e 1f 3d 20 10 05 bc
       -0.15065295 -0.08169362 0.03889364 -0.00812152
000020 8b 1c 57 be ef b3 09 be 51 e0 84 3d 11 e0 72 be
       -0.21006982 -0.13447545 0.064880975 -0.23718287
000030 90 d8 66 bd 34 52 81 3d 7e 93 15 3d ef b4 22 bc
       -0.056358874 0.06314507 0.036517613 -0.009930833
000040 7e 32 4e be 82 91 f2 bd d0 34 bb bd aa f8 d8 bd
       -0.20136449 -0.1184416 -0.091409326 -0.10594304
000050 d8 a4 b5 bc 3b 36 1f 3e bc 23 b3 bc 20 3c 89 3c
       -0.02217333 0.15548031 -0.021867625 0.016752303
000060 8e 75 59 3d 37 98 b2 3d 39 51 48 bc 05 5f 15 3e
       0.053090625 0.08720439 -0.012226396 0.14587028
000070 e6 9b 18 be 3f 17 87 bd 18 8d 92 3d 33 12 45 bd
       -0.1490322 -0.06596231 0.07155818 -0.04811306
000080 11 c2 17 be 4a 70 d8 bd f3 ab 21 bc e7 61 57 3d
       -0.14820124 -0.105682924 -0.009867656 0.0525836
000090 0e 94 28 be 76 c6 1d be bf cb 9f bd 5a 97 05 3d
       -0.16462728 -0.15407738 -0.07802533 0.032615043
0000a0 f3 c4 98 bc 72 01 91 bd 7d 2d 9d bd 3c 33 b3 3d
       -0.0186486 -0.07080354 -0.07674692 0.087500066
0000b0 5b da 15 bf 86 a6 c0 3e 06 0b 2c bd 3e 9d 24 bd
       -0.5853631 0.37627047 -0.0420027 -0.04018902
0000c0 e0 be c2 bd ec 0f 0b be 0e 9c e9 bd 4f 69 05 bf
       -0.09509063 -0.13580292 -0.11406718 -0.52113813
0000d0 5b 41 09 3e 46 56 8f 3e b3 27 59 be 52 b9 40 bd
       0.13403837 0.2799551 -0.2120655 -0.047051735
0000e0 be 7f 60 bd c7 89 09 be 24 eb 7e 3d 3a be dc bd
       -0.054809324 -0.13431464 0.062235966 -0.1077847
0000f0 42 d1 a5 bd 99 c0 b7 bd f0 89 75 bd 6c 7d 4d 3d
       -0.080965534 -0.08972282 -0.059946 0.05016844
000100 67 70 3b 3b af bf 9b be 9a 62 17 bf e6 d1 ba 3d
       0.0028600933 -0.3041968 -0.5913483 0.09122066
000110 38 e3 6a 3d fd 3d 80 3e 72 37 42 bd bf 31 c3 3e
       0.0573456 0.25047293 -0.047416158 0.3812389
000120 49 16 24 3e 6a 03 8c be a4 8f 7e be 63 a9 da 3e
       0.16024126 -0.27346355 -0.24859482 0.42707357
000130 51 53 35 be fa 30 45 bd ce dc f4 3c 48 1b 06 bd
       -0.17707564 -0.04814241 0.029890444 -0.03274086
000140 fd aa 26 3d a4 e6 0e be 48 46 4d be 98 08 af 3d
       0.04069041 -0.1395517 -0.20046341 0.08546561
000150 de c6 6e 3d 2b a0 a6 3e 08 f2 96 3c 10 0a a3 3d
       0.058295123 0.32544073 0.018425956 0.07960904
000160 ea 49 93 3c b0 75 96 3c 88 ca 09 be f6 aa de bd
       0.01797958 0.018366665 -0.13456166 -0.10872452
000170 9e f2 df 3d 5f 9e 95 be cc de 31 be 3b 1c 53 3e
       0.109349474 -0.2922239 -0.17370147 0.20616238
000180 f2 46 17 bf 24 10 72 bd d7 42 fe bd 4e 66 b5 3d
       -0.5909263 -0.059097424 -0.124150924 0.08857404
000190 7d c5 07 be 18 12 a8 bc 21 19 02 3e 76 21 df 3d
       -0.1325893 -0.02051644 0.12704898 0.10895054
0001a0 25 15 27 3e 0a 2c cc 3d 5a eb a6 3e 52 70 d0 bd
       0.1631666 0.09969337 0.32601434 -0.101776734
0001b0 54 56 a9 bd 54 7e 1d be 0c de 33 bd cc 28 86 3e
       -0.08268419 -0.15380222 -0.043912932 0.26203
0001c0 c7 fd 3f be e2 64 cb 3e 7a 60 d3 3e 71 58 ae bc
       -0.18749152 0.39725405 0.41284543 -0.021282407
0001d0 04 35 93 bd c8 24 57 3d 0f 30 32 3d 44 bf 58 3d
       -0.07187846 0.05252531 0.043502863 0.05291678
0001e0 c1 5b 54 be e5 7d 0d be 14 25 b5 bd 80 3f a8 bb
       -0.20738126 -0.13817556 -0.08844963 -0.005134523
0001f0 bb 50 c4 be 4d 34 ae 3c 97 89 af bc d8 56 01 bd
       -0.38342842 0.021265173 -0.021427913 -0.03157696
000200 6a 94 d0 bd ba ab a0 3d 95 48 22 3d d0 ea 8f be
       -0.10184558 0.07845254 0.03962 -0.28108835
000210 88 e8 b0 bd e1 78 22 3e a5 41 24 be 40 0d 3f 3e
       -0.08638102 0.15866424 -0.16040666 0.18657398
000220 51 99 d1 3d ba da 03 be d9 f3 00 3e dc c7 31 bd
       0.10234321 -0.12876406 0.1259302 -0.04340349
000230 74 b7 99 3d 54 28 d4 bd 2f 24 15 3e 2a 2e 0a bd
       0.07505694 -0.103592545 0.14564584 -0.03373543
000240 7b c3 7a 3d 3e bd 85 be 5f aa f7 3c a0 4d c6 bc
       0.06122158 -0.26120943 0.030232606 -0.024206936
000250 73 d4 90 3d 64 40 29 3e 78 ad 14 bd a6 63 b4 be
       0.070717715 0.1652847 -0.036298245 -0.35232276
000260 a6 6b 11 3d e2 1b bb 3c bb 85 89 bd 96 76 88 bc
       0.035503052 0.022840444 -0.0671496 -0.016658109
000270 82 b0 33 3e c0 c1 0d 3d 76 58 1d 3e d4 ee 82 3d
       0.17547801 0.034608603 0.15365776 0.06393209
000280 ba 8d 04 be 9c 0b 28 be cd c5 4b bc be 10 bd 3d
       -0.1294469 -0.16410679 -0.012437296 0.09231709
000290 c6 c7 85 be 5e 70 78 bd 39 06 2f bd 8c 97 2a 3d
       -0.26128978 -0.060654037 -0.042730544 0.041648433
0002a0 2e 7e 7b bd 8f 91 90 bd 5c 86 9a 3c 05 81 44 be
       -0.06139963 -0.07059013 0.018862896 -0.19189842
0002b0 7b 45 1a 3e 06 bf 3d bd 44 8f c9 bd dd d6 68 3b
       0.15065567 -0.046324752 -0.09841779 0.003552846
0002c0 f1 ed 04 bc 1b cd d7 3d d8 8e 9d bc fe 90 ba 3d
       -0.00811337 0.10537168 -0.019233152 0.09109686
0002d0 d4 17 26 3d a6 0f 47 bd a4 8a 1d bd f4 49 ba 3d
       0.040550068 -0.048598908 -0.038462296 0.09096137
0002e0 e2 d4 2c be d8 d3 e7 3c 33 a7 0f 3d e0 fe a2 bd
       -0.16878083 0.028299257 0.035071563 -0.0795877
0002f0 ec 1d 2a be 5b 0a 3f bd 60 85 ad bd 61 44 a1 bd
       -0.16612977 -0.046640735 -0.08472705 -0.0787437
000300 a4 49 9c bd 91 b6 5b 3d 59 06 9d bb e5 67 55 be
       -0.07631233 0.053640906 -0.0047920165 -0.20840414
000310 e8 ca 9b bc 28 6d b7 bd f2 ad 19 bd cc 50 77 bd
       -0.019017652 -0.08956367 -0.037519403 -0.06037979
000320 5d 75 17 3c f0 b8 b1 bd 78 f7 1c 3f 74 df 50 3d
       0.00924429 -0.08677852 0.6131511 0.05099435
000330 94 75 34 3e 14 3b ab 3e 8e 35 16 be d9 21 1c 3e
       0.17622977 0.3344351 -0.14668867 0.15247287
000340 98 ea af 3e 3d 4f 88 bd 5c 1f e2 bd 17 ad 1c 3e
       0.34358668 -0.066557385 -0.110411376 0.15300404
000350 38 fc fa 3c 29 be d9 3e 57 f6 5b 3e 40 31 42 bd
       0.030637845 0.42527893 0.2148069 -0.04741025
000360 15 40 86 be 61 6e ae 3e b0 53 91 bc 72 91 c0 3d
       -0.26220766 0.34068587 -0.0177401 0.094027415
000370 19 9e 0a be a0 71 59 3d 36 f2 87 bd 48 bf cb 3c
       -0.13536872 0.053086877 -0.06637995 0.024871483
000380 86 26 8a bd 00 8c f4 3d be f7 7c 3e 04 ae 60 3d
       -0.06745629 0.119407654 0.24703881 0.054853454
000390 14 28 56 be 9f 26 c0 3e 35 2d f1 bd e7 f5 98 3e
       -0.20913726 0.37529466 -0.11776201 0.2987511
0003a0 5d b0 c9 3e da 5c 89 3d 30 6b 1b 3f 89 a3 e6 3e
       0.39392367 0.06707163 0.6071043 0.45046642
0003b0 7c 74 4e bd bc 49 5a bd 3f 99 94 3d dc fc c3 3e
       -0.050404057 -0.053292975 0.07255792 0.38278854
0003c0 22 db c8 bd bf c8 2a be c4 fe 71 3d 9c 3c a9 3d
       -0.09807421 -0.16678141 0.059080854 0.082635134
0003d0 3f 33 76 bd d7 d2 26 be d2 f3 c4 bd 5a 94 d1 3d
       -0.060107466 -0.16291367 -0.096168175 0.10233374
0003e0 05 bc b7 3d 19 3c 3e 3c 9d e3 05 3e 4c ef 2f be
       0.08971409 0.011611008 0.13075109 -0.17181128
0003f0 7e e4 8d 3d 89 80 72 be 22 91 db 3c 36 67 30 3d
       0.06928347 -0.23681845 0.026802603 0.04306718

bias f4 [40]
000000 3b b2 a4 bc 7c a5 1d be f8 f6 24 be ba 9e 85 bd
       -0.020104518 -0.15395159 -0.16109836 -0.06524415
000010 38 84 81 3c 00 46 35 3e bf 0a 81 bd 51 14 54 3e
       0.015810117 0.17702484 -0.06300878 0.20710875
000020 9d 65 2d 3d ff 05 a1 3e ff 45 4c 3c 2d b8 43 3e
       0.042333234 0.31449887 0.01246786 0.19113226
000030 cd 8a 21 be 9b 4c 04 be 3d 9d 23 be 5d 52 1b 3d
       -0.15775605 -0.12919848 -0.1597795 0.037920345
000040 48 09 1b bd 91 49 05 3d 11 f9 f0 3c a8 5c 85 3d
       -0.03785065 0.03254086 0.02941564 0.065118134
000050 4a 36 a0 3d 0f 32 df bc f6 a1 af 3d 5d 01 2d 3d
       0.07822855 -0.02724555 0.085758135 0.04223763
000060 3d 22 01 be 19 5d 22 be 0e 6f 11 be 4f 1e 56 bc
       -0.12610717 -0.15855826 -0.1420252 -0.01306875
000070 7d 3c 6a bd 68 0d 1a bd d4 3d 47 bd ed 25 8f 3c
       -0.057186592 -0.03761044 -0.04864295 0.01747414
000080 e4 c8 49 3e 55 4b 65 3e ee c0 82 3d 9c b0 1c 3e
       0.1970554 0.22392018 0.06384455 0.15301746
000090 b1 5b 10 bd 18 0d 42 3e 58 e4 4d be 46 9a 4b bd
       -0.035243694 0.18950307 -0.20106637 -0.049707673

weight f4 [5, 40]
000000 62 fa 72 bd 70 96 3a 3b 65 87 d1 bd f5 70 b9 3d
       -0.059320815 0.0028471015 -0.102309026 0.09054748
000010 e5 cd 83 bd 6b 97 89 be 1f d6 fd bc ca 17 d4 3d
       -0.06435756 -0.26873335 -0.03098589 0.103561
000020 05 de d3 3d 60 71 ec be 26 e5 b2 3d 25 8e c1 bc
       0.10345081 -0.46180248 0.08735113 -0.02362735
000030 fa 6a f3 3d 01 6c c0 3d de 8d 55 3c bd 7e 4f 3e
       0.118856385 0.093956 0.013034312 0.2026319
000040 48 30 47 be c7 8e 2e bd d3 e2 c7 3c 80 6e 1b be
       -0.19452012 -0.04261663 0.02440015 -0.15178871
000050 74 8f 05 3e 3a 8d 16 be ff 47 8a 3e 93 f9 d2 3d
       0.13043004 -0.14702311 0.27008054 0.10301509
000060 40 aa af bd e6 54 21 bb e4 1e dd 3e ff e1 3c be
       -0.085773945 -0.0024617254 0.4318763 -0.18445586
000070 f0 0b fb bd 6a c1 c2 3d e0 04 7b 3c 5f 59 d3 bd
       -0.12258136 0.09509547 0.0153209865 -0.103197806
000080 16 33 86 3c e4 0e be be b1 5a 3d bd 24 23 ad be
       0.016381782 -0.37120736 -0.04622907 -0.33815873
000090 06 1c 30 3e 21 9a c8 be de ba 9e be 43 be 69 3e
       0.1719819 -0.3918009 -0.31001943 0.22826485
0000a0 d9 42 85 3d 3d ef 8c bc 66 04 cc 3b a3 86 42 bd
       0.06506891 -0.017203921 0.0062261103 -0.04749168
0000b0 78 9e 99 bd 48 fd 20 bf 93 77 f3 3c c8 71 b2 3e
       -0.07500929 -0.62886477 0.029720103 0.34852433
0000c0 b2 6e cf 3d 14 3d 75 be 60 a1 1f 3e 3d d7 55 3e
       0.10128535 -0.2394908 0.15588903 0.20882888
0000d0 87 b2 dc bd 82 7c df bd b0 fc 07 be 76 bd b5 be
       -0.10776239 -0.1091242 -0.13279986 -0.3549611
0000e0 b6 1f 38 3e 25 67 ec 3e cb 17 ba bd bb e9 27 3d
       0.17980847 0.46172443 -0.090865694 0.040994387
0000f0 99 d1 9b 3e 29 73 2a bd db 31 23 be af 56 46 3e
       0.30433348 -0.04161373 -0.15936987 0.19369005
000100 fb a8 11 be c3 91 f2 bd ca 62 24 be 5f 31 58 bd
       -0.14224617 -0.11844208 -0.1605331 -0.05278146
000110 f8 1f ab 3d d7 60 f6 bc cd 2d 16 be aa f1 16 be
       0.08355707 -0.030075474 -0.14665909 -0.14740625
000120 b7 65 ba be 4a 0a 15 3d ed 41 7b 3e 0e c7 17 bf
       -0.36405727 0.036386766 0.24536867 -0.5928811
000130 7a aa 36 be 9c 61 64 be 8b 24 52 be 39 d4 0f bd
       -0.17838469 -0.2230286 -0.20521753 -0.0351145
000140 cc a4 0e 3c 41 72 e0 3e 74 8b 0b be c5 45 4f be
       0.008706283 0.4383717 -0.13627416 -0.20241459
000150 f9 d1 91 bd a4 58 54 3e d6 69 df 3c 68 0a 84 3e
       -0.07120127 0.20736939 0.027272146 0.2578919
000160 27 68 42 bd a3 e8 bd 3e 06 1d 52 3d 85 a3 dd bd
       -0.04746261 0.3709155 0.05129721 -0.108222045
000170 90 0c f8 3c f1 eb 8b bc 19 84 06 be 9c 01 26 3f
       0.030279428 -0.017080279 -0.13136329 0.64846206
000180 d8 f3 dc be 11 fa 14 bc 37 00 c3 3d 54 8d 2f bc
       -0.43154788 -0.009092824 0.09521525 -0.010714848
000190 2b fb 39 bd 4d fc 67 bc e6 de 13 3d 07 fc 31 be
       -0.045405548 -0.014159274 0.036101244 -0.17381297
0001a0 e5 4d 78 3d b7 9d d7 3c 3f da 4e be 63 05 12 bd
       0.06062116 0.026320321 -0.20200442 -0.03564967
0001b0 ef a7 34 3d 5c 0f 9a 3d 4c 1b 05 be ff 8d da 3e
       0.044105466 0.07522461 -0.12998694 0.4268646
0001c0 12 e7 b6 3e ff 8b 9d 3e 12 99 8f 3d da 87 67 3e
       0.35723168 0.3077087 0.07011618 0.22610417
0001d0 9c 3f 64 bd 6d d2 41 3e 40 a8 66 3e 8a 31 1c be
       -0.055724725 0.18927927 0.2252512 -0.15253273
0001e0 1b b2 e5 3d 78 d8 27 bf ed 02 1c bb 83 22 1f 3e
       0.112156115 -0.6556468 -0.0023805455 0.15540509
0001f0 90 15 96 3c 87 e8 f9 3e 7f f6 b0 bc 36 67 c6 be
       0.018320829 0.48810217 -0.021601913 -0.3875062
000200 e0 09 9e bc 7d 09 ba 3e ae 9f 27 3e a7 17 aa be
       -0.019291818 0.36335364 0.16369507 -0.3322117
000210 c0 34 bf 3c ea e7 e9 3d 65 0e 0b ba e8 e1 48 bf
       0.023340583 0.11421187 -0.0005304574 -0.78469706
000220 c7 a1 a5 3e 52 dd 1b bf e7 0c 09 be 73 34 bb bd
       0.3234999 -0.60884583 -0.13383828 -0.09140863
000230 37 c3 a7 be d1 03 a2 be db da 32 3e dc e9 7b be
       -0.32766125 -0.31643537 0.17466299 -0.24600929
000240 7a 72 86 3d a7 42 3d 3d cb d2 e3 be 17 f3 38 3d
       0.065648034 0.046206143 -0.4449676 0.045153704
000250 d0 64 86 bd bc bd f8 3d 4f 41 04 be 90 d3 90 be
       -0.06562197 0.12145564 -0.12915538 -0.2828641
000260 24 8f b0 3e 44 33 7f be d3 f4 fc be 4b 44 c5 3e
       0.34484208 -0.249219 -0.49405536 0.38528666
000270 72 bb f0 3d 70 6e e7 3a d2 cf 7f bd 70 5f 70 3d
       0.11754502 0.0017656814 -0.062454052 0.058684766
000280 7a c8 4f 3d 53 ff ce 3c 27 a8 13 3e d2 9b 2e 3e
       0.0507283 0.025268232 0.14419614 0.17051628
000290 e7 c8 e7 bd c5 e3 c9 3c c8 21 72 bd 11 d5 ed 3d
       -0.11317616 0.024644742 -0.059114248 0.11612905
0002a0 41 b8 70 bd 45 27 8a 3e 1c 9e 52 3d 3b 07 5f 3e
       -0.05876947 0.26983085 0.051420316 0.21780102
0002b0 9a e6 a0 3d 8a 4c f6 3c 9c 5c 1c be 28 56 c8 3c
       0.07856484 0.030065794 -0.15269703 0.024455145
0002c0 a7 60 f3 be b2 18 32 3e c3 7a aa 3c 37 09 4e bd
       -0.47534677 0.17392233 0.02081049 -0.050301757
0002d0 3e 66 29 3d ea af 93 3e 7e 71 8e bd 8a af 9e bd
       0.04135727 0.2884515 -0.06955241 -0.07748325
0002e0 af 36 8b 3d d0 87 6a bd bc 72 5b 3e c8 3b 89 bc
       0.067975394 -0.057258427 0.21430486 -0.016752139
0002f0 fd e6 15 3d 66 02 52 3d ba 23 76 bd 94 27 c4 3e
       0.03659724 0.05127182 -0.060092665 0.38311446
000300 a2 ea d6 be 25 8a 36 3d 89 21 49 bd 3f a7 bd bc
       -0.41975886 0.04456534 -0.049104247 -0.023151038
000310 09 da 36 be 3a ba bc 3d ea c5 1a 3d 26 98 4b 3d
       -0.17856611 0.092152074 0.0377864 0.049705647

bias f4 [5]
000000 b1 80 57 be 38 61 5c be a6 9b a7 3d 09 54 86 3e
       -0.21045186 -0.21521461 0.081839845 0.2623599
000010 1b 73 41 bd
       -0.047228914

weight f4 [40, 9]
000000 bb 3b 8d 3c cb 95 8f bd 15 e3 87 3e 03 60 a0 3e
       0.017240396 -0.070109926 0.26540437 0.3132325
000010 bb d3 94 3d dd d4 9f bc 67 40 42 3d 76 4a dd 3e
       0.07266947 -0.01951068 0.0474247 0.43220872
000020 21 00 8d be de 37 04 3e 53 9b 2b be c8 29 30 be
       -0.2753916 0.12911937 -0.1675847 -0.17203438
000030 a8 8e 40 be f0 8f 76 be 70 a9 f1 3d 00 52 e5 3b
       -0.18804419 -0.24078345 0.11799896 0.0069983006
000040 c4 9f d1 3d c0 40 18 3d cb 79 cb bd 78 15 91 3e
       0.10235551 0.037171125 -0.099353395 0.28336692
000050 0c 40 ed 3d 04 bd 36 be 3c d6 e4 3d 0d 1a d0 bd
       0.115844816 -0.17845541 0.111736745 -0.10161219
000060 65 75 23 be ca cb e2 3e bf b1 40 3b f6 3a e9 bd
       -0.15962751 0.44296104 0.002940282 -0.11388199
000070 ff bd d5 3c 65 b6 85 3e 27 9f 80 3e 11 4d 86 3c
       0.026091574 0.26115718 0.25121424 0.01639417
000080 cd 62 fb 3d 2a 56 14 3e 3f 1b cc 3e e4 f9 e3 bd
       0.12274704 0.14485994 0.39864537 -0.11131647
000090 d9 a2 e6 bc 31 0b 9a 3e ec 02 a2 3d 53 2b e5 3d
       -0.028153824 0.30086663 0.079107136 0.11189904
0000a0 c6 2a 42 be 8e 06 12 be 45 1b 80 be a7 7d e4 be
       -0.1896163 -0.14260313 -0.25020805 -0.44627115
0000b0 30 a4 88 3e 30 cb bb bd af 17 a0 be 9b 1d 43 be
       0.26687765 -0.09169614 -0.3126807 -0.19054262
0000c0 4e 1f 61 3e 2e 03 8d be 29 73 94 3e 4f d0 81 be
       0.21984598 -0.27541488 0.2899411 -0.2535424
0000d0 15 0c 90 3e 10 2c a5 bd 97 76 91 3e 96 37 a3 be
       0.28134218 -0.08065045 0.2841079 -0.31878346
0000e0 10 aa 1f be 9e 5a 2c be 1c 7f a1 be 6c 06 ab 3e
       -0.15592217 -0.16831443 -0.3154229 0.33403337
0000f0 4d b3 93 3e 29 6e ad be 0e b1 dc 3d 78 5f fb 3d
       0.28847733 -0.33873108 0.10775958 0.122740686
000100 2a a4 06 bf 76 3f 22 3e 8b 19 ac be 2d 08 38 3d
       -0.52594244 0.15844521 -0.33613238 0.044929672
000110 e9 dd 79 be 04 71 7a 3e ac cd b4 3e 65 52 3d bd
       -0.24401058 0.24457175 0.35313165 -0.046221156
000120 11 75 5f 3e a8 b9 8a bd 52 a9 95 be 8a ee 45 3e
       0.21822001 -0.06773692 -0.29230744 0.19329277
000130 fd aa 46 3e 80 22 9a bd e8 c9 d3 3e 37 37 8d 3e
       0.19401164 -0.075261116 0.4136498 0.27581188
000140 a7 c1 a5 bd 05 2b 7d 3e b5 6d 80 3e 28 92 26 bd
       -0.08093577 0.24723442 0.250837 -0.04066673
000150 6c 12 75 be f4 d4 19 be ff 70 69 3e 49 95 2c be
       -0.23932809 -0.15022641 0.22797011 -0.16853823
000160 05 ab 25 3d eb 33 99 be b5 1a f7 3d 09 93 66 3e
       0.0404463 -0.29922423 0.12065641 0.22517027
000170 de 81 6a 3e 03 3a 61 3e c9 19 f0 3d df c4 18 3e
       0.22901103 0.21994786 0.11723668 0.1491885
000180 ca 63 2b 3e 1e 27 20 bf 52 f9 46 3d 83 a8 20 3e
       0.16737285 -0.6255969 0.048577614 0.15689282
000190 b9 cf cc 3e 2d 7e a8 3e b8 85 23 bd 8d 74 01 3e
       0.4000223 0.32908764 -0.039922446 0.12642117
0001a0 bd 87 34 be f6 7c d0 be fb bb ca bd eb 3b 83 be
       -0.17629905 -0.40720338 -0.09899136 -0.2563165
0001b0 64 5f 3a 3e e5 b0 0c 3f ea c6 a3 be f1 2c 28 be
       0.18200451 0.5495742 -0.31987697 -0.16423394
0001c0 65 4b 60 3e 0f 9d 2e be 10 99 f8 3d ce 03 08 bf
       0.2190376 -0.170521 0.12138569 -0.53130805
0001d0 f4 38 8b 3d 9f 17 8e be 40 22 95 3d 56 bc e9 bd
       0.06797972 -0.27752396 0.07281923 -0.11412875
0001e0 5f d6 9c be dc 1d 86 3d e0 e1 a9 3d 9e e2 33 3e
       -0.30632302 0.06548664 0.08295035 0.17566916
0001f0 62 c1 0a 3e d0 cf 4f be d6 9f d4 3e bc ff 4b 3e
       0.13550332 -0.20294118 0.41528195 0.19921774
000200 80 a7 46 be 5e f7 99 3d 6c 85 f5 bd d9 d1 03 3e
       -0.19399834 0.07517885 -0.11988339 0.1287302
000210 cf ee e6 3d bb 5a 18 bf f2 66 77 3e a2 9d 08 3e
       0.11276018 -0.59513444 0.24160364 0.13341382
000220 63 e2 f6 3d 6f e4 98 3e c7 24 f2 3d 0e 43 f7 3c
       0.120548986 0.2986178 0.11823421 0.030183341
000230 9e a0 3d 3e da d6 ef be ce 98 2b be 5b 43 97 3c
       0.18518302 -0.46843606 -0.16757509 0.018464735
000240 ed 1c 9e be a6 38 00 3f 29 9a a8 3e b4 33 76 be
       -0.30881444 0.5008644 0.32930115 -0.2404316
000250 97 03 67 bd cd 9a f8 bd 2e d4 ba 3c 48 13 68 be
       -0.056399908 -0.12138901 0.022806253 -0.22663605
000260 41 3f 37 bd 34 de 84 be 9f 6d 15 3e 16 6d 3f 3e
       -0.044738058 -0.25950778 0.14592598 0.18693957
000270 a0 f5 26 be 3f 54 80 be fc b4 91 3e 12 0e 96 3e
       -0.16304636 -0.25064275 0.28458393 0.2930761
000280 67 bc 9f 3d 70 24 3a be d7 2e 8e bc fc a7 fd be
       0.07799607 -0.18177962 -0.01735632 -0.49542224
000290 9b c5 2e be 61 1f 0e be 19 66 d3 3d ab ca a5 be
       -0.17067568 -0.13879158 0.10322208 -0.32381186
0002a0 cb 3b 22 be 1e 78 e3 3e 8b dd e0 bd 51 1e e7 3e
       -0.15843122 0.4442758 -0.10979756 0.45140317
0002b0 52 b6 89 3d 6e da 3e be fb 12 1d bf 77 e4 2f bd
       0.06724228 -0.18638012 -0.61357087 -0.04294249
0002c0 28 0b d2 bd a2 6e 7b bd 43 eb d3 bc 6f 56 36 3e
       -0.10256034 -0.061384805 -0.025869017 0.1780641
0002d0 b4 0e d8 3d fc 78 b4 3d f0 bf a6 bc 90 55 82 bc
       0.105496794 0.088121384 -0.020355195 -0.01590994
0002e0 f2 40 82 be 53 0e 58 be 43 3b 7a be 1c a6 8b be
       -0.25440174 -0.21099214 -0.24436669 -0.2727517
0002f0 77 b4 8d be 86 48 4a bd 68 36 ba 3b 1d 12 a2 3e
       -0.27676746 -0.04938557 0.0056827553 0.31654444
000300 78 44 6e bd 4e 96 60 3e da 5e 5c bd ba 7b ea bc
       -0.058170766 0.21932337 -0.053801395 -0.02862345
000310 59 7b 19 3f f1 c7 d5 bd e6 08 53 be 0d 93 bc 3e
       0.5995384 -0.104385264 -0.20608863 0.3683094
000320 5e 2b 01 be 6d f7 96 bd 9e e2 37 3e 05 f8 15 3d
       -0.126142 -0.073714115 0.17957541 0.036613483
000330 a0 a9 e1 bd fe 40 63 bf 36 4f 91 3e ea 0c ea 3e
       -0.110186815 -0.88771045 0.28380746 0.45712978
000340 1b 6f 87 3e 04 ec f9 3d 64 df 04 bf 49 7f 14 3e
       0.26451954 0.122032195 -0.5190337 0.1450168
000350 00 d8 99 be e8 e4 a8 bd 85 6b 6c 3d 11 76 ae bd
       -0.30047607 -0.082467854 0.057719726 -0.08518613
000360 2c be 45 be b8 76 90 3e 60 50 73 bd 97 cd a5 be
       -0.19310826 0.28215575 -0.059402823 -0.32383415
000370 ab 20 77 3e 85 30 b0 3e 06 d4 e9 bd 33 3f 2e be
       0.24133556 0.34412017 -0.114173934 -0.17016296
000380 17 32 0a be 94 cf 9b 3e d9 bc 3f 3e db 79 05 be
       -0.1349567 0.30431807 0.18724383 -0.13034765
000390 1d 4c 96 3e 0f cc 8c 3e ed 51 59 3e 6a d4 49 bd
       0.29354945 0.27499434 0.21222658 -0.04927484
0003a0 17 fe 88 be dd a0 18 bd 60 d3 1f bf c8 bf 03 be
       -0.26756355 -0.037262786 -0.6243191 -0.12866127
0003b0 0a 10 2d 3e ad 6d 0d 3f 2f 9b 63 bd 6f 76 75 3c
       0.1690065 0.55245477 -0.055567916 0.01498185
0003c0 48 00 53 bd 15 37 3a be 06 07 08 3e db 77 59 be
       -0.05151394 -0.18185075 0.13283929 -0.21237127
0003d0 7d db ab be c0 c7 aa 3c bc 41 76 3d a0 6d 6d be
       -0.33565894 0.020847201 0.060121283 -0.2318635
0003e0 de ed 09 be c1 f5 b5 bd 75 03 0d 3f 03 46 24 3e
       -0.13469645 -0.088847645 0.550834 0.16042332
0003f0 b8 12 0b 3d 2e af 10 be eb 2b 02 be 8a 57 6c 3e
       0.0339534 -0.14129326 -0.12712066 0.23080269

bias f4 [40]
000000 94 d1 d1 3d c8 f7 37 be 14 ed dc 3c 99 67 43 3e
       0.10245052 -0.17965615 0.026968516 0.19082488
000010 05 f9 29 be 68 04 a2 be 3b f7 46 be fc de 4c bc
       -0.165989 -0.31643987 -0.19430248 -0.0125043355
000020 ab 51 51 3e eb 4c 21 3e 85 37 0e 3d 44 fd 0c 3e
       0.2044131 0.15751998 0.034720916 0.13768488
000030 04 74 39 be 96 20 27 be 26 26 50 be b1 d0 17 3e
       -0.18110663 -0.16321024 -0.20327052 0.14825703
000040 ac 33 e6 3d c1 26 64 3e b0 a6 0e be f1 b0 3a be
       0.112403244 0.22280408 -0.13930774 -0.1823156
000050 53 0c 1f be c4 cb aa 3d 43 e0 ca 3d 21 27 8e be
       -0.15532045 0.083396465 0.09906056 -0.27764228
000060 60 d1 1d 3e 2f 64 85 3d 1d e7 dd ba d8 5e 18 3d
       0.15411901 0.06513249 -0.0016929839 0.037199825
000070 2a e6 2a 3e 53 10 6b 3d 14 da 87 be d8 8f a2 3c
       0.16689363 0.057388615 -0.26533568 0.01984398
000080 37 93 d5 3d 9f a2 68 3d e3 cd 8c be b3 8d 02 3e
       0.1042847 0.056795713 -0.2750083 0.12749366
000090 4a bc 15 be 05 d9 38 be 40 44 db 3c 96 31 9e 3e
       -0.14622608 -0.18051536 0.026765943 0.30897206

weight f4 [40, 40]
000000 e0 a5 dd bd 12 6d 49 bd 80 bf ff 3b b0 be df 3c
       -0.10822654 -0.049176283 0.007804811 0.027312607
000010 70 ea ba bd 7d e6 0f be 4c 55 2e 3d 33 67 12 3e
       -0.09126747 -0.14052768 0.042561814 0.1429718
000020 01 e2 09 3e eb af 21 3e 80 e1 ce bb 3c a9 16 bd
       0.1346512 0.15789764 -0.006313503 -0.03678249
000030 66 1e 0a be 20 c8 da 3c 9a b4 fa 3d 54 50 12 be
       -0.13488159 0.026706755 0.12241478 -0.14288455
000040 d0 ae c4 3c a2 46 8d 3d f6 c6 f2 3d a4 4b 08 3d
       0.024009138 0.06898238 0.11854355 0.03327526
000050 b0 9b a7 3d 00 5a 10 ba 04 4e aa bd bb ef 08 be
       0.08183992 -0.0005506575 -0.083156615 -0.133727
000060 78 ee 57 bd a8 83 52 3d 36 1c f2 3d 80 9d 86 bc
       -0.052717656 0.05139509 0.11821787 -0.016432524
000070 88 2f 89 bc cb ab d8 bd 76 0d f3 3d a2 cb 15 be
       -0.016746297 -0.10579642 0.11867802 -0.14628461
000080 10 a0 07 be 10 7c 14 bd c7 1a 0e be 83 05 0b 3e
       -0.13244653 -0.036251128 -0.13877402 0.13576321
000090 2c 58 96 bd 28 1f 5c bd 3c f0 5e 3d ad f6 14 be
       -0.07341036 -0.05374065 0.054428324 -0.14547224
0000a0 f8 4e f8 3d 38 17 a5 bd 4a 0a 97 3d 29 1f 03 3e
       0.12124437 -0.08061069 0.07375009 0.12804855
0000b0 2a b4 91 be 6f f1 19 be 06 33 ae 3c 3d 81 ce 3e
       -0.28457767 -0.15033506 0.021264564 0.40332976
0000c0 a4 18 01 3d f2 c6 11 be ee f0 a1 3c 73 21 21 be
       0.03151764 -0.14236048 0.019768205 -0.15735416
0000d0 e2 da fd be e8 16 d6 3c d0 6c 66 be 0e 01 e1 bd
       -0.49581057 0.02613397 -0.22502446 -0.10986529
0000e0 76 80 42 be 09 eb 38 3d 96 1f 03 bf 30 61 94 be
       -0.18994316 0.045146022 -0.5122007 -0.28980398
0000f0 68 a2 12 be 9f 51 81 3e 0b d1 63 bf ff 57 bb bd
       -0.14319766 0.25257584 -0.8899085 -0.09147643
000100 5b ba 23 3e 78 2a 0b be bd bc af be 3d 6c 18 3e
       0.15989058 -0.1359042 -0.34323683 0.1488504
000110 de 25 12 be 16 b7 e7 bd 20 40 78 3e 29 02 88 3e
       -0.14272258 -0.11314218 0.24243212 0.26564148
000120 0d e3 f8 3d 9a be 36 be 5f 28 93 bd 9e 7b 9e bd
       0.121526815 -0.17846146 -0.071854346 -0.07738422
000130 8d fb ed 3e 50 85 5b 3e ce 08 46 bd f0 f2 d3 be
       0.4648098 0.21437573 -0.04834824 -0.41396284
000140 ba 40 16 be f0 a3 83 bd 98 0e 2c bd ef d2 1e be
       -0.14673129 -0.06427753 -0.042006105 -0.15510152
000150 67 60 07 3e 90 aa 2a bc e0 95 28 bc 46 96 e1 bd
       0.13220368 -0.010416642 -0.010289639 -0.110149905
000160 90 ab 71 bc 0e 88 f3 bd 3c 20 b6 bd 60 c4 1f 3c
       -0.014750376 -0.11891185 -0.08892867 0.009751409
000170 17 5e 0e 3e 92 f9 ca 3d c0 99 ec bb e6 c1 a3 bd
       0.1390308 0.09910883 -0.007220477 -0.079959676
000180 52 0f 00 be 30 cc 96 3d e0 1e fd bd cc 14 21 3d
       -0.12505844 0.073631644 -0.123594046 0.039326474
000190 fe 6b 09 be 50 de 15 be b7 5d 00 3e 06 08 aa 3d
       -0.13420102 -0.14635587 0.1253575 0.083023116
0001a0 b0 2a 17 3c 8d 80 0f be fc 9b 05 3d 15 9a f8 bd
       0.009226486 -0.14013882 0.03261946 -0.12138764
0001b0 bb eb 0c 3e 69 6a 19 be 10 ec 4f 3d 90 25 33 3c
       0.13761799 -0.14981999 0.050762236 0.010934249
0001c0 4a ae f0 bd c7 f4 85 bd d4 8d 4a 3d fe d5 1e bd
       -0.11751993 -0.06540828 0.049451664 -0.038778298
0001d0 e6 47 ef bd 80 8b e0 bd 60 6c 5e bc a9 b7 17 3e
       -0.116836354 -0.109641075 -0.013575643 0.14816155
0001e0 f8 e1 af bd dc ec 4b 3d 90 20 a4 3c a8 97 1a bc
       -0.08588022 0.049786434 0.020035058 -0.009435572
0001f0 f3 6c e1 bc 3b a2 9a bd 61 d7 1f 3c 26 61 38 be
       -0.027517771 -0.07550474 0.00975594 -0.18005809
000200 9d 58 b4 bd 79 0f 86 bd 11 db 78 3e b4 8a 09 3e
       -0.08805964 -0.0654592 0.24302317 0.13431817
000210 46 71 5d 3e 96 f1 ff 3d ec 10 b1 bd 2a a5 46 3d
       0.21625242 0.12497251 -0.08645806 0.048497356
000220 ca 08 27 3e 2d 91 31 be 37 27 64 3e ab 30 92 3e
       0.16311947 -0.17340536 0.22280584 0.28552756
000230 50 b6 72 bc 6c 13 eb 3c 6e 0d 95 3e 83 bb 70 3e
       -0.0148139745 0.028695785 0.2911181 0.2350903
000240 75 d3 23 3d 89 36 57 3e e4 09 2b 3f a2 c4 90 be
       0.039996583 0.21016897 0.66811967 -0.2827502
000250 29 f9 19 be 41 c1 07 3e a9 8b 23 be 68 24 03 3d
       -0.15036453 0.13257314 -0.15971245 0.03201714
000260 9f 50 24 be 32 a0 0b 3e 48 42 73 3d 83 a0 d6 be
       -0.1604638 0.13635328 0.059389383 -0.41919336
000270 bc 60 4c be 5c 1f 50 3d 10 f1 f8 bd d5 f1 ed bd
       -0.19958776 0.050811157 -0.12155354 -0.116183914
000280 4f 6d e6 3c 80 a6 ba 3c 0f 64 44 bc a3 77 76 bd
       0.028128294 0.022784472 -0.011986746 -0.06017269
000290 88 f9 cd be 20 93 b5 bc 82 15 30 3d 0d 8c 9c 3e
       -0.4022944 -0.022164881 0.04298926 0.305756
0002a0 a8 a3 12 3e fe 4b f6 bc a6 8b 88 be bc bf 88 3d
       0.14320242 -0.030065533 -0.26669043 0.066771954
0002b0 5c 37 ee be 72 70 c0 3d 0b 11 72 be 09 a0 27 3d
       -0.4652661 0.09396447 -0.23639314 0.040924106
0002c0 4f c6 c9 bd 46 d9 ff 3d 4f e0 af be 4b 07 00 be
       -0.098522775 0.124926135 -0.3435082 -0.12502782
0002d0 18 c7 94 3d 60 ea ca 3d fa ca 75 bf 66 c3 3f be
       0.072645366 0.09907985 -0.9601284 -0.18726882
0002e0 a1 f8 b4 bd 14 b7 27 be f3 7e a7 bd 11 83 a4 3e
       -0.08836485 -0.16378433 -0.081785105 0.32131246
0002f0 2d cb 0a 3e 61 81 82 be 07 bc c4 bc f8 f7 e2 3e
       0.13554068 -0.25489333 -0.02401544 0.4432981
000300 36 3d 33 3e bf 3f a8 be 58 c1 4b bd fc 0b 63 3c
       0.17503819 -0.32861134 -0.049744934 0.013857838
000310 33 7a c4 3d 25 25 42 3e 80 bb e7 bb ae 39 91 be
       0.0959362 0.18959482 -0.0070719123 -0.2836432
000320 c1 fd 1f 3e 00 aa bc 3a cc 19 8e bd 30 ea b3 3c
       0.15624143 0.0014393926 -0.06938514 0.021962255
000330 3d 94 d3 bb d2 cb bb 3d 5e 7b a7 3d 97 ad 3b bb
       -0.0064568804 0.09169735 0.08177827 -0.0028637403
000340 8c d3 58 bd 3a 18 8a bd 1f 7d 4e bd 11 fc 7d be
       -0.05293612 -0.06742902 -0.050412294 -0.24803187
000350 75 9d 93 3d b0 c5 fe bc ba a1 2f bc ab ab bc bd
       0.07207767 -0.031100124 -0.010719711 -0.092124306
000360 11 8f 9e 3d ad bd 0c 3e 5f 4d 90 3e 94 9c 82 3e
       0.077421315 0.1374423 0.2818403 0.25510085
000370 30 c8 2a bd a5 7f 19 3d 85 cc 07 3e 99 06 30 3e
       -0.04169482 0.037475247 0.13261612 0.17190017
000380 79 ae 62 3d 25 10 a5 bd d2 d9 ec 3e e3 ca 20 3e
       0.05534217 -0.0805972 0.46259934 0.15702395
000390 c6 c3 12 bd c3 fc 53 3d 12 3c d6 bd b0 27 22 be
       -0.035831235 0.051754724 -0.10460676 -0.15835452
0003a0 49 f1 30 be 1b 39 7e bd 4d ef 89 bd 33 e8 8a be
       -0.17279543 -0.06206618 -0.06735096 -0.2713028
0003b0 12 24 f9 bd 61 00 c5 bd 1a ce 17 bd 60 aa db 3e
       -0.12165083 -0.09619213 -0.03706179 0.42903423
0003c0 c8 d0 f7 bc 93 d5 1e be 75 d0 39 bd ef b8 18 3e
       -0.030250922 -0.1551116 -0.045364816 0.14914297
0003d0 ca db d7 bd 20 6d 89 3b 63 6c 80 bd 85 ae 16 3d
       -0.10539968 0.004193917 -0.06270673 0.03678753
0003e0 18 4d 38 3d 7a 33 08 3e d6 2c 57 be 0d fa e1 bd
       0.044995397 0.13300887 -0.21013197 -0.110340215
0003f0 c9 b2 88 3e ec 0f 12 be d9 9a 6d be 4d 4f 8c 3d
       0.26698902 -0.14263886 -0.23203601 0.06851063

bias f4 [40]
000000 dc d6 d6 bd 7e 3f 53 3c 70 30 f8 bc c4 1e 7f 3c
       -0.104902 0.012893556 -0.030296534 0.0155713
000010 87 e6 cd 3d 3f d5 16 3e 06 29 d5 bc 3e ce 12 3e
       0.10053735 0.14729784 -0.026020538 0.14336488
000020 8c 65 d3 3d 2e 03 15 bd 4e 74 22 bd 12 51 ac 3d
       0.10322103 -0.036379986 -0.039661698 0.084139004
000030 f1 78 4d be a4 e5 93 3d 49 7d ad bc 3f 0d 8e bd
       -0.20065667 0.07221535 -0.021177905 -0.0693612
000040 6b 25 14 3e a4 16 39 bd 27 3b f8 bc c2 57 37 bd
       0.14467399 -0.045187607 -0.030301644 -0.044761427
000050 00 ca f0 3d 4f 79 05 3d 05 76 76 bd 92 07 35 3c
       0.117572784 0.032586392 -0.060171146 0.011049168
000060 d7 b4 8e bc 8a dc 4f bd 50 1e e3 bb 88 d6 a8 3d
       -0.017420216 -0.05074743 -0.0069311038 0.082440436
000070 34 55 10 3e 67 38 7c bd 41 f0 37 bd 88 b1 1a 3e
       0.14095002 -0.061577227 -0.04490686 0.15106785
000080 ff d5 37 3d 73 13 89 3d de 09 27 be 60 17 f8 3c
       0.044881817 0.06693163 -0.16312358 0.030284584
000090 f3 9a c8 3d 5d 0a ca bd ea 24 1a bd 5e 03 a5 3d
       0.09795179 -0.09865258 -0.03763286 0.08057283

weight f4 [1, 40]
000000 f4 63 b4 3d 23 a7 66 bf c0 29 88 3d b7 aa 6b 3e
       0.08808127 -0.9009878 0.06648588 0.23014341
000010 9a f7 22 bf 9a c3 03 3e 46 51 72 3e 1b fd 4c bf
       -0.6365906 0.12867585 0.23663816 -0.8007371
000020 c4 ac 9b 3e ba fd 80 bf da 4e 4a be 17 1a 0c 3e
       0.30405247 -1.0077431 -0.19756642 0.13681827
000030 60 84 9b be ce 00 94 3e b9 ff eb be 2a 34 ef 3d
       -0.30374432 0.28906864 -0.46093538 0.116798714
000040 14 ad 03 bf 12 de 8e 3d 2f 42 22 bf 69 cb c6 3e
       -0.5143597 0.0697595 -0.6338224 0.38827065
000050 bb 06 89 3e 02 fe c7 3d 1f bb 9c be 17 f8 4a 3b
       0.26762947 0.09765245 -0.30611512 0.0030970627
000060 b3 ff 86 be 20 c8 14 3c 20 15 a7 3c 68 77 66 be
       -0.26366958 0.009080917 0.020395815 -0.22506487
000070 08 3a c6 3e 6d df 9d be 2e 87 7e 3e a2 a6 9d 3e
       0.3871615 -0.30834523 0.24856254 0.30791193
000080 b9 d8 6f 3d 0f 96 82 3e 81 3a 8f 3d 2a 4f aa 3d
       0.058556292 0.2550511 0.069935806 0.083158806
000090 86 d7 49 bf 92 77 0f 3e 08 17 75 3e 09 f3 98 be
       -0.7884449 0.14010456 0.23934567 -0.2987292

probs f4 [5]
000000 cd cc 4c 3e cd cc 4c 3e cd cc 4c 3e cd cc 4c 3e
       0.2 0.2 0.2 0.2
000010 cd cc 4c 3e
       0.2

logits f4 [5]
000000 10 02 ce bf 10 02 ce bf 10 02 ce bf 10 02 ce bf
       -1.609438 -1.609438 -1.609438 -1.609438
000010 10 02 ce bf
       -1.609438
