src/bigfish/ppo_bigfish_model/PPO_bigfishm_79296_7775.pth (torch, 10247 bytes, 9 tensors)

weight f4 [10, 9]
0	0x3e07d7a2	0.13265851
1	0xbf031dbe	-0.5121726
2	0xbeeb1157	-0.45911667
3	0xbf6406fd	-0.89073163
4	0xbe5e56b2	-0.21712759
5	0xbe02e29c	-0.12781757
6	0xbdc9dca5	-0.09856538
7	0xbe29c887	-0.16580401
8	0xbe54b21d	-0.2077107
9	0xbe039405	-0.12849434
10	0xbf23fd04	-0.64057946
11	0x3ce64391	0.02810839
12	0x3dc9a6a1	0.09846235
13	0x3f4207ea	0.75793326
14	0x3e8b5765	0.27215114
15	0xbd80ae36	-0.06283228
16	0x3c01fa4e	0.007933212
17	0x3f10f1ba	0.56618845
18	0x3d0e98b2	0.03481359
19	0x3f852250	1.0401096
20	0xbc3c2373	-0.011483061
21	0x3ca08bac	0.01959785
22	0x3d24d86a	0.04024545
23	0xbeccbaab	-0.39986166
24	0xbc587b2d	-0.013212961
25	0xbf828b37	-1.0198735
26	0xbef4d691	-0.4781995
27	0xbe9f84d2	-0.3115602
28	0xbdfbd6cf	-0.12296831
29	0xbdafc1af	-0.08581864
30	0xbe0d01d3	-0.13770227
31	0x3e20aa50	0.15689969
32	0xbdfc96c5	-0.123334445
33	0xbe20015e	-0.15625522
34	0x3c2cf0f1	0.010555492
35	0xbe72fdc0	-0.2372961
36	0xbe1b9b4f	-0.15195964
37	0xbda961cd	-0.08270607
38	0xbeb7666e	-0.35820335
39	0xbe177366	-0.14790115
40	0xbe77cd9d	-0.24199529
41	0xbe1bc10f	-0.15210365
42	0x3de495b2	0.111613646
43	0xbd24ccc4	-0.040234342
44	0xbef256ce	-0.47331852
45	0xbde4bd64	-0.11168936
46	0x3d91b51b	0.07114621
47	0xbe775081	-0.24151804
48	0xbe8aeecf	-0.27135321
49	0xbe2ee87d	-0.17080875
50	0xbeefc084	-0.46826565
51	0xbd96f39d	-0.07370684
52	0xbee001d9	-0.4375141
53	0x3d8dbc1c	0.06920645
54	0xbef403f6	-0.47659272
55	0xbef2c89d	-0.4741868
56	0xbef42fa7	-0.47692606
57	0xbe62c723	-0.22146277
58	0xbec2f471	-0.3807712
59	0xbf0815d3	-0.531583
60	0x3e69d825	0.22836359
61	0xbe70f9ab	-0.23532741
62	0x3d977027	0.07394438
63	0xbddbac04	-0.10726169
64	0xbf66f195	-0.90212375
65	0xbd038107	-0.032105472
66	0xbcf48c55	-0.029852072
67	0xbd22637a	-0.03964565
68	0xbee68386	-0.4502222
69	0x3c9e6f00	0.019340038
70	0x3fa17a61	1.2615472
71	0x3b5731d7	0.0032836103
72	0xbd61717d	-0.05503987
73	0xbf1c1dad	-0.6098278
74	0x3e8a1efc	0.26976764
75	0xbef3d89e	-0.47626203
76	0xbdc06bde	-0.09395574
77	0x3e60ca7e	0.21952245
78	0x3e3e9085	0.18609817
79	0xbef2f8b7	-0.4745538
80	0x3eb3071e	0.34966367
81	0xbec700d7	-0.38867828
82	0xbe70f885	-0.23532303
83	0x3dab0188	0.083499014
84	0xbe5da293	-0.21644048
85	0x3e1d8b15	0.15385087
86	0xbcd4e300	-0.025987148
87	0xbe086872	-0.13321093
88	0xbeb789fd	-0.35847464
89	0xbe989bf8	-0.29806495

bias f4 [10]
0	0xbe8c6f0e	-0.27428478
1	0x3ec1f240	0.37880135
2	0x3e0b9b93	0.13633566
3	0xbd921093	-0.071320675
4	0xbe9812cb	-0.29701838
5	0xbea83002	-0.32849127
6	0xbe9c575c	-0.305354
7	0xbea0b33a	-0.3138674
8	0x3bf49599	0.0074641225
9	0xbd8bffc9	-0.068358965

weight f4 [5, 10]
0	0xbe18b54d	-0.14912911
1	0xbe8c65fa	-0.27421552
2	0xbef38175	-0.47559705
3	0x3db25b35	0.087088026
4	0x3dea8210	0.11450589
5	0xbe9e45bc	-0.30912578
6	0x3d6c46b8	0.05768463
7	0xbea4aa1c	-0.32161033
8	0xbd91e6b1	-0.07124079
9	0xbe249c59	-0.16075267
10	0x3ee97bc8	0.4560225
11	0xbebd47fe	-0.36968988
12	0xbff60f64	-1.9223447
13	0xbe35336d	-0.17695399
14	0x3d11ec56	0.03562578
15	0xbdc80f6b	-0.09768566
16	0xbf0a4fd1	-0.5402804
17	0x3efb6ae8	0.49105
18	0xbdf779bb	-0.12083765
19	0xbebc0601	-0.3672333
20	0xbda42da0	-0.08016515
21	0x3e84f97f	0.259716
22	0x4000b755	2.0111897
23	0xbe429f7f	-0.19006155
24	0x3d428b19	0.047495935
25	0xbe7dcd29	-0.24785294
26	0x3e1fb6cc	0.15597075
27	0x3f511ad1	0.81681544
28	0x3ea07ab1	0.31343606
29	0xbcb0a5b5	-0.02156339
30	0x3e52dfd3	0.20593195
31	0x3f184370	0.594779
32	0xbf143c4e	-0.5790452
33	0xbdd8a202	-0.105777755
34	0x3d9deb7f	0.07710933
35	0x3e78169f	0.2422738
36	0x3e257caf	0.16160844
37	0xbff7b452	-1.9351904
38	0x3f017737	0.5057253
39	0x3d6d5061	0.057937983
40	0xbe568c30	-0.20951915
41	0xbd66e18c	-0.056367442
42	0xbfc5369f	-1.5407294
43	0xbda69129	-0.08133156
44	0xbcc0eac9	-0.023549454
45	0xbd061186	-0.032731555
46	0xbd9e7701	-0.07737542
47	0xbef11b94	-0.47091353
48	0xbe90d435	-0.282869
49	0xbe8b1061	-0.27160934

bias f4 [5]
0	0xbf5a17a2	-0.8519231
1	0x3f0b1377	0.54326576
2	0xbe23493d	-0.15945907
3	0x3fca3c20	1.5799599
4	0xbfe3dbfd	-1.780151

weight f4 [10, 9]
0	0x3c768bd7	0.015047989
1	0xbe720e9c	-0.23638386
2	0x3e6cc60b	0.23122422
3	0xbe1055dc	-0.14095253
4	0x3d387bc8	0.045039922
5	0x3e3c83e4	0.18409687
6	0x3cdbec38	0.026846036
7	0x3ed67311	0.41884664
8	0x3a020c88	0.0004960974
9	0x3d556ef1	0.052107755
10	0xbf08857b	-0.53328675
11	0xbe35088e	-0.17679045
12	0xbda42248	-0.08014351
13	0xbe4b3a40	-0.1984644
14	0xbcd89000	-0.026435852
15	0x3cc7a913	0.024372613
16	0xbebf070a	-0.37310058
17	0xbe57936a	-0.21052328
18	0x3c85de54	0.016341366
19	0xbee1fad4	-0.4413668
20	0xbea4f02f	-0.32214496
21	0x3aef390c	0.0018251254
22	0xbccb241c	-0.024797492
23	0xbecaaf6d	-0.39586964
24	0x3be52de5	0.0069939964
25	0x3f0e2366	0.55522764
26	0xbe84905c	-0.25891387
27	0x3ec0d6e7	0.37663957
28	0xbdc3d1ed	-0.095615245
29	0xbf0bc35b	-0.54594964
30	0xbe01bcfe	-0.12669751
31	0x3d84f75f	0.06492495
32	0xbf8ef007	-1.1167
33	0x3e8e1302	0.27748877
34	0xbc61418b	-0.013748537
35	0x3e24737e	0.16059682
36	0x3e13bd24	0.1442762
37	0x3e93d74c	0.28875196
38	0x3f5889ef	0.8458547
39	0xbd0cc9d4	-0.034372166
40	0xbda36ab2	-0.07979335
41	0x3f8c241b	1.0948519
42	0x3e3926d2	0.18081215
43	0x3e4cc2ca	0.19996181
44	0xbea81503	-0.3282853
45	0x3d49f78a	0.049308337
46	0xbe16fa6e	-0.14743969
47	0xbef0f396	-0.4706084
48	0x3dee9958	0.11650342
49	0x3c9ff01c	0.019523673
50	0xbfa3c152	-1.2793372
51	0x3e109ee2	0.14123109
52	0xbdcb9839	-0.099411435
53	0x3e88f730	0.2675109
54	0x3df07a23	0.11742046
55	0xbf3bb2cd	-0.73319703
56	0x3f2d50cd	0.6770142
57	0x3d03ad56	0.032147728
58	0x3e52fed3	0.2060502
59	0x3ec7b617	0.3900611
60	0x3d11f872	0.035637327
61	0xbcb24ec0	-0.021766067
62	0x3cef0103	0.029175287
63	0xbdef3941	-0.11680842
64	0xbe81c350	-0.25344324
65	0x3f0cd14a	0.5500685
66	0x3c9e62df	0.019334255
67	0xbd607a5e	-0.0548042
68	0x3f832748	1.0246363
69	0xbd4b74a4	-0.049671784
70	0x3f29228c	0.6606834
71	0xbd463c7c	-0.048397526
72	0xbe5ae0c9	-0.21374811
73	0x3e660b61	0.22465278
74	0xbeb86e69	-0.36021736
75	0xbe1bb065	-0.15204008
76	0x3dfd74e5	0.123758115
77	0xbdffa295	-0.12482182
78	0x3dde9087	0.1086741
79	0xbe4c4f59	-0.19952144
80	0x3d01324d	0.03154211
81	0xbe70bb5f	-0.23508976
82	0xbdaf44d3	-0.08558049
83	0xbec0258f	-0.37528655
84	0xbeb5ce67	-0.35509035
85	0x3e8b4a1d	0.2720498
86	0xbe5a8162	-0.21338418
87	0x3dcc513b	0.09976431
88	0xbd3c5e17	-0.04598817
89	0x3e6a53f9	0.22883596

bias f4 [10]
0	0xbe942b53	-0.28939304
1	0xbe71e789	-0.2362348
2	0x3d09dc17	0.03365716
3	0x3de7aaec	0.11311898
4	0xbf01aaf0	-0.50651455
5	0x3f257344	0.64629006
6	0x3ea19443	0.31558427
7	0xbd0153ce	-0.031574063
8	0x3eaa89fe	0.33308405
9	0x3da6e0ff	0.08148383

weight f4 [1, 10]
0	0xbdab33ae	-0.083594665
1	0xbde4ab25	-0.11165456
2	0x3efeea71	0.4978824
3	0x3df65948	0.12028748
4	0xbe53f50c	-0.20698947
5	0x3dd688ec	0.104753345
6	0xbec33693	-0.38127574
7	0xbe793a0b	-0.24338548
8	0xbcd42a14	-0.02589897
9	0x3b538d49	0.0032280257

probs f4 [5]
0	0x3e4ccccd	0.2
1	0x3e4ccccd	0.2
2	0x3e4ccccd	0.2
3	0x3e4ccccd	0.2
4	0x3e4ccccd	0.2

logits f4 [5]
0	0xbfce0210	-1.609438
1	0xbfce0210	-1.609438
2	0xbfce0210	-1.609438
3	0xbfce0210	-1.609438
4	0xbfce0210	-1.609438
