src/bigfish/ppo_bigfish_model/PPO_bigfishm_40+40_5445.pth (torch, 28155 bytes, 13 tensors)

weight f4 [40, 9]
000000 44 f9 9e 3d ff db 47 3f a1 cb 51 3e fb 44 55 3d
       0.077623874 0.7807006 0.20487835 0.052067738
000010 70 3c 08 3e 7e 74 4e bd 8b 0d a8 3c db 6c 70 bf
       0.13304305 -0.050404064 0.02051427 -0.939161
000020 6d 46 93 3e c2 c8 c8 be 59 03 af 3e 01 41 2a 3e
       0.28764668 -0.39215666 0.34182242 0.1662636
000030 ad 01 34 bf 4f 76 ef be a4 b5 89 be 2a e7 84 be
       -0.7031506 -0.4676995 -0.26896393 -0.25957614
000040 1f 13 8b bc 9d 8d 4a be cf d4 94 3d eb 03 98 3c
       -0.016976891 -0.19780584 0.072671525 0.018556556
000050 c2 93 1a bd 2a 92 26 be 60 9a 55 be ba 91 1f be
       -0.03773857 -0.16266695 -0.2085967 -0.15582934
000060 fb 69 6b bf 6b 98 94 bf 72 ff f6 bd fa 7b b3 bc
       -0.9195859 -1.1609014 -0.12060441 -0.021909703
000070 ed 56 08 3f 92 72 64 bd fd f5 8a 3e 73 48 05 be
       0.5325764 -0.055773325 0.271408 -0.13015918
000080 5c 24 c9 bd d6 68 48 be e6 06 03 3f a1 dc 89 be
       -0.09821388 -0.19571242 0.511824 -0.2692614
000090 40 a3 aa 3d 2a a1 8e be ef f1 0a bd 70 63 48 3e
       0.08331919 -0.27857333 -0.033922132 0.19569182
0000a0 55 07 8b be b2 2d 35 bd 4f 8a fd 3c 80 fc f2 be
       -0.2715403 -0.04423303 0.03094974 -0.47458267
0000b0 a4 b2 f8 be 39 c7 04 3e ae bd d3 3d f1 fb db bd
       -0.48573792 0.12966622 0.10338913 -0.107414134
0000c0 f1 01 3f be 29 10 20 3e 03 65 56 be b1 20 b2 3e
       -0.18653084 0.15631165 -0.2093697 0.34790567
0000d0 29 cc 06 bd 78 21 8e be 1d 70 67 bd e7 e1 80 be
       -0.032909546 -0.2775991 -0.056503404 -0.2517235
0000e0 20 56 8b 3e cc 54 c8 be 9b 6b 93 be f8 99 b6 be
       0.27214146 -0.39127195 -0.28793034 -0.35664344
0000f0 05 cb 00 bf 23 16 4b be ca d3 3b 3e 21 23 84 be
       -0.50309783 -0.19832663 0.1834251 -0.2580805
000100 01 9b 82 be e1 3f d2 3e 64 10 39 3e ae 10 b5 3e
       -0.25508884 0.4106436 0.18072659 0.35364288
000110 ad c0 89 3e eb 3b e7 bd ec a4 89 3e e1 78 00 3e
       0.26904812 -0.11290725 0.26883638 0.12546112
000120 c6 57 6f bd b6 39 80 be cb 58 6b 3e 29 28 15 be
       -0.058433317 -0.2504403 0.2298309 -0.14566101
000130 4c 42 a3 3e eb d9 89 be 21 0a 35 3e b0 17 79 3e
       0.31886518 -0.2692407 0.17679645 0.24325442
000140 1a ae af 3e 95 2e ed bc 5b 40 87 be 22 00 b4 3d
       0.34312516 -0.028952876 -0.26416287 0.08789088
000150 f0 65 28 be 3b c0 31 be 56 ca e8 bc 90 b7 32 bd
       -0.16445136 -0.17358486 -0.028416794 -0.04363209
000160 2f 76 bd be 12 72 5e 3d 36 0f 89 3e ab 09 5c bd
       -0.3700423 0.054308005 0.26769418 -0.053720158
000170 ca 8a 85 bc 48 8d c8 3e 38 18 b4 3e 31 fc 3b 3e
       -0.016301531 0.3917029 0.35174727 0.18357922
000180 98 28 93 bf 8a 13 fd be 49 63 86 3d b1 90 9e be
       -1.1496763 -0.4942897 0.06561906 -0.30969766
000190 e2 b4 91 3e f9 ef 30 3e fd f4 c3 bd 70 d4 a6 3e
       0.28458315 0.17279042 -0.09568212 0.32583952
0001a0 3d 56 00 be fa 6d 62 be 3e 22 14 3e cd 32 7a 3e
       -0.12532897 -0.22112265 0.14466187 0.24433441
0001b0 82 49 c5 bd 0e d6 a9 be 39 96 ad be 4d 63 27 be
       -0.09633161 -0.33171123 -0.33903673 -0.16346474
0001c0 50 d1 02 3c b0 33 77 3d cc a6 d2 bd a0 4b 4f 3c
       0.007984474 0.060352027 -0.1028572 0.012652308
0001d0 4b 54 2d be c1 46 1c 3e 76 27 77 bd 53 9e 0a bf
       -0.16926686 0.15261365 -0.060340367 -0.54147834
0001e0 fe 2a 87 be 47 71 36 be 75 70 87 bd ca 90 05 3e
       -0.26399988 -0.1781665 -0.06613246 0.13043514
0001f0 5c 1b 26 bf 1b 26 97 be 59 86 b1 3e 83 e7 25 3f
       -0.648855 -0.2952126 0.34672812 0.64806384
000200 d4 30 24 3d 76 d7 e6 3c 45 c9 a0 bd 0c 44 3b 3e
       0.04008563 0.028178912 -0.07850889 0.18287677
000210 7c 8b f8 be 26 da c6 3d a8 8b 1b 3e 12 cf 93 3e
       -0.48543918 0.09709577 0.15189993 0.2886892
000220 6b e8 1a bf 9e 1d 22 3a df 68 0c bc 9d 90 09 bd
       -0.6051089 0.0006184223 -0.008569925 -0.03358518
000230 23 a5 af 3e 7a 66 d6 3d 94 ec 2c 3e 6c 7c d1 3e
       0.34305677 0.104687646 0.16887122 0.4091524
000240 b3 8f 41 be 64 97 07 3f bb c0 74 be f6 d8 9b bd
       -0.18902473 0.5296538 -0.23901646 -0.076097414
000250 9e 87 a3 bc 16 f4 59 bd 40 e1 9b 3e 46 cf 92 3e
       -0.019962128 -0.053211294 0.3044529 0.28673762
000260 80 c2 0e be cb cd 04 bf 3f 8e 15 3e f1 3e 68 be
       -0.13941383 -0.51876515 0.14605044 -0.2268026
000270 d8 5a 6c be 98 aa 44 3e 19 c8 5f 3e d1 9d dd 3c
       -0.23081529 0.19205701 0.21853675 0.027052792
000280 4f 5b 90 be dd 95 95 be 92 5f 82 3e 79 3f 57 be
       -0.28194663 -0.292159 0.2546354 -0.21020307
000290 e0 04 59 be a8 c1 a8 3d 75 9f 21 be 99 ba 84 be
       -0.21193266 0.08240062 -0.15783484 -0.25923613
0002a0 97 ef fe bd f5 3f cc be 37 5e fc 3d 6e 47 10 be
       -0.12448042 -0.39892545 0.123226576 -0.14089748
0002b0 2c fa f0 3d ba 70 7c bd 66 8f 6f 3e 91 0c e3 be
       0.117664665 -0.061630942 0.23394546 -0.44345525
0002c0 bd 92 a0 3e ce cc b4 3e 21 40 9f be 7c df 08 be
       0.31361952 0.35312504 -0.31103614 -0.13366503
0002d0 15 7d 1a 3e ca 8d d6 be 07 6f 2d be eb d1 6b 3e
       0.15086778 -0.4190505 -0.16936885 0.23029296
0002e0 dc ff d1 3d 1e e9 2c be 38 d2 11 3e 99 f8 07 3f
       0.102538794 -0.16885802 0.14240348 0.53113705
0002f0 b3 97 bf 3e 37 22 99 3e a4 59 12 3f ae c4 9f 3d
       0.37420425 0.29908916 0.5716803 0.078011855
000300 00 3f 4f 3e 14 76 7a be 70 9b dd 3c d3 39 a3 bd
       0.20238876 -0.24459106 0.027051657 -0.079700135
000310 cb 8b 30 bf 1c 83 08 3d 68 12 45 be 26 e5 87 3e
       -0.6896331 0.03332816 -0.19245303 0.26542014
000320 d4 72 ee bd 64 fa c8 be 22 72 bc 3e 6b 3e 09 be
       -0.116429955 -0.39253533 0.36805826 -0.13402717
000330 51 fa 1d be 19 0f 3b be d9 37 84 bc 50 cc d7 3d
       -0.1542752 -0.18267478 -0.016139911 0.105370164
000340 e2 b8 fb 3b ee 47 43 be 41 ed cd bd 0c 64 de 3e
       0.007681952 -0.19070408 -0.10055018 0.43435705
000350 ff a5 ac 3c 90 21 28 3e 38 bb 0b bd df 7e bb 3c
       0.021075247 0.16419053 -0.034114093 0.022887645
000360 e4 9d af be 27 df 62 be 3e 28 df 3d 3d 62 23 be
       -0.34300148 -0.22155438 0.108963475 -0.15955444
000370 d4 b1 c6 3e 99 28 86 bc 5f ca c0 3c 52 60 06 bf
       0.38807547 -0.01637678 0.023533998 -0.52490723
000380 ba aa 81 be 7b 15 a2 bd 84 e6 7b 3e 5e 5b 1a bf
       -0.25325567 -0.07914253 0.24599653 -0.60295665
000390 59 38 c5 be 0e 85 de be 31 35 b9 be 69 69 13 3e
       -0.38519552 -0.43460888 -0.36173394 0.1439568
0003a0 b3 99 e3 be 88 6a 51 be 82 0e 9c bd b5 f0 a8 3e
       -0.444532 -0.20450795 -0.07619955 0.32996145
0003b0 cc a3 1a 3d 77 36 c8 3e 5d 6e ff bd aa 2b 6f be
       0.037753865 0.39104053 -0.12472222 -0.233565
0003c0 10 09 13 bf d8 a6 e3 be 5e 03 ea 3d f2 1b 11 3e
       -0.57435703 -0.4446323 0.114264235 0.14170817
0003d0 72 07 36 3e 2d e1 12 3d 8b 02 9f 3e bc 84 a3 3e
       0.17776278 0.035859276 0.31056628 0.31937206
0003e0 12 d3 bc 3e a8 8d 10 3d 53 14 21 bf 87 0a 95 3e
       0.36879784 0.035291344 -0.6292164 0.29109594
0003f0 b5 e1 86 3e e4 45 4c be 79 e5 6f 3c 09 13 2c bd
       0.26344076 -0.19948536 0.014642113 -0.04201034

bias f4 [40]
000000 1d 36 0e 3f b6 7a 6f be c7 de eb bd 1f 1e 0a be
       0.5555132 -0.23386654 -0.11517101 -0.13488053
000010 97 82 b7 bc 72 e5 87 bd eb 5b e4 3d 19 76 e0 3e
       -0.022401137 -0.0663556 0.111503445 0.438401
000020 e8 81 7d 3e 4d b8 10 3e c9 87 4f bd 6a 54 45 3e
       0.24756587 0.14132805 -0.050666604 0.19270483
000030 96 3a c8 3d df 20 02 bf 69 06 75 bd 38 0b 90 3d
       0.097767994 -0.5083141 -0.059820566 0.0703339
000040 96 39 ce 3e eb f5 67 3e 4b e6 c5 3d ca 2f 0b bd
       0.4027831 0.22652404 0.096630655 -0.033981122
000050 f6 0a 2b be eb 79 83 3d a5 b6 cb bd 02 3b f5 bc
       -0.167034 0.064197384 -0.09946946 -0.029935364
000060 c9 2f c6 3d ca 40 96 bd 5c 6a 09 3e 9b bf c3 3e
       0.09677083 -0.07336576 0.13419479 0.3823212
000070 c9 07 fc bd cc b2 ad bd 54 6d 17 bf d5 7b 6d be
       -0.123061724 -0.084813684 -0.59151196 -0.2319177
000080 d1 d8 88 be ce be b3 be 79 13 52 be c2 91 94 3d
       -0.26727918 -0.3510651 -0.2051524 0.072543636
000090 2b d8 2d 3d ac e4 d8 bd 44 12 93 be 1e 40 bc be
       0.042442482 -0.10590491 -0.28724873 -0.36767668

weight f4 [40, 40]
000000 fc 29 8a bb 78 7b af 3d 60 dd 71 bd 39 7a 5d bd
       -0.0042164307 0.08568472 -0.05904901 -0.05407164
000010 53 12 c5 3d 7a 0a 13 be b0 dd e1 bc eb ff 93 bd
       0.09622636 -0.14359465 -0.02757153 -0.07226547
000020 8f 41 19 be ca 51 0b 3e 96 06 a3 3d b0 47 c0 3b
       -0.14966415 0.13605419 0.079602405 0.005867921
000030 40 6e 32 3e 3f 27 56 3d 5c 47 2f be 57 3d 5a 3d
       0.1742487 0.05228352 -0.17117065 0.053281154
000040 72 40 7f 3c b3 63 30 bd 1c 16 b9 bc 99 40 82 3c
       0.01557933 -0.04306383 -0.02259355 0.015899943
000050 5d af 45 be 42 0f 99 be 8f e2 ab 3d b3 1d c0 3a
       -0.19305177 -0.29894453 0.08392822 0.0014657289
000060 1e e9 5c be 2f 68 c2 bd b9 73 3d bd e4 ce 6e be
       -0.21573302 -0.09492528 -0.04625294 -0.2332111
000070 52 50 b2 bc fc 83 3b be 35 d2 14 3d 2b b8 1f be
       -0.021766815 -0.18312067 0.03633328 -0.15597598
000080 c5 19 bb 3d 77 04 32 3e 78 58 0a 3e 0f 8b b3 bc
       0.091357745 0.17384516 0.1351031 -0.021916894
000090 c7 0b c3 3d 38 fb 2f be 8a 2e 35 be a1 0d b6 bc
       0.09523731 -0.17185676 -0.17693534 -0.022223296
0000a0 41 8e 01 3d d5 89 5f 3f 1d 05 92 be b4 42 eb be
       0.031629805 0.8731969 -0.28519526 -0.45949328
0000b0 62 54 e3 3d 3d 72 13 bc 9d d1 45 be 49 54 a5 3e
       0.11100079 -0.0089994045 -0.19318242 0.32290867
0000c0 4f f6 44 3e 84 ba 5b 3e da 8a 6f be 95 26 1d be
       0.19234584 0.21457869 -0.23392811 -0.15346749
0000d0 22 5c 41 3d c6 f5 7c 3d 38 2e 9c 3d 39 b8 24 3e
       0.047207005 0.061757825 0.07626003 0.160859
0000e0 73 14 b0 3d 9c 08 80 3e 29 1f 84 be 49 05 55 3d
       0.085976504 0.25006568 -0.25805023 0.052006993
0000f0 33 4b c6 3d 1c 4d 2a 3e 33 54 06 bc 55 1e 88 bd
       0.09682312 0.16630977 -0.008198786 -0.066464104
000100 2d 0d 91 3d f3 47 23 bc 6b 3c 16 bf 4a d1 ad bc
       0.07082591 -0.0099658845 -0.5868594 -0.02121796
000110 e0 06 0e 3d 4a a0 bf 3e 1b 95 11 3a 55 82 2f be
       0.034674525 0.37426978 0.00055535295 -0.17139561
000120 ba f2 ab bd 59 2f 68 3e 83 5d 05 be 71 95 27 bc
       -0.08395906 0.22674312 -0.13023953 -0.010228501
000130 08 ee 3d bf 88 e6 d2 3c ab 19 12 3e 06 f7 48 be
       -0.7419133 0.025744691 0.14267604 -0.19625482
000140 be 06 8f bd c4 2f a2 3e 10 f1 c7 3e 00 51 93 be
       -0.06983708 0.31677067 0.39051104 -0.28772736
000150 84 a1 92 3c 72 72 8e be ce cd 93 be d8 ba 96 3e
       0.017899282 -0.2782169 -0.28867954 0.29439425
000160 75 d2 74 3e 4d 26 db 3c 8d ec c8 3e 4c 65 3f 3e
       0.23908408 0.026751662 0.39242974 0.18690985
000170 73 8e 59 3d 24 f8 34 3e 45 26 e8 3e c6 f6 6b 3e
       0.053114366 0.17672783 0.45341697 0.23043355
000180 4f 42 2f be 31 7f 4b be 81 97 82 3e f5 b7 c9 3c
       -0.17115138 -0.19872738 0.25506213 0.02462385
000190 19 4d bb 3c a1 ba b4 be 72 0c 2d 3e eb 1a 72 3a
       0.022863911 -0.35298637 0.16899279 0.00092355785
0001a0 0b e2 f2 3e 1f 4d 50 3a 08 e4 a9 bc c3 77 9e 3e
       0.47438082 0.0007946062 -0.020738617 0.30950746
0001b0 6a 79 1f 3e 60 4f aa 3c 70 99 1e 3d 98 e1 9f be
       0.1557366 0.020789802 0.03872055 -0.31226802
0001c0 a0 72 87 be 29 f8 00 3e 63 0f a8 3d 05 a9 8b be
       -0.2645464 0.12594666 0.0820606 -0.2727739
0001d0 d0 6c 69 bf a2 d6 31 3e 1f d4 e1 be 77 14 84 3e
       -0.9118166 0.17367032 -0.44107148 0.25796863
0001e0 55 33 ce bf e8 d5 e0 be 0a 07 63 be 0a 9b c5 3d
       -1.6109415 -0.43913198 -0.22170654 0.09648712
0001f0 90 63 ad 3c e6 83 91 3d 05 e1 79 be a2 63 55 3e
       0.02116564 0.07105236 -0.24402244 0.20838788
000200 b3 4d b4 3d d8 8c 14 3c f9 68 80 bc 3e 18 e4 3d
       0.088038824 0.009066783 -0.015675055 0.11137436
000210 b7 c7 9f bd b7 1f 12 3d c4 41 cb bd 51 87 00 3e
       -0.078017645 0.035674777 -0.09924653 0.12551619
000220 30 72 3e be f6 66 72 3e 91 0a 3b 3e de ef 53 be
       -0.18598247 0.23672089 0.1826575 -0.20696971
000230 b1 57 6b 3e 12 71 0a bf 50 16 f8 3d 21 bb 10 3e
       0.2298267 -0.5407878 0.12113631 0.14133884
000240 22 b1 c4 3d 99 94 a5 bd 2f 6c d6 3c 08 34 21 bd
       0.09604098 -0.080849834 0.026174633 -0.03935626
000250 9b 69 6a 3e 85 14 5d 3e 5d 06 24 3e fa a8 cd be
       0.22891848 0.21589859 0.16018052 -0.4016798
000260 be d1 13 3e 1e 47 14 be 48 94 51 bd 2a fb fa 3d
       0.14435479 -0.14480254 -0.051166803 0.12254937
000270 5c 7e 7b 3d 11 f3 b7 bd 4b 9d 75 3e 6d 9b 02 be
       0.061399803 -0.08981908 0.23985784 -0.12754603
000280 f0 dd 40 3d be d4 52 3b 61 93 16 3f 37 5c ca 3d
       0.047086656 0.0032170261 0.5881863 0.0988087
000290 1f 8f a4 3e ea 51 41 bf 53 c0 c8 3e b7 74 cc be
       0.32140443 -0.75515616 0.39209232 -0.39932796
0002a0 b3 92 8f bd 4c 02 79 bd c9 d9 6e 3d 71 8d 85 bd
       -0.070104025 -0.060793206 0.058313165 -0.065211184
0002b0 ee af fc 3d ea c9 f6 be ee 46 89 3e 4f 21 04 3d
       0.123382434 -0.48200923 0.26811928 0.032258328
0002c0 64 c4 e3 be f8 bc 04 3e 7c bf 0d 3f 13 16 ce 3e
       -0.44485772 0.12962711 0.55370307 0.40251216
0002d0 38 8b 6a be 3a c5 09 3e 07 2c dd 3e 99 9d 39 be
       -0.2290467 0.13454142 0.43197653 -0.18126525
0002e0 b5 9f dd 3d d5 15 5c be f5 fd 87 be 2a 96 d8 be
       0.10821477 -0.21492703 -0.2656094 -0.42302066
0002f0 75 60 44 3d 90 d7 43 3e fb ae b0 be aa 85 2c 3e
       0.04794355 0.191252 -0.345085 0.16847864
000300 59 29 3f be 54 c7 08 bf 97 ed d4 3d 78 a4 fa 3e
       -0.18668117 -0.5342915 0.10396879 0.48953605
000310 1b bd a2 bd 64 d4 ba bc 39 84 59 3e 0f 0c f5 3e
       -0.07946225 -0.022806354 0.21241845 0.47860762
000320 71 e3 bc 3e 96 53 e0 be ec ec ec bd 30 e8 3e 3e
       0.36892274 -0.4381377 -0.11568627 0.1864326
000330 03 d4 31 3e 3a 9e bc be e5 f3 21 3e ab 63 86 3e
       0.17366032 -0.36839467 0.15815695 0.26247916
000340 57 5b d1 be f2 13 77 be 82 c0 08 bf cc 2f b4 be
       -0.4089 -0.24128702 -0.53418744 -0.35192716
000350 b5 f2 09 3e 6d d8 4c be 76 ed 80 be 92 79 1c 3e
       0.13471492 -0.20004435 -0.25181168 0.1528075
000360 0e ec 2c be 00 db b4 bd 41 c2 64 bf 2c 16 d7 3d
       -0.16886923 -0.088308334 -0.8935891 0.10502276
000370 ed 80 51 3d fb de a1 3e c7 d1 eb 3e 00 4a 5d be
       0.051148344 0.31615433 0.46058485 -0.2161026
000380 81 bf 49 be b1 4f 65 be 8b 25 04 be 55 43 d2 3c
       -0.19701959 -0.22393681 -0.12904947 0.025666872
000390 95 b1 25 3d 5f 73 f3 3e 53 bf 26 bf 81 75 0d 3f
       0.04045256 0.4754896 -0.6513569 0.5525742
0003a0 0c 21 45 bd f0 c8 a2 be 92 86 99 be 6f 2b b6 b8
       -0.04812722 -0.31793928 -0.29985482 -8.6865264e-05
0003b0 a7 9e 89 3e 89 de 8d be 1a 2a 97 bd 1e aa d1 3d
       0.26878855 -0.27708843 -0.07381077 0.102375254
0003c0 ef 79 c4 be 3e ff f1 3e 92 ef 37 3e cc ff 9c be
       -0.38374278 0.47265047 0.17962483 -0.30663908
0003d0 5a 84 13 3d 9b 48 a4 3e ad 23 c9 3d 8b 88 80 bd
       0.036014892 0.32086644 0.09821258 -0.062760435
0003e0 c1 21 e7 bd 34 c7 17 3b c6 42 06 3e e1 f8 99 be
       -0.11285735 0.0023159506 0.1311141 -0.30072692
0003f0 aa b6 03 3e 54 cf c5 38 4c 19 63 bf e9 f1 49 bd
       0.1286265 9.43231e-05 -0.88710475 -0.04930297

bias f4 [40]
000000 f0 a1 d9 bd 6e 66 3e 3e ab 54 8d 3e ca 3c e1 3d
       -0.1062659 0.18593761 0.2760366 0.10997923
000010 e2 a7 df bd 3a 97 b2 3e 70 a9 0a 3e f8 ee 8c 3e
       -0.10920693 0.34881002 0.13541198 0.2752607
000020 b8 15 89 bd 76 34 54 3e bc c4 18 3e 3e 2c 54 be
       -0.06693596 0.20723137 0.14918798 -0.20720002
000030 e4 10 4a be 9c a6 c2 3b 68 9e bf be 81 1b 65 be
       -0.19733006 0.0059402715 -0.37425542 -0.22373773
000040 df 9c 2b 3e 0c 4e ff bd 94 8f c9 bb 37 e3 cd bc
       0.1675906 -0.12466058 -0.006151149 -0.025132759
000050 c9 61 00 3e 68 ca 60 3e 7b 20 88 3e 91 3e f5 3d
       0.12537302 0.21952212 0.2658728 0.11974824
000060 21 99 34 be 26 6b 68 be c6 b3 9f bd bf 20 b0 3d
       -0.17636539 -0.22697124 -0.07797961 0.08599996
000070 60 7e 8c 3d fa 5b 55 3c 7d d2 46 3e 50 f1 c6 bd
       0.068600416 0.013022417 0.19416232 -0.097139955
000080 35 89 31 3e 82 f5 4c be c4 b2 e2 bd cd 3b 3a be
       0.17337497 -0.20015529 -0.11069253 -0.18186875
000090 0a a6 52 bd 40 01 16 be 58 6c 2b bd 32 91 a6 bd
       -0.05142788 -0.14648914 -0.04185137 -0.081331626

weight f4 [5, 40]
000000 1f 0c 01 bd 68 c7 04 3e 3a e5 16 be ac da ed bd
       -0.0315057 0.12966692 -0.1473588 -0.11613974
000010 05 5c e1 bd 98 f0 41 3c 78 11 96 be e7 3c 96 be
       -0.110038795 0.011837147 -0.29310203 -0.2934334
000020 53 83 2e bd 0a 19 0c 3e 1c fa 94 bd 21 94 d4 bc
       -0.04260571 0.13681427 -0.07274267 -0.02594954
000030 31 ae 38 3d 57 9b f2 bc ce 97 e0 3e 6c b7 22 3e
       0.045087997 -0.029615087 0.43865818 0.15890282
000040 87 05 a9 3e d4 e0 85 bd 82 4b a2 3d 42 75 95 3e
       0.3301203 -0.06537023 0.07924558 0.29191023
000050 41 6f 5e be 10 66 04 bf fc 38 0d 3e 45 1a 60 3e
       -0.21722127 -0.51718235 0.13791269 0.21885021
000060 ca 18 0a 3e 3b 0b eb bc 72 7c ca be 9e 6a 04 3e
       0.13486019 -0.028691879 -0.3954807 0.12931296
000070 49 7e 80 3e 5c e2 31 bd c2 e6 7d 3e cd 14 d3 3d
       0.25096348 -0.043428764 0.24795058 0.10306702
000080 62 7b ba bc 38 9a c5 bd 56 f3 72 3e ed 32 be 3d
       -0.022763912 -0.096485555 0.23725638 0.09287057
000090 9b bb 0d 3d b1 64 de bd d9 28 14 3e 39 38 c5 bc
       0.034602743 -0.10859049 0.14468707 -0.02407466
0000a0 ed 67 2c 3c b5 2c 5d be 7d a4 a7 bd 55 99 b7 3e
       0.010522825 -0.21599086 -0.081856705 0.3585917
0000b0 05 55 e2 3e 6f 14 91 be 24 18 a3 3e b4 e0 92 3d
       0.4420549 -0.28335902 0.31854355 0.07171765
0000c0 8a d0 e7 bd 6b 9b 70 bb a9 7d b6 3e 92 fc 14 be
       -0.113190725 -0.003671373 0.35642746 -0.14549473
0000d0 62 23 9f 3e 33 3e 31 bd 36 86 17 3c 98 e0 f3 bd
       0.31081682 -0.04327221 0.009248307 -0.11908072
0000e0 2f a9 b9 bd e6 1d 85 bd 7f f2 a2 3e 1b 76 e3 3e
       -0.09065472 -0.06499843 0.31825635 0.44426045
0000f0 99 38 85 bc 9c e0 7e be 7e cc d7 3e 28 23 41 be
       -0.01626234 -0.24890369 0.42148203 -0.18861067
000100 37 c3 a8 3e c0 a2 97 be fb 49 32 3e 06 49 8f bd
       0.32961437 -0.29616356 0.17411034 -0.0699635
000110 a7 c7 b3 3d a6 a0 df bd e1 cb a9 3d 9d 20 a7 3c
       0.08778315 -0.10919313 0.0829084 0.020401293
000120 ec 2d b7 bd 93 7a 14 bb 46 85 a3 bd 71 15 3c be
       -0.08944306 -0.0022656068 -0.07984404 -0.18367554
000130 b5 9d 19 bf ac 2e a4 bd ba 62 43 3e 40 42 ce be
       -0.60006267 -0.080167145 0.1908063 -0.4028492
000140 5b 87 9e 3d f1 21 2c 3e 41 4f 1f bd f6 3b 2d 3e
       0.07740661 0.16809823 -0.03889394 0.16917405
000150 19 8f b7 bd 4b 91 81 bd 78 6e 19 bf 45 de f5 3e
       -0.089628406 -0.063265406 -0.59934187 0.4802114
000160 5a 68 dd bd 4d 2f 72 3e 15 91 a2 be b3 71 96 bd
       -0.10810919 0.23650856 -0.31751314 -0.07345905
000170 b0 df a9 be e8 11 43 bc 6f a6 d1 bd 01 40 a5 bd
       -0.33178473 -0.011906125 -0.10236823 -0.080688484
000180 60 66 99 3e aa da 33 bd a1 7e 43 be 5d 82 c8 be
       0.29960918 -0.043909706 -0.19091274 -0.3916196
000190 a9 6e 29 3d 9d d0 62 3e 36 d9 c6 be 05 46 0a 3e
       0.0413653 0.22149892 -0.38837594 0.13503273
0001a0 9d 4c 96 3e ac 31 bd 3d 65 30 56 3e 14 d2 c1 be
       0.29355326 0.0923799 0.20916899 -0.3785559
0001b0 90 f1 18 be e1 72 82 bd a2 a3 31 3d 4b 7c db bb
       -0.14935899 -0.06369568 0.043368943 -0.0066981665
0001c0 21 54 10 3e bf dd f2 3b 22 89 73 bd c6 4b ec 3e
       0.14094593 0.007411688 -0.059456952 0.4615156
0001d0 8c 6b 5b 3e d8 7b b8 3d 22 d7 1c 3e 60 58 bd 3d
       0.21427745 0.09007996 0.15316442 0.09245372
0001e0 a3 96 5a 3d 5d 5b 60 3e 9d ea d3 3e 6a f9 5d bf
       0.053366315 0.21909852 0.41389933 -0.867087
0001f0 23 ab a3 3e de 48 c4 be 7d 69 71 3e bb c2 06 bf
       0.31966504 -0.38336843 0.23575397 -0.52640885
000200 87 ec 59 3e 07 fb e2 be 6b 15 46 3d 3d 1a 0d 3e
       0.21281634 -0.44332144 0.04836027 0.1377954
000210 37 82 ce 3c 74 32 06 bd fe 65 9b 3d a7 a3 ab bd
       0.025208576 -0.03276296 0.07587813 -0.083808236
000220 8a 85 17 bf 9d 01 da bd 4a 12 81 be 71 7a fc bd
       -0.5918814 -0.10644839 -0.25209266 -0.12328041
000230 bb d5 c3 3d 38 3b 29 3e eb 32 68 3d b7 d0 74 3e
       0.0956225 0.16526496 0.056689184 0.23907743
000240 50 2a a8 be 7a 82 7a 3e 97 8d c1 3c a5 f0 17 3e
       -0.32844782 0.24463835 0.023627086 0.14837892
000250 22 18 1f 3e 4e fc 56 3d d6 55 12 3e 14 22 42 be
       0.1553655 0.05248671 0.14290556 -0.18958312
000260 f6 3b 3e 3e 26 10 20 3e 6d 79 56 3e a4 00 d5 be
       0.18577561 0.1563116 0.20944758 -0.4160205
000270 ee f5 b2 3d 6f fa 23 bd aa bb 5d bd 2a 3c 0f 3f
       0.087383136 -0.040033754 -0.05413405 0.5595118
000280 86 3e c7 3d 46 12 92 bd a3 1e 9d 3b 92 5f 13 3e
       0.09728722 -0.07132392 0.004794912 0.14391926
000290 d4 15 48 bf 61 42 0d 3f 97 49 56 3e 31 a6 4e 3d
       -0.7815831 0.5517941 0.2092651 0.05045146
0002a0 2b f9 b5 bd 96 f8 30 3e 26 b1 70 be a6 3a 37 bd
       -0.08885416 0.17282328 -0.23505077 -0.044733666
0002b0 98 03 4d 3e 05 f2 4b 3d 86 85 51 be f6 81 dc 3c
       0.20020902 0.049791355 -0.20461091 0.026917439
0002c0 a1 88 75 3e 73 31 5c 3d 01 5f 8e 3e d0 13 9e 3d
       0.23977901 0.053758096 0.27806857 0.07718623
0002d0 a3 f8 04 3e 5a c2 4c 3d 15 12 ba be 82 06 66 bc
       0.12985472 0.049990036 -0.3634192 -0.0140396375
0002e0 cf 53 98 be 14 13 84 3d 6a c0 cb bc 83 2b 45 3e
       -0.2975144 0.06448951 -0.024872024 0.1925488
0002f0 9d e0 15 be ca c6 10 3d 87 fb 9a be 82 ea b4 3d
       -0.14636464 0.03534583 -0.30270025 0.08833791
000300 5a 77 e7 bd b5 fc 8f 3d 2d f9 34 be c1 b9 36 be
       -0.113020614 0.07030622 -0.17673178 -0.17844297
000310 34 70 b8 3d 09 df 12 3e 51 c9 e4 bc 0c 17 d8 3e
       0.09005776 0.14342894 -0.027928026 0.42205083

bias f4 [5]
000000 ad c0 72 be a8 9a 9d bd b7 89 9f 3d 52 0c 9a 3e
       -0.23706312 -0.07695514 0.07789939 0.30087525
000010 55 49 ce bd
       -0.10072581

weight f4 [40, 9]
000000 66 ac 2e bb fb 4a e1 be 75 0f 39 be 30 c7 a3 bc
       -0.002665305 -0.44002518 -0.18072303 -0.019992441
000010 34 d4 18 3e e3 b1 7e be 2c 8e 7f 3d cc 60 96 3e
       0.14924699 -0.24872546 0.062391445 0.29370725
000020 e6 ba 37 3d d5 4e 75 3d 34 51 f9 3e c4 2c 8c 3d
       0.044855975 0.059889633 0.48694766 0.06844476
000030 3d 67 d1 3c c1 a7 85 3c 41 0a e1 bd 44 0e 8f bc
       0.025561923 0.016315343 -0.10988284 -0.017462857
000040 1e 80 f3 be 0e c9 c5 3e 82 e4 84 3d e5 a6 b7 3e
       -0.47558683 0.38629955 0.06488897 0.35869518
000050 5a 8e 18 3e 2f a3 00 3c 46 5c ba 3d 2e 90 d7 3d
       0.14898053 0.007851406 0.09099631 0.10525547
000060 bd e7 c6 3b f9 71 04 bf 58 e8 5c 3e 89 96 9a 3d
       0.006070106 -0.5173641 0.21573007 0.075482436
000070 ea 0f a2 bc c8 25 ac 3e 78 e2 cb 3d 51 e9 b2 be
       -0.019782979 0.33622575 0.09955305 -0.3494363
000080 be 1d e9 3e ba b5 03 be b1 ad a9 3d 4d 55 2e 3c
       0.45530504 -0.12862292 0.08285082 0.0106404545
000090 b5 99 63 3d fa 23 b0 3d be 8b 0f 3e 3f fc b0 bd
       0.05556651 0.08600612 0.14018151 -0.08641862
0000a0 e3 a2 4a be 5e f8 a5 bd 21 01 17 bf 6f e2 a2 3e
       -0.19788699 -0.08104013 -0.589861 0.3181338
0000b0 1d 51 17 be fb 27 2f 3d 77 fb 46 3e 1d 79 9c 3d
       -0.14777036 0.042762738 0.19431864 0.07640288
0000c0 80 3e f4 bd aa a7 c5 be 89 4f bf bd 4b 56 d6 bc
       -0.119259834 -0.3860448 -0.09341342 -0.026164195
0000d0 30 ce a5 bd 02 78 83 3e 9f 86 52 bc a0 da 87 3e
       -0.08095968 0.25677496 -0.012849479 0.26533985
0000e0 a6 6f 8f be b6 d5 6d bd d8 52 c4 3d dc ef 81 3e
       -0.28014868 -0.05806514 0.09586114 0.2537831
0000f0 a2 af 22 bd 6d f5 b3 be b2 3f 6b be f0 d4 9c be
       -0.039718278 -0.35148183 -0.22973517 -0.30631208
000100 e8 0c 96 bd b8 42 1d be 28 18 3a 3e 87 6a 9b be
       -0.073266804 -0.15357482 0.18173277 -0.3035471
000110 3c 2b ab 3d 73 30 b3 be 63 d2 c6 3d 69 66 87 be
       0.08357856 -0.349979 0.09708097 -0.2644532
000120 78 df 77 be 95 c8 54 bd 7c 78 76 3e 88 8d 19 bd
       -0.2420634 -0.051949102 0.24069399 -0.03748849
000130 bb 72 02 3e aa 0e 84 3d 6e b4 13 3c 53 5c 87 be
       0.12739079 0.064481094 0.009015186 -0.26437625
000140 c1 7d 17 3e ed 50 6f be e4 b2 06 be c5 ba d9 3d
       0.14794065 -0.23370714 -0.13154179 0.106313266
000150 09 78 13 3d b1 ce 0c bf 28 73 9f 3d 0e 1d f1 3d
       0.036003146 -0.55002886 0.07785636 0.1177312
000160 54 8a a2 3e 5c 8c 4b 3c 70 88 d2 be 26 1a a0 be
       0.3174616 0.012423601 -0.4111972 -0.3126995
000170 20 71 1d be 9f ad 71 3d 23 b2 65 bb b4 f5 57 be
       -0.15375185 0.05900347 -0.0035048805 -0.21089822
000180 be 3f 44 3c e4 ac 38 3e 31 82 4a 3e a8 c4 c2 3d
       0.011978088 0.18034703 0.19776227 0.095101655
000190 04 f7 82 bd b9 c4 98 be 69 ce 24 3e da 76 6c 3e
       -0.06394771 -0.29837587 0.16094364 0.23092213
0001a0 8a 4f da be 69 f2 c2 bc 84 4d 3a be 9a 1d 0b 3d
       -0.42638808 -0.02379723 -0.18193632 0.033963777
0001b0 fb 59 43 be 5f 2d 80 be 46 f5 41 be a0 d6 12 be
       -0.19077294 -0.25034615 -0.1894122 -0.14339685
0001c0 db d3 20 3e 6d 21 08 be 79 e1 8e be 53 0a b7 3e
       0.15705816 -0.13294001 -0.27906397 0.35750064
0001d0 aa 05 90 3e 49 a6 aa be 7a b8 96 3c 82 5e 2c be
       0.2812932 -0.3332999 0.018398512 -0.16832927
0001e0 00 c0 c7 bd c6 8d 32 be 65 b3 64 be bb ea 14 3e
       -0.09753418 -0.17436895 -0.22334059 0.14542668
0001f0 d9 8a 5a 3d 19 ff ce 3d a2 17 a2 3d 3e ba 08 bd
       0.05335507 0.1010725 0.07914664 -0.03338074
000200 32 07 f8 bd 5b 8e 10 3e 2f 82 74 bd fe 49 ec bd
       -0.121107474 0.14116804 -0.059694465 -0.115375504
000210 a1 b8 10 bf 21 f5 d4 bd cc ee ad be 49 ed e0 3d
       -0.5653172 -0.10398317 -0.3397125 0.109827586
000220 b0 7f 1d 3e 9c 57 1e 3e b8 21 f3 3d 4b 51 1a be
       0.1538074 0.15463108 0.11871666 -0.15070073
000230 d3 e5 3c bc cc 8f 6f be 27 e0 21 be 17 20 18 bd
       -0.011529404 -0.23394698 -0.15808164 -0.03713998
000240 97 6f b8 3d cf de 53 3c 0a f1 58 bc 4c 6f 09 be
       0.09005659 0.01293154 -0.013241062 -0.13421363
000250 de d7 74 3d e9 80 8d be 8b 48 82 bc cb a8 d9 bc
       0.05977618 -0.27637413 -0.015903732 -0.026569745
000260 f2 61 cb 3d db 44 d5 bd 2e c8 cd 3d 7c 54 99 3c
       0.09930791 -0.10413524 0.10047947 0.018717043
000270 b0 e0 2b be 2e 76 7d 3d da fb 98 3e ef a3 c3 3b
       -0.1678493 0.061880283 0.29879647 0.00597047
000280 f7 89 b3 3e 78 09 00 be 7a 07 f2 be 0d f0 82 be
       0.35066196 -0.12503612 -0.4727133 -0.2557377
000290 20 70 79 be 03 42 4c 3e 91 f8 d8 3d e9 d2 96 3e
       -0.24359179 0.19947056 0.10594285 0.29457787
0002a0 4f 65 7e 3d 47 9c b7 be 53 7e dc bd 90 3e fc 3d
       0.062108334 -0.35861418 -0.10766282 0.1231662
0002b0 5b a7 ce be b9 69 78 be 5d d4 03 3e ce e3 51 bf
       -0.40362057 -0.2425908 0.12873979 -0.8198823
0002c0 13 ee ed bd bc bc 0f be 2b a6 50 3e 98 94 08 3e
       -0.11617675 -0.1403684 0.20375888 0.13337934
0002d0 6e 42 b7 3d f9 be aa 3e 5c 0f cf 3e e1 90 8f 3c
       0.08948217 0.33348826 0.40441406 0.017525138
0002e0 de af 97 3c 56 0a ce 3e 18 83 30 bd 77 c1 c6 be
       0.018516477 0.4024226 -0.04309377 -0.38819477
0002f0 28 fd a9 3d 8b 35 57 be 52 a7 8e be f8 fc 1c bd
       0.08300239 -0.21016519 -0.2786203 -0.038327187
000300 9b d0 8a be 4b 07 39 be 7a a5 8f be 32 41 8c be
       -0.27112278 -0.18069188 -0.28055936 -0.2739349
000310 70 88 b9 bc b0 a2 a5 be b4 f2 5a be 9b 71 47 3d
       -0.022648066 -0.32350683 -0.21381646 0.048692327
000320 16 d0 97 bd 7d a6 9b 3d 62 51 91 bd f7 ef cb be
       -0.07412736 0.076001145 -0.07095601 -0.39831516
000330 1a 2e 10 be 30 7c bb 3e bd 69 58 3e 5e c7 e7 be
       -0.14080086 0.36618185 0.21134086 -0.45269293
000340 97 08 8a 3e f3 e5 cc 3e 1e 96 ae 3d 80 a6 c2 bc
       0.2695968 0.40019187 0.08524726 -0.023761034
000350 c2 b4 73 bd da d4 fe bd b1 77 5c 3c 9e 58 8f be
       -0.059498556 -0.12442942 0.013456271 -0.27997297
000360 54 97 45 3e ff 5f 77 be af c9 d7 bd 04 bd 9c 3c
       0.19296008 -0.24157713 -0.10536515 0.019133098
000370 f8 cd 89 3d e6 fe 15 3e 98 af 01 be a3 50 54 be
       0.067287385 0.14648017 -0.1266464 -0.20733885
000380 a1 5c ff 3d 32 7a 1f 3e 12 3b f6 be 08 c7 de be
       0.124688394 0.15573958 -0.48091942 -0.43511224
000390 ef 1a b1 3b a1 cb 0f be 84 05 69 3e 9b ee d7 3c
       0.005404822 -0.14042522 0.2275601 0.026358893
0003a0 7d ad c8 3e 0b 9f 4d 3e 6b 58 1b be 79 78 57 be
       0.3919486 0.20080201 -0.15170448 -0.2104205
0003b0 66 cb 5d bc 0a a5 2c be c4 86 4d 3e 4e 57 9e bd
       -0.0135372635 -0.16859832 0.2007094 -0.07731496
0003c0 21 62 27 3e 9d 08 f4 bc 06 da a2 be 5d 13 9a 3d
       0.16346027 -0.029789263 -0.31806964 0.075232245
0003d0 7f ca fc 3e b2 88 08 bb b3 f4 0d 39 1a 67 69 bc
       0.49373242 -0.002083343 0.00013537965 -0.014245773
0003e0 67 6c 27 be f1 94 6f 3b e9 03 20 bf 5f 17 ce 3e
       -0.16349946 0.0036557282 -0.62505966 0.40252206
0003f0 90 f2 21 be 68 bf 48 3d c6 77 35 bd 7b 7f f9 bd
       -0.15815187 0.049010664 -0.044303678 -0.12182518

bias f4 [40]
000000 95 59 cd 3d 0c 81 ae 3e 46 c0 c1 bd a1 8e 58 be
       0.10026852 0.3408283 -0.094605014 -0.21148159
000010 10 89 5a 3d d1 ee 0f 3e 4e dc 44 be 77 cd a8 bd
       0.05335337 0.14055945 -0.19224665 -0.08242314
000020 7b da 9f 3e 1f 7e a2 be f4 bf 60 3d 8c c8 08 3e
       0.31221375 -0.31736848 0.05487056 0.13357753
000030 b8 01 67 be 66 4a 02 be 48 3a 6b 3b d5 b0 88 be
       -0.2255925 -0.12723693 0.0035892893 -0.26697412
000040 b8 ac 4f be 07 d4 05 be e8 95 82 3e a0 e8 26 3e
       -0.2028073 -0.13069163 0.25504994 0.16299677
000050 7d b4 52 3e 4b c1 93 3e f8 f7 80 be 6e 79 24 3e
       0.20576663 0.28858408 -0.25189185 0.16061947
000060 d5 8d 01 bd 4e 31 f3 3c f6 f6 75 be 43 ba c7 3e
       -0.031629402 0.029686596 -0.2401999 0.39009294
000070 f9 87 14 bd ac 38 5f 3e b1 01 72 be 7f 06 a2 be
       -0.036262486 0.21798962 -0.23633458 -0.3164558
000080 08 55 49 3c 79 46 35 3c 47 f1 b6 be 7e a2 a6 3d
       0.012288339 0.011064165 -0.35730955 0.08136462
000090 8b e3 01 3e ce 07 0d 3e f2 6d 23 3c 77 22 a3 3e
       0.12684457 0.13772509 0.0099749435 0.31862232

weight f4 [40, 40]
000000 f9 dd c2 bd ae cc b4 3d a7 69 f3 3d 58 c8 8b be
       -0.09514994 0.08828102 0.11885386 -0.27301288
000010 e7 0a fa 3c 1e cd 7f be e2 1a 63 3d b7 84 a8 3c
       0.030522777 -0.2498059 0.05544556 0.020571096
000020 41 14 88 ba 8b bf f0 bd 02 95 63 3d ea 5b 48 be
       -0.0010382013 -0.11755284 0.055562027 -0.19566312
000030 0c ab 9d 3d 88 c8 13 3e ff ab d5 3d 9b 3c 3a bd
       0.0769864 0.14431965 0.10433196 -0.045467954
000040 2c 73 70 be c0 2a 48 bc 82 6f 07 3e 07 3c 07 3e
       -0.23481435 -0.012217224 0.1322613 0.13206492
000050 4e 41 ff bd 40 6d 87 bc 83 ca 4c bd cc e5 8d 3e
       -0.12463628 -0.016531587 -0.049997818 0.27714384
000060 64 cf a7 be b8 e9 76 3e f7 83 3e be 8f d2 b9 3d
       -0.32775414 0.24112594 -0.18605028 0.09073364
000070 4e 68 93 be 9f cf 43 be 49 5e ab 3d 80 c1 fa bb
       -0.28790516 -0.1912217 0.08367593 -0.0076524615
000080 b1 47 2e be 0c 7c b5 bc b3 94 9c bd 2c 9a 39 be
       -0.17019536 -0.022153877 -0.076455496 -0.18125218
000090 e6 89 9e bd 8f 31 f8 bd f6 ea 6a ba 92 23 08 be
       -0.07741146 -0.121188276 -0.00089614035 -0.13294819
0000a0 84 0e 8c bd 64 c4 20 3d 86 03 79 3d 1c b0 c7 bd
       -0.06838706 0.039249793 0.060794376 -0.09750387
0000b0 99 d9 24 bd 1d 23 1e 3e 7a 86 38 bd 12 8a a1 3e
       -0.04024658 0.15443082 -0.04505012 0.31550652
0000c0 a3 bf 06 3e 5a 8d c7 bd 30 d3 24 3e a1 14 35 be
       0.13159041 -0.097437575 0.16096187 -0.1768365
0000d0 50 fa 84 3d 16 e8 85 3d 61 24 b5 3c 0b 20 a6 3d
       0.06493056 0.065384075 0.022112073 0.081115805
0000e0 3f 4e a3 be f7 fa c4 bd a8 1b e4 3d 89 fe cc bd
       -0.31895635 -0.0961818 0.111380875 -0.10009486
0000f0 bd c0 0c 3e 40 88 c8 bb 36 16 86 bd 0c b3 a0 3d
       0.13745399 -0.006119758 -0.06547205 0.078466505
000100 a6 dd 03 be f7 b1 44 be 59 31 45 3e 0d 18 90 bd
       -0.12877521 -0.19208513 0.19257106 -0.07035837
000110 b1 53 41 3e 51 16 45 3e 72 ae e7 3c 3e 01 c5 3d
       0.18879582 0.19246794 0.028281424 0.096193776
000120 b0 7c 18 bd eb dc 01 3e 4d f5 c8 bd b0 6e b7 bd
       -0.037228286 0.1268193 -0.098124124 -0.08956659
000130 ff 58 4c 3c 95 7d 2a 3e be 2b 5d bd 00 cc 33 3e
       0.01247239 0.16649468 -0.053996794 0.17558289
000140 db ee 85 be a2 43 f2 bd 9c 82 42 3e b7 f5 73 bd
       -0.26158795 -0.11829306 0.18995136 -0.059560504
000150 f2 d4 35 bc 82 e9 cb 3e 91 7e 36 3c 0b 09 01 3e
       -0.011098133 0.3982659 0.011138574 0.12601106
000160 85 86 90 be ca 79 20 3e 00 98 29 be ed 8c df bc
       -0.2822763 0.15671459 -0.1656189 -0.027288878
000170 14 e7 81 3a e0 19 83 be 97 24 ed 3d fe 0c 29 3e
       0.0009910786 -0.2560568 0.115792446 0.16508862
000180 17 3e 77 3d 4c f2 ba be 14 db 2c be a0 22 32 3e
       0.060361948 -0.36512983 -0.16880447 0.17396021
000190 8c 8c 85 3e 2b 1d 03 3e 6f 0f 43 3d 48 e5 a8 3d
       0.2608379 0.12804095 0.04762214 0.08246857
0001a0 bd d0 c0 3e 9a 15 c9 3d ed 81 4d bd ff 3f 92 bd
       0.37659255 0.09818573 -0.050172735 -0.071411125
0001b0 9c 2c 88 3c 1a 82 b7 bc 13 87 fe 3c 19 5e 27 be
       0.016622834 -0.022400904 0.031070268 -0.16344489
0001c0 ad 23 b5 3c a9 00 52 ba 42 08 61 bd 39 c0 ba bd
       0.022111738 -0.00080109626 -0.054939516 -0.09118695
0001d0 7d 44 ed bd a8 21 86 be 8f 2e 08 3e 24 d3 9d 3e
       -0.11585329 -0.26197553 0.1329901 0.3082515
0001e0 02 80 d6 bc 5f 67 d3 bd 42 3b 49 be 5c 56 34 bd
       -0.026184086 -0.10322451 -0.19651511 -0.04402767
0001f0 78 c3 b2 bc 42 3e 08 3d 6d a3 2f be a9 03 d9 3d
       -0.021821722 0.0332625 -0.17152186 0.10596401
000200 dd 12 b5 3a df 8a e2 bd eb be 2c bd fb 70 4c be
       0.0013814826 -0.11061644 -0.04217426 -0.19964974
000210 7e 39 ee bd 0d 15 b5 bd 31 35 fd bc c0 07 b3 3d
       -0.116320595 -0.08841906 -0.030909153 0.087417126
000220 d2 c3 26 be 52 a5 40 bd 06 c9 ed bd 6e 9b 5e bd
       -0.16285637 -0.04703266 -0.11610608 -0.054347448
000230 02 8b 03 3d 58 df 66 3d eb a1 15 be 0f 93 26 3d
       0.03211499 0.05636534 -0.14612548 0.04066759
000240 32 11 5e 3c d5 ae 60 bd 7b f1 83 3d 84 0e 94 be
       0.013553904 -0.054854233 0.06442543 -0.28917325
000250 8a bb 8e bd dc d4 23 3d ed 79 2c bd 91 25 98 bd
       -0.06969364 0.03999792 -0.042108465 -0.0742904
000260 aa 65 c3 3d a1 8c 0c be 55 81 26 3d d2 bf d5 bd
       0.09540875 -0.1372552 0.040650684 -0.104369774
000270 e8 07 1e be d0 a3 7c bb 9d 84 6f 3d 80 f8 2d 3c
       -0.15432703 -0.0038549788 0.05847608 0.010618329
000280 86 2e c2 bd 8c 99 72 bd 51 88 23 bd b7 00 c2 3c
       -0.0948153 -0.059228465 -0.039924923 0.023681981
000290 d2 22 9f 3d 29 cb 01 3e 33 c6 2f be a8 1d c7 3d
       0.07770313 0.12675156 -0.17165451 0.09722453
0002a0 f4 18 b0 bd c8 0d 54 bd 96 bb 03 3e 65 72 26 bc
       -0.085985094 -0.051770955 0.12864527 -0.01015911
0002b0 95 d5 bb bd d5 4e 37 3e 9a c8 16 be 85 61 e7 bc
       -0.09171597 0.17901166 -0.14724961 -0.028244743
0002c0 c8 d7 72 3d 68 0e 9b bd 02 aa d8 bd 0b eb 87 bd
       0.059287816 -0.07571107 -0.105793014 -0.06636628
0002d0 93 88 8b bd 34 a0 cc 3d 80 64 b6 bd a4 82 c1 3d
       -0.06813159 0.09991494 -0.089058876 0.09448746
0002e0 2c 62 9f 3d e1 1f e0 3d 78 2d ab bd 05 0c 81 3c
       0.07782397 0.109435804 -0.08358282 0.015752802
0002f0 82 26 0e 3e a4 38 05 bb 04 d8 ac bd 37 12 ae bc
       0.13881877 -0.002032795 -0.08439639 -0.02124892
000300 1c f2 c6 3c 47 ef df bd 9d a0 f8 3c b9 00 12 be
       0.024285369 -0.109343104 0.030350024 -0.14258088
000310 b9 b2 2f be b6 3e 86 3b 82 72 ed 3b 0a 92 5a be
       -0.17158021 0.004096831 0.0072463164 -0.21344772
000320 78 5a a2 3d e8 7d a3 3d 8b 4f 7c 3d 72 67 02 3c
       0.07927412 0.07982999 0.061599296 0.007959234
000330 48 b6 a2 3c 68 c2 4a 3e a5 49 c3 bd f8 63 b9 3d
       0.01986231 0.19800723 -0.09535531 0.09052271
000340 ca be 69 3e 5f 90 85 3c 6a 46 c1 3d 1c 68 08 3e
       0.22826687 0.016304193 0.094372585 0.13320965
000350 5e b4 2e 3e d6 9f 77 3d 0b 12 5c 3d 14 51 6f 3d
       0.17060992 0.060455166 0.053728145 0.05842693
000360 cc 46 01 3d f9 8e e9 3d 8d ae 9f 3e 14 d5 2e 3d
       0.031561658 0.11404223 0.3118786 0.042683676
000370 0e 5d a6 bd c6 f8 b0 3d f3 70 e3 bc b7 34 e9 3d
       -0.081232175 0.086412 -0.02776382 0.11387008
000380 a0 c7 ee 3d c1 cb c2 3c 90 bb 15 3d 19 ad c8 b8
       0.11659169 0.023778798 0.036555827 -9.568985e-05
000390 88 bb 12 be ad 4b 5b 3d ca 50 5e 3e 9d af a9 ba
       -0.1432935 0.053538967 0.21710506 -0.0012946014
0003a0 21 72 47 3e 13 34 8a 3d 23 50 7d 3e 01 8e e8 3c
       0.1947713 0.067482136 0.24737601 0.028388025
0003b0 b5 aa 34 3e 13 b0 ec 3d f5 03 9b 3b 62 ed 96 3c
       0.17643245 0.11557021 0.0047306963 0.01842374
0003c0 f7 e1 68 be 6f 4d 03 be 6c 66 b0 3b ab 28 e0 3d
       -0.22742449 -0.12822507 0.0053833034 0.10945257
0003d0 15 80 1b 3e 93 57 0d be 04 1a 9b bd fa 9c 6f be
       0.15185578 -0.13802938 -0.075733215 -0.23399726
0003e0 6f 96 8c 3d 22 ce 7c 3d 58 83 29 be 87 a1 02 3d
       0.068646304 0.06172002 -0.1655401 0.031892326
0003f0 7b 8a 8d 3e 88 56 88 bd 35 90 f8 3d 5d 35 15 be
       0.27644715 -0.066571295 0.1213688 -0.14571138

bias f4 [40]
000000 b0 67 07 bf b1 9c c5 bd 5e 05 21 3c 40 5c ea bc
       -0.5289259 -0.09649027 0.00982794 -0.028608441
000010 fc d3 6c 3b 75 b2 00 be c9 8c 12 be 61 71 9f 3d
       0.0036137095 -0.12568076 -0.14311518 0.07785297
000020 bb 9d f2 bc b7 34 a1 bd 1b 84 9d 3c e0 75 2c bd
       -0.029616227 -0.07871383 0.019228032 -0.0421046
000030 07 22 64 bc ee 56 59 be 4c 09 34 3c 1a 9c 00 be
       -0.013924128 -0.21224567 0.010988545 -0.12559548
000040 b0 ce 71 bd 48 50 25 3e c4 df 86 3c 55 70 49 be
       -0.059035003 0.16143906 0.016464122 -0.19671758
000050 3a 98 12 bd a4 30 49 3e 07 05 0a 3e e0 f9 5e be
       -0.035789706 0.19647461 0.1347848 -0.21775007
000060 f6 65 8d bc 9b 67 bd 3d a1 4d 2c 3d 37 1d 88 be
       -0.017260533 0.09248277 0.04206622 -0.2658479
000070 54 ec 10 3e 68 44 31 3c 11 92 e2 3c e1 47 d5 bd
       0.14152652 0.010819532 0.02765754 -0.104141004
000080 54 d3 12 be 56 66 5f be 96 e0 4b 3e d5 ca 30 bd
       -0.14338428 -0.21816382 0.19909891 -0.043162186
000090 59 74 cc bd f2 4a 14 3e 77 c0 ec bd 82 90 22 be
       -0.09983129 0.14481714 -0.11560147 -0.15875438

weight f4 [1, 40]
000000 5e c1 da bc b0 37 83 bd 39 ca 01 3e 85 0e 68 bd
       -0.026703533 -0.06407106 0.12674798 -0.056654472
000010 5e e2 b4 3b ec d3 ae bd a1 3c 1a bb 9c a9 c5 bb
       0.005520149 -0.08536515 -0.0023534673 -0.006032182
000020 8c 01 6a 3e 1f 26 53 3d 5c 5e 88 3b 78 dc a1 ba
       0.22852153 0.051550027 0.004161639 -0.001234903
000030 16 39 7a 3c 42 92 ad bd 84 5a 02 3e bd f5 10 bd
       0.015272399 -0.08475162 0.12729841 -0.035390604
000040 47 82 3f bc 8b bf 5f 3e 06 2e eb bd 90 44 ce 3c
       -0.011688775 0.21850412 -0.11483388 0.025179178
000050 f1 8a 76 3e 37 f3 10 3e bb b9 11 bf 66 6f 75 bd
       0.2407644 0.14155279 -0.5692403 -0.05992069
000060 8c f1 07 bd 25 1a 0d 3d f9 16 f0 bd 23 07 5d be
       -0.03318934 0.03444876 -0.11723132 -0.21584754
000070 fe 54 e0 3d 73 f8 48 3e 32 9c e2 3b 9e 37 61 3d
       0.10953711 0.19626026 0.0069155926 0.05498468
000080 8b 1a 79 3d a0 5e 21 3d a9 0c 25 bd 6a 7e 82 bc
       0.06081633 0.039396882 -0.040295277 -0.01592942
000090 26 74 01 be e5 23 5f bd bc e1 b9 bb 58 35 21 be
       -0.12641963 -0.05447759 -0.0056726616 -0.15743005

probs f4 [5]
000000 cd cc 4c 3e cd cc 4c 3e cd cc 4c 3e cd cc 4c 3e
       0.2 0.2 0.2 0.2
000010 cd cc 4c 3e
       0.2

logits f4 [5]
000000 10 02 ce bf 10 02 ce bf 10 02 ce bf 10 02 ce bf
       -1.609438 -1.609438 -1.609438 -1.609438
000010 10 02 ce bf
       -1.609438
