src/coinjump_learn/training/PPO_preTrained/CoinJumpEnv-v2/PPO_CoinJumpEnv-v2_123456_955.pth (torch, 197647 bytes, 6 tensors)

W f4 [6, 6]
100.0 0.0 0.0 0.0 0.0 0.0 0.0 100.0
0.0 0.0 0.0 0.0 0.0 0.0 100.0 0.0
0.0 0.0 0.0 0.0 0.0 100.0 0.0 0.0
0.0 0.0 0.0 0.0 100.0 0.0 0.0 0.0
0.0 0.0 0.0 100.0
00000000: 0000 c842 0000 0000 0000 0000 0000 0000
00000010: 0000 0000 0000 0000 0000 0000 0000 c842
00000020: 0000 0000 0000 0000 0000 0000 0000 0000
00000030: 0000 0000 0000 0000 0000 c842 0000 0000
00000040: 0000 0000 0000 0000 0000 0000 0000 0000
00000050: 0000 0000 0000 c842 0000 0000 0000 0000
00000060: 0000 0000 0000 0000 0000 0000 0000 0000
00000070: 0000 c842 0000 0000 0000 0000 0000 0000
00000080: 0000 0000 0000 0000 0000 0000 0000 c842

weight f4 [40, 24]
0.019602645 0.12973866 -0.0082604885 0.17150834 0.0922902 0.095279776 0.078608066 -0.03225623
-0.021258637 -0.0018929541 -0.16290528 0.2061574 0.021382526 -0.2016711 -0.14327812 -0.104871236
0.02486433 -0.06679985 -0.19811955 -0.07962895 -0.003621161 0.08883333 0.09355936 0.18270147
-0.16031444 -0.09396666 -0.15148112 -0.08083758 -0.20689432 0.16736566 -0.15280491 0.051062196
0.038844362 -0.10311202 0.13336699 0.17532937 -0.096101634 -0.08623431 -0.12892124 -0.16253696
-0.0775385 -0.0008560631 -0.08576703 0.1892524 -0.02687481 -0.094560236 -0.21273348 -0.066222705
0.1668681 -0.064077005 0.07557094 0.14260328 -0.1597707 -0.14927419 0.12637454 0.085549034
-0.14129263 0.190382 -0.17899275 0.009869509 -0.03986843 0.0047178715 0.05359488 0.2023538
0.006030632 0.0032245268 0.16886172 -0.19959413 0.092166275 0.10263765 0.16510281 -0.14939065
0.09247386 0.20234889 -0.19077183 -0.19968414 -0.106345996 -0.11417115 -0.08342026 0.066326976
-0.056048363 0.0880163 -0.17508034 -0.055086702 0.07740128 0.16899341 -0.08886977 0.18635672
-0.13439994 0.097633235 0.105816305 -0.04374829 0.20111063 0.1169916 0.045745052 0.11931014
0.0076591754 -0.04663554 -0.13666041 -0.14573771 -0.0017646644 0.03431294 -0.1810042 0.048958793
-0.10802446 -0.10057593 -0.11991064 -0.019933378 0.024638265 0.14860556 -0.0929575 -0.1254277
0.07920927 -0.11281812 0.088718146 0.19890404 0.017729878 0.124835 -0.12379031 0.16071086
-0.0036601766 0.09459317 0.0809764 -0.13839476 -0.0052998234 0.11165847 -0.12980302 0.022770595
-0.11528071 -0.11291078 -0.081081666 -0.21674687 -0.016702652 -0.07306582 0.07848933 -0.17471564
0.1771836 0.052096296 0.16201219 0.11428261 0.13386387 -0.023963522 0.1320914 -0.08159383
0.17114435 0.0057915 0.1723809 -0.1738508 -0.066083655 -0.21286936 -0.11090577 -0.08591891
-0.07013869 -0.09431069 0.14470367 -0.1513886 -0.0551102 0.08945531 -0.081359334 -0.041046426
0.014265493 0.12678047 -0.15067777 -0.16817708 -0.1494833 -0.12784076 -0.068448864 -0.021772826
-0.15950264 -0.19483589 -0.017048627 0.16977656 -0.122037835 0.19334078 -0.14059117 0.2016469
0.12971622 -0.19693862 -0.1463394 -0.06266339 0.18030667 -0.13162316 0.20783557 -0.027950644
-0.17229825 0.102670744 -0.05993192 -0.17825648 0.17032582 -0.05499605 0.0756827 -0.0064059775
-0.103904195 -0.015975282 -0.0063158125 0.087064624 -0.083687805 -0.06813621 0.13264021 -0.08816782
-0.106250726 0.18399042 0.18030111 -0.08325946 -0.096336186 0.0045007914 -0.063986786 -0.11598215
-0.14737198 -0.14656232 0.19941401 0.0017068237 0.023770228 0.17912461 0.15947242 0.061741658
-0.0197562 -0.018458322 0.14375567 0.14983335 -0.15482698 0.17482004 0.0446641 0.103979014
-0.13884538 -0.030005828 0.115048625 -0.0139681585 -0.17027658 0.020529613 -0.01145663 -0.045067877
0.07807936 0.096350856 0.15416512 0.010492191 0.05250767 0.124254644 -0.1473183 -0.06922307
0.12749597 0.16580597 0.16116506 -0.0012916774 -0.19902702 0.18564212 -0.06826557 -0.1880887
-0.19961268 0.18942043 -0.051164404 0.08001745 -0.052417904 0.098290056 -0.045384184 0.036713943
00000000: ba95 a03c 36da 043e 0057 07bc e29f 2f3e
00000010: a502 bd3d 0b22 c33d 44fd a03d 1c1f 04bd
00000020: 9826 aebc 001d f8ba a4d0 26be ed1a 533e
00000030: 682a af3c de82 4ebe 80b7 12be bbc6 d6bd
00000040: 48b0 cb3c 5cce 88bd dadf 4abe 8114 a3bd
00000050: 0051 6dbb 40ee b53d 0d9c bf3d 1816 3b3e
00000060: 7829 24be 9871 c0bd de1d 1bbe 2c8e a5bd
00000070: 1bdc 53be e761 2b3e e478 1cbe 9826 513d
00000080: 441b 1f3d 652c d3bd 5b91 083e 8b89 333e
00000090: efd0 c4bd 9d9b b0bd ee03 04be 1770 26be
000000a0: 81cc 9ebd 6c69 60ba a0a6 afbd 62cb 413e
000000b0: 9028 dcbc cca8 c1bd ced6 59be c59f 87bd
000000c0: 79df 2a3e ce3a 83bd f0c4 9a3d 9806 123e
000000d0: ee9a 23be 55db 18be 5468 013e 5534 af3d
000000e0: 04af 10be 80f3 423e e049 37be b9b3 213c
000000f0: 144d 23bd 6098 9a3b 4e86 5b3d d635 4f3e
00000100: 9c9c c53b 9552 533b 16ea 2c3e 6762 4cbe
00000110: acc1 bc3d b033 d23d b610 293e ddf9 18be
00000120: ef62 bd3d 8c34 4f3e b159 43be 007a 4cbe
00000130: eecb d9bd 90d2 e9bd 3ed8 aabd 70d6 873d
00000140: f892 65bd e441 b43d 4348 33be 98a2 61bd
00000150: 9084 9e3d 9c0c 2d3e 5b01 b6bd 4cd4 3e3e
00000160: 23a0 09be eff3 c73d 38b6 d83d 6831 33bd
00000170: f2ef 4d3e 4b99 ef3d 2a5f 3b3d e058 f43d
00000180: d2f9 fa3b e804 3fbd b5f0 0bbe 443c 15be
00000190: 504c e7ba ba8b 0c3d 2a59 39be 0489 483d
000001a0: ee3b ddbd c1fa cdbd b693 f5bd 534b a3bc
000001b0: 30d6 c93c 0e2c 183e 8060 bebd 1e70 00be
000001c0: 7838 a23d 300d e7bd dcb1 b53d 80ad 4b3e
000001d0: 403e 913c 7ea9 ff3d c685 fdbd 6391 243e
000001e0: 93df 6fbb 10ba c13d f4d6 a53d 5bb7 0dbe
000001f0: 24aa adbb 32ad e43d 15eb 04be 6689 ba3c
00000200: 4b18 ecbd c43d e7bd 250e a6bd e4f2 5dbe
00000210: 00d4 88bc 88a3 95bd 04bf a03d a8e8 32be
00000220: 9e6f 353e ed62 553d 86e6 253e 000d ea3d
00000230: 9c13 093e 264f c4bc f842 073e aa1a a7bd
00000240: 7740 2f3e a0c6 bd3b 9e84 303e f205 32be
00000250: de56 87bd 6dfa 59be 9022 e3bd 41f6 afbd
00000260: e0a4 8fbd f725 c1bd 332d 143e 9d05 1bbe
00000270: 3cbb 61bd 5834 b73d b99f a6bd 4c20 28bd
00000280: d0b9 693c bdd2 013e 464b 1abe 9d36 2cbe
00000290: 2612 19be b0e8 02be eb2e 8cbd ed5c b2bc
000002a0: a954 23be 0f83 47be 90a9 8bbc e8d9 2d3e
000002b0: f9ee f9bd 20fb 453e 22f7 0fbe 867c 4e3e
000002c0: 54d4 043e 47aa 49be ffd9 15be aa55 80bd
000002d0: 50a2 383e 39c8 06be d9d2 543e c0f8 e4bc
000002e0: f46e 30be 0a45 d23d 2c7b 75bd de88 36be
000002f0: e469 2e3e 8a43 61bd 88ff 9a3d 3ce9 d1bb
00000300: b9cb d4bd 98de 82bc e0f4 cebb f04e b23d
00000310: 8364 abbd ff8a 8bbd d6d2 073e 5491 b4bd
00000320: fb99 d9bd fc67 3c3e dba0 383e f083 aabd
00000330: e84b c5bd 607b 933b 810b 83bd 0d88 edbd
00000340: aee8 16be 6f14 16be 3033 4c3e 80b7 df3a
00000350: c8b9 c23c 716c 373e bd4c 233e d2e4 7c3d
00000360: c1d7 a1bc e835 97bc b034 133e ea6d 193e
00000370: f78a 1ebe 0604 333e b4f1 363d f3f2 d43d
00000380: 7c2d 0ebe c8ce f5bc 9d9e eb3d b4da 64bc
00000390: fc5c 2ebe b82d a83c 97b4 3bbc 1899 38bd
000003a0: 12e8 9f3d 9953 c53d 76dd 1d3e 70e7 2b3c
000003b0: 4812 573d 3879 fe3d 9cda 16be d3c4 8dbd
000003c0: 4e8e 023e 0ac9 293e 7408 253e 804d a9ba
000003d0: bdcd 4bbe f818 3e3e d2ce 8bbd 539a 40be
000003e0: 4467 4cbe 6ef7 413e c491 51bd 30e0 a33d
000003f0: 28b4 56bd 4c4c c93d c4e4 39bd 5c61 163d

bias f4 [40]
0.09235737 0.07472525 0.1422085 -0.078281365 0.038792368 -0.18274355 -0.0091035925 0.16130568
0.14502294 -0.1501025 -0.11510999 -0.013427194 -0.07498487 0.1499594 -0.120059215 0.06658605
-0.14903757 0.109522365 -0.0707461 -0.20187826 -0.108698726 -0.1371675 0.044242706 -0.027345225
0.121647365 0.15190184 -0.016492939 -0.070028536 -0.067548536 0.17328382 -0.16196342 0.04703899
-0.09312934 -0.03636009 -0.147215 0.17030825 0.015441777 0.070103355 0.19535413 0.028144168
00000000: dc25 bd3d 8d09 993d 1b9f 113e fb51 a0bd
00000010: bfe4 1e3d 2021 3bbe 3c27 15bc 512d 253e
00000020: e580 143e 78b4 19be c9be ebbd bcfd 5bbc
00000030: ab91 99bd f58e 193e 9be1 f5bd 445e 883d
00000040: 4e9d 18be 434d e03d 55e3 90bd 2db9 4ebe
00000050: 709d debd a375 0cbe d737 353d 1803 e0bc
00000060: 4122 f93d 288c 1b3e 331c 87bc 1f6b 8fbd
00000070: e356 8abd 5071 313e bdd9 25be f5ab 403d
00000080: 98ba bebd 51ee 14bd 87bf 16be 4965 2e3e
00000090: 82ff 7c3c 5992 8f3d ea0a 483e 998e e63c

weight f4 [1, 40]
-0.11618652 0.14588985 0.09007505 -0.11568782 0.029349297 0.04679819 0.1387163 0.14902271
-0.08213099 0.0787381 0.11484678 0.032706853 0.07105717 0.076807834 -0.14095047 -0.054884527
-0.025189232 0.1166545 0.13015215 0.065593585 0.09823322 0.013401728 -0.104897484 0.067242324
-0.051735993 -0.071381055 -0.13013709 -0.0064454814 -0.117435835 0.09054488 -0.16704306 -0.06884238
0.084319286 0.016390212 -0.042390697 0.006488687 -0.035277463 -0.033289097 0.024116099 0.11224842
00000000: 33f3 edbd 2664 153e 4579 b83d bced ecbd
00000010: f06d f03c 75af 3f3d a50b 0e3e 6999 183e
00000020: 4b34 a8bd 7141 a13d ca34 eb3d 9ff7 053d
00000030: 6c86 913d 6d4d 9d3d 5255 10be 99ce 60bd
00000040: a659 cebc 8ee8 ee3d 9b46 053e ee55 863d
00000050: 802e c93d ec92 5b3c 7ed4 d6bd 58b6 893d
00000060: 1fe9 53bd 3b30 92bd a842 05be 9e34 d3bb
00000070: 3382 f0bd 986f b93d 560d 2bbe 3cfd 8cbd
00000080: 97af ac3d c444 863c dea1 2dbd 0d9f d43b
00000090: 1a7f 10bd 265a 08bd 208f c53c 80e2 e53d

probs f4 [6]
0.16666667 0.16666667 0.16666667 0.16666667 0.16666667 0.16666667
00000000: abaa 2a3e abaa 2a3e abaa 2a3e abaa 2a3e
00000010: abaa 2a3e abaa 2a3e

logits f4 [6]
-1.7917595 -1.7917595 -1.7917595 -1.7917595 -1.7917595 -1.7917595
00000000: 6058 e5bf 6058 e5bf 6058 e5bf 6058 e5bf
00000010: 6058 e5bf 6058 e5bf
