src/coinjump_learn/training/PPO_preTrained/CoinJumpEnv-v2/PPO_CoinJumpEnv-v2_123456_10394.pth (torch, 331407 bytes, 6 tensors)

W f4 [10, 10]
00000000: 36f2 11bf 786c b2bf c5c2 26c0 1d13 0dc0
00000010: 4e96 1340 1511 a8bf 9d3e 80bf 7764 07c0
00000020: be9a ffbf 596e 4ec0 fbb8 473e 3247 f93f
00000030: 8833 903f 6b6f 0f3f 8d94 873e e07e 12bf
00000040: 5b37 a13e c689 fe3e 56fa 4cbf 078b 03bf
00000050: 25c4 08c0 1528 adbf 836a 3cc0 beab 0440
00000060: ecdf 87bf 94fe 8dbf 6b60 4bc0 bc8d 1fc0
00000070: f99a eebf 79c7 27c0 79ca bdbf 2aaf 383f
00000080: 1796 853f cbad 64be d819 e73f d221 cfbf
00000090: 1a7e 4b3e a0e4 40bf ffbd fbbf e498 8abf
000000a0: 2c33 69be ca18 be3f ad01 ad3f 3b99 1a3f
000000b0: 25af 873f ac6d fd3c 8cbc 4a3f 5a32 313e
000000c0: 55b1 3a3d cad5 b63e fbc8 f0bf 9a4c 4f40
000000d0: 7279 423f bce0 2a3f 1cfd ebbf c703 67bf
000000e0: 941f 86be f3bc 153e c31a 0fbf 4bda bfbf
000000f0: c107 5dbe f85d a9bf e3b2 4c40 ff2e c9bf
00000100: 7c59 c6bf 46a2 323f 2841 463f c99c e13e
00000110: 979e af3e 0302 16c0 b082 4940 7cd6 85c0
00000120: a1a3 25c0 487b 10c0 d448 d0bf be83 59c0
00000130: 1e49 59c0 f839 b3bf b934 5dc0 d5c5 39c0
00000140: d94c 113f 1567 513f e418 9b3f 7bca 9d3f
00000150: 01f3 d83f 0ca3 2abf 10c3 8d3e 9d0f 233f
00000160: c3a6 59bf f9f9 553d 2c12 7a3f 93f4 9b3f
00000170: 17d8 2a3f d912 8f3f 70e3 adbf b86a 23bf
00000180: 2128 0cbe 4dc5 293f e569 83bf dd3f 2abe
-0.5701021 -1.3939352 -2.6056378 -2.2042916 2.3060489 -1.3130213 -1.0019108 -2.115507
-1.9969099 -3.225485 0.19504158 1.9474852 1.1265726 0.56029385 0.26480523 -0.57224846
0.31487545 0.49714488 -0.8006948 -0.51384014 -2.1369717 -1.3527857 -2.944001 2.0729823
-1.061521 -1.1093316 -3.17776 -2.4930258 -1.8641044 -2.6215498 -1.4827415 0.7214228
1.0436429 -0.22331922 1.8054762 -1.6182196 0.19872323 -0.75348854 -1.9667357 -1.0827909
-0.22773427 1.4851315 1.3516136 0.6039006 1.0600325 0.030936085 0.7919395 0.17304364
0.045579273 0.35709983 -1.8811334 3.2390504 0.7596656 0.6674917 -1.8436618 -0.9024014
-0.26195967 0.1462286 -0.5590021 -1.4988493 -0.21584989 -1.3231802 3.1984184 -1.5717467
-1.5496058 0.6977886 0.7744317 0.4406493 0.34300682 -2.3438728 3.1486015 -4.182432
-2.588112 -2.2575245 -1.6272225 -3.398666 -3.3950877 -1.4002066 -3.456343 -2.9026997
0.56757885 0.81797916 1.2116971 1.2327417 1.6949159 -0.6665504 0.27687883 0.636957
-0.85020083 0.052240346 0.9768398 1.2184013 0.66735977 1.1177627 -1.3585033 -0.63834715
-0.13687183 0.6631668 -1.0266691 -0.16625924

weight f4 [40, 24]
00000000: d8b9 7abd 36da 043e 0057 07bc e29f 2f3e
00000010: 133c 2a3e 76b1 8b3d 44fd a03d 7a3d ae3d
00000020: 9826 aebc 001d f8ba 6d71 7dbe 91a0 a53e
00000030: 682a af3c de82 4ebe ad78 65be bbc6 d6bd
00000040: 669e f23c 5528 17be dadf 4abe 8114 a3bd
00000050: 0051 6dbb ad5e 033c 8057 793c b1a9 d03d
00000060: 699a 3cbe 9871 c0bd de1d 1bbe 2c8e a5bd
00000070: 456c 6ebe 9ce4 073e e478 1cbe 4dc5 de3c
00000080: 441b 1f3d 652c d3bd 5964 243e a518 1b3e
00000090: efd0 c4bd 9d9b b0bd e474 1cbe 1770 26be
000000a0: 9ec5 d0bd 4b8b cabc a0a6 afbd 62cb 413e
000000b0: 9028 dcbc c08a f2bd 5ab3 f3bd c981 b8bd
000000c0: 549c 403e ce3a 83bd f0c4 9a3d 9806 123e
000000d0: cc95 4ebe 7d92 0abe 5468 013e ec6d d63d
000000e0: 04af 10be 80f3 423e c450 fabd 39c0 ed3c
000000f0: 144d 23bd 6098 9a3b 273d 993d d635 4f3e
00000100: 8994 79bb 3252 c83c 16ea 2c3e 6762 4cbe
00000110: acc1 bc3d 66ad fd3d 0561 3c3e ee3c 03be
00000120: f444 a73d 8c34 4f3e b159 43be 007a 4cbe
00000130: 8603 debd 8f92 01be 3ed8 aabd 8b91 963d
00000140: f892 65bd e441 b43d 7868 2ebe d129 44bd
00000150: 9084 9e3d 9c0c 2d3e 5d1f ccbd 4cd4 3e3e
00000160: 0471 11be 42d6 b13d 38b6 d83d 6831 33bd
00000170: f2ef 4d3e 517b d93d 34dc f83c 1f3b de3d
00000180: 311c ae3c e804 3fbd b5f0 0bbe 443c 15be
00000190: 4cb6 483d a18d 373c 2a59 39be 4db8 8ebe
000001a0: ee3b ddbd c1fa cdbd 7983 abbe 2dfe b1be
000001b0: 30d6 c93c 0e2c 183e 1289 a2bd 1e70 00be
000001c0: 10d3 043e c035 cbbd dcb1 b53d 80ad 4b3e
000001d0: 403e 913c 60c0 0d3e cfcd 22bd 137d 323e
000001e0: f598 113d 10ba c13d f4d6 a53d 5bb7 0dbe
000001f0: 43bc bd3a c16e 943d 15eb 04be 963e 60bd
00000200: 4b18 ecbd c43d e7bd dd4f 89bd f1a9 96be
00000210: 00d4 88bc 88a3 95bd b40a f13d a8e8 32be
00000220: fddb 4b3e 27fd ba3d 86e6 253e 000d ea3d
00000230: 9c13 093e 98bd 793c dc7a f53d 5c9e 2dbd
00000240: 2919 123e a0c6 bd3b 9e84 303e f205 32be
00000250: 631e 07be 5084 7dbe 9022 e3bd e944 eabd
00000260: e0a4 8fbd f725 c1bd 7359 083e ee2c 38be
00000270: 3cbb 61bd 5834 b73d 61ee e0bd 4c20 28bd
00000280: 7a7a 8ebc c856 c93d 464b 1abe 9d36 2cbe
00000290: 2612 19be fd0f 20be 3467 a8bc 93cb 4dbd
000002a0: bb9d 0bbe 0f83 47be 90a9 8bbc e8d9 2d3e
000002b0: 6759 2cbe 7e7c 4c3e 22f7 0fbe e327 c13e
000002c0: 54d4 043e 47aa 49be 5eb9 d0bd 3251 e73d
000002d0: 50a2 383e 39c8 06be b089 6c3e c0f8 e4bc
000002e0: fb0b 27be 65d9 003e 2c7b 75bd de88 36be
000002f0: e469 2e3e f367 02bd 4c12 973d c23c 893c
00000300: 8fe0 0ebe 98de 82bc e0f4 cebb f04e b23d
00000310: 6050 f7bd 8482 08bd d6d2 073e bb80 12be
00000320: fb99 d9bd fc67 3c3e f40e 843e 0e7a 0dbe
00000330: e84b c5bd 607b 933b f400 ccbd 0d88 edbd
00000340: 38d2 1abe 258f 3abe 3033 4c3e 80b7 df3a
00000350: c8b9 c23c b8f1 123e 9b21 8d3d d0f3 d53c
00000360: 61ab 57bc e835 97bc b034 133e ea6d 193e
00000370: 21d8 20be b719 da3d b4f1 363d 8527 793e
00000380: 7c2d 0ebe c8ce f5bc ff4f 063e 7d60 003e
00000390: fc5c 2ebe b82d a83c 9c60 9fbb 1899 38bd
000003a0: df31 db3d 31d4 d23d 76dd 1d3e 70e7 2b3c
000003b0: 4812 573d dffc 053e 03f1 90bd 4544 80bd
000003c0: 4e8e 023e 0ac9 293e 7408 253e 804d a9ba
000003d0: bdcd 4bbe f818 3e3e d2ce 8bbd 539a 40be
000003e0: 4467 4cbe 6ef7 413e c491 51bd 30e0 a33d
000003f0: 28b4 56bd 4c4c c93d c4e4 39bd 5c61 163d
-0.06121239 0.12973866 -0.0082604885 0.17150834 0.16624479 0.06820957 0.078608066 0.085078195
-0.021258637 -0.0018929541 -0.247503 0.32349065 0.021382526 -0.2016711 -0.22409315 -0.104871236
0.029616546 -0.14761479 -0.19811955 -0.07962895 -0.003621161 0.008018178 0.0152186155 0.10188616
-0.18418278 -0.09396666 -0.15148112 -0.08083758 -0.23283489 0.13270801 -0.15280491 0.02719369
0.038844362 -0.10311202 0.16053905 0.1514612 -0.096101634 -0.08623431 -0.15278965 -0.16253696
-0.101939425 -0.024724623 -0.08576703 0.1892524 -0.02687481 -0.11842871 -0.11899443 -0.090091296
0.18809634 -0.064077005 0.07557094 0.14260328 -0.2017433 -0.13532443 0.12637454 0.10470185
-0.14129263 0.190382 -0.12222436 0.029022323 -0.03986843 0.0047178715 0.07482367 0.2023538
-0.0038082919 0.024453256 0.16886172 -0.19959413 0.092166275 0.12386589 0.18396385 -0.12816212
0.08167449 0.20234889 -0.19077183 -0.19968414 -0.10840516 -0.12653564 -0.08342026 0.07351979
-0.056048363 0.0880163 -0.17032039 -0.04789144 0.07740128 0.16899341 -0.099669196 0.18635672
-0.14203268 0.086834446 0.105816305 -0.04374829 0.20111063 0.10619224 0.030378439 0.1085112
0.021253677 -0.04663554 -0.13666041 -0.14573771 0.049001977 0.011203201 -0.1810042 -0.27874985
-0.10802446 -0.10057593 -0.33498743 -0.34764233 0.024638265 0.14860556 -0.079363 -0.1254277
0.12971139 -0.099223614 0.088718146 0.19890404 0.017729878 0.13842916 -0.039747056 0.17430525
0.03554626 0.09459317 0.0809764 -0.13839476 0.0014475662 0.07247687 -0.12980302 -0.054747187
-0.11528071 -0.11291078 -0.06704686 -0.2942653 -0.016702652 -0.07306582 0.117696196 -0.17471564
0.19908138 0.09130316 0.16201219 0.11428261 0.13386387 0.015242957 0.11986324 -0.04238735
0.1426741 0.0057915 0.1723809 -0.1738508 -0.13195185 -0.24757504 -0.11090577 -0.11438925
-0.07013869 -0.09431069 0.13315372 -0.1798589 -0.0551102 0.08945531 -0.10982967 -0.041046426
-0.017392386 0.09831005 -0.15067777 -0.16817708 -0.1494833 -0.15631099 -0.020557024 -0.05024297
-0.13634388 -0.19483589 -0.017048627 0.16977656 -0.1683098 0.19969365 -0.14059117 0.37725744
0.12971622 -0.19693862 -0.10191606 0.11294784 0.18030667 -0.13162316 0.23099399 -0.027950644
-0.16313164 0.1258293 -0.05993192 -0.17825648 0.17032582 -0.031837415 0.07376537 0.016752604
-0.1395285 -0.015975282 -0.0063158125 0.087064624 -0.12075877 -0.033327594 0.13264021 -0.1430692
-0.106250726 0.18399042 0.25792658 -0.13816091 -0.096336186 0.0045007914 -0.09961119 -0.11598215
-0.15119255 -0.18218668 0.19941401 0.0017068237 0.023770228 0.14350021 0.06891175 0.026117235
-0.0131634185 -0.018458322 0.14375567 0.14983335 -0.15707447 0.10649436 0.0446641 0.24331482
-0.13884538 -0.030005828 0.13116454 0.12536807 -0.17027658 0.020529613 -0.0048638117 -0.045067877
0.107028715 0.102943785 0.15416512 0.010492191 0.05250767 0.13084744 -0.07077219 -0.062630214
0.12749597 0.16580597 0.16116506 -0.0012916774 -0.19902702 0.18564212 -0.06826557 -0.1880887
-0.19961268 0.18942043 -0.051164404 0.08001745 -0.052417904 0.098290056 -0.045384184 0.036713943

bias f4 [40]
00000000: 9a1b 3d3c 3f4f 503d f65b 273e fb6f b6bd
00000010: c793 563d 5dfb 12be bfe6 19bd 2de4 3c3e
00000020: 470c e03d 2ef4 12be c9be ebbd c9e5 2dbd
00000030: fb98 d4bd 7582 423e c5c6 40be 52be 65bb
00000040: 749a 7dbe fa99 0c3e 95f2 883c 64dc 6bbe
00000050: 5ff6 85bd 7b8a 25be aebb 8abc 1803 e0bc
00000060: 729e af3d 9154 da3d d43c d5bc 539c 13bd
00000070: bc11 aebd 390f 463e cc43 40be 7db3 513c
00000080: 2311 08be 3c85 5fbc 87bf 16be a0e9 243e
00000090: f48f 123d 9077 d23c ea0a 483e 9b75 5b3d
0.011542225 0.050856825 0.16343674 -0.08908077 0.052387025 -0.143537 -0.037573572 0.18446417
0.10939842 -0.1435096 -0.11510999 -0.04245547 -0.10380741 0.18995078 -0.18825825 -0.0035056067
-0.2476595 0.13730612 0.016717235 -0.23033291 -0.06541132 -0.16166107 -0.016935196 -0.027345225
0.08575143 0.10660661 -0.026029982 -0.036037754 -0.08499476 0.19341744 -0.18775862 0.012799141
-0.13287787 -0.013642605 -0.147215 0.16104746 0.035781816 0.025691777 0.19535413 0.053578954

weight f4 [1, 40]
00000000: b42c 4abe 670b 063e 239c 093e 2279 dcbd
00000010: 05b6 4c3e 3ce4 753d 9e1a 2a3e e4c2 3c3e
00000020: f965 10be 3d25 973d ca34 eb3d ae91 053d
00000030: 4d11 a93d a411 933d f8e6 04be 10a1 35be
00000040: 7c9f 0dbe 6ffa 003e ff10 8a3e adb0 603d
00000050: 1cc6 e43d 50f8 6c3a 5465 bcbd 58b6 893d
00000060: de75 86bd ee25 49be 6121 eabd 9f81 85bc
00000070: 8e7e 1bbe 0ec1 c13d be77 adbe ea81 05be
00000080: 4869 e03d 8945 133d dea1 2dbd eabc a93d
00000090: 86f6 58be cb9d d2bd 208f c53c b384 c23d
-0.19743615 0.13090287 0.13438468 -0.10765292 0.1999131 0.060032114 0.16611716 0.1843372
-0.141014 0.073801495 0.11484678 0.032609634 0.08255253 0.07181099 -0.12978733 -0.17737222
-0.1383037 0.12595533 0.26966092 0.05485599 0.11170599 0.0009039687 -0.09199014 0.067242324
-0.0656545 -0.19643375 -0.11432148 -0.01629716 -0.15184996 0.094606504 -0.3388042 -0.1303784
0.10957581 0.035954986 -0.042390697 0.082879856 -0.21187791 -0.10284003 0.024116099 0.094979666

probs f4 [6]
00000000: abaa 2a3e abaa 2a3e abaa 2a3e abaa 2a3e
00000010: abaa 2a3e abaa 2a3e
0.16666667 0.16666667 0.16666667 0.16666667 0.16666667 0.16666667

logits f4 [6]
00000000: 6058 e5bf 6058 e5bf 6058 e5bf 6058 e5bf
00000010: 6058 e5bf 6058 e5bf
-1.7917595 -1.7917595 -1.7917595 -1.7917595 -1.7917595 -1.7917595
