src/coinjump_learn/training/PPO_preTrained/CoinJumpEnv-v2/PPO_CoinJumpEnv-v2_123456_1016.pth (torch, 331407 bytes, 6 tensors)

W f4 [10, 10]
000000 55 56 14 3f 38 22 64 be 6b 52 b7 bf b5 72 86 bf
       0.5794423 -0.22278678 -1.4322027 -1.0503756
000010 44 89 90 3f 2f 79 e2 bd b5 f2 48 3e 19 85 7a bf
       1.129189 -0.1105827 0.19623835 -0.9785934
000020 99 d4 4c bf db 8f 03 c0 e3 98 e4 be 08 e2 8a 3f
       -0.800119 -2.0556552 -0.44647893 1.0850229
000030 8b d9 34 3f a7 74 2d bf b4 42 83 bf 3c cc 8e 3e
       0.70644444 -0.6775612 -1.0254731 0.27890193
000040 3c 6e d6 be 03 a9 15 3f b2 8b 93 3e 7f e9 8b bf
       -0.41880977 0.58461016 0.28817517 -1.0930632
000050 02 b8 30 bf 2d dc b6 3d 6c 27 c0 bf 66 36 0f 3f
       -0.69030774 0.08928714 -1.5012031 0.5594238
000060 0a c3 c3 3e 66 c7 02 3f de 9d de bf 0a 1a 88 bf
       0.3823474 0.5108551 -1.7391927 -1.0632946
000070 07 11 ca be 35 a2 97 bf 78 8e a7 bf b3 a6 60 3f
       -0.39466116 -1.1846377 -1.3090353 0.8775436
000080 4e 1b 88 3f be 53 99 bd 4b cd d0 3f 6d ef b7 bf
       1.0633333 -0.07486676 1.631265 -1.4369942
000090 51 69 c7 3e 65 47 24 bf ad 46 df bf 6f ea 6f bf
       0.38947538 -0.6417144 -1.7443444 -0.9371709
0000a0 50 78 a9 bf 90 43 c4 3e 98 9c 7c 3e ac 7d 00 bf
       -1.3239841 0.38332796 0.24669111 -0.5019176
0000b0 45 06 35 bd d8 37 c9 be 45 31 16 bd 49 10 74 bf
       -0.044195432 -0.39300418 -0.03666808 -0.9533735
0000c0 b9 c9 5e 3f 2e 2f 5a 3f 6d 88 88 bf a4 33 1b 40
       0.87026554 0.8522824 -1.0666634 2.425027
0000d0 73 70 c9 3f cf 96 bd 3f 87 f3 83 bf 4f b5 b1 bd
       1.5737442 1.4811648 -1.0308694 -0.0867716
0000e0 f0 c2 0c 3f 2a 0d 74 3f 80 e0 8a 3e 5d 20 30 bf
       0.5498495 0.95332587 0.27124405 -0.6879938
0000f0 13 8e 3a 3d dc 76 88 bf fc 5b a5 3f 10 4c a8 bf
       0.04554565 -1.0661273 1.2918696 -1.3148212
000100 5f 61 a5 bf 26 54 bc 3f 98 77 95 3f 58 f7 30 3f
       -1.292034 1.471318 1.1677122 0.69127417
000110 bc 48 7f 3f 3e c0 05 c0 c1 b5 9e 3f 4d 92 11 c0
       0.9972036 -2.0898585 1.2399217 -2.2745545
000120 6d 6a 2d bf b2 a9 b0 be eb 42 90 3e 4f b1 be bf
       -0.6774052 -0.34504467 0.28176054 -1.489786
000130 7b d7 be bf e2 ab 01 3f a5 1f c6 bf 3f b7 7f bf
       -1.490951 0.506529 -1.5478407 -0.99888986
000140 fc bf 15 be 5c 0f 2f be f8 0d 2d 3f 5a 0a 98 3e
       -0.14624017 -0.17095703 0.6759944 0.29695398
000150 09 aa 65 3f c9 65 97 bf 9c 13 34 bf c9 6b aa 3d
       0.8971258 -1.1827937 -0.7034242 0.0832134
000160 3d 80 4e bf f9 2c 3a 3f ac 33 02 3e 39 f4 b3 3e
       -0.80664426 0.7272487 0.12715024 0.35147265
000170 f9 e7 52 be 1f bc 80 3e ae cf 0e c0 58 fc b5 bf
       -0.20596303 0.25143525 -2.2314258 -1.4217634
000180 ee d2 80 bf 24 bf c1 3f 03 c4 e5 bf 7c 03 61 bf
       -1.0064371 1.5136456 -1.7950443 -0.8789594

weight f4 [40, 24]
000000 38 ef 6c 3c 36 da 04 3e 00 57 07 bc e2 9f 2f 3e
       0.014461331 0.12973866 -0.0082604885 0.17150834
000010 ec a1 bf 3d f3 5b ba 3d 44 fd a0 3d 89 68 c2 bc
       0.09357056 0.09099569 0.078608066 -0.023731487
000020 98 26 ae bc 00 1d f8 ba 74 d0 2c be a0 d5 5b 3e
       -0.021258637 -0.0018929541 -0.16876394 0.2146821
000030 68 2a af 3c de 82 4e be 43 fb 17 be bb c6 d6 bd
       0.021382526 -0.2016711 -0.14841942 -0.104871236
000040 be fb df 3c e9 55 93 bd da df 4a be 81 14 a3 bd
       0.02734172 -0.071941204 -0.19811955 -0.07962895
000050 00 51 6d bb b3 66 ab 3d bc 26 bf 3d 54 d2 35 3e
       -0.003621161 0.08369198 0.0933356 0.17756015
000060 59 68 2c be 98 71 c0 bd de 1d 1b be 2c 8e a5 bd
       -0.1683668 -0.09396666 -0.15148112 -0.08083758
000070 84 fd 5b be 7a c4 21 3e e4 78 1c be 0d 2b 30 3d
       -0.21483427 0.15797606 -0.15280491 0.043009806
000080 44 1b 1f 3d 65 2c d3 bd 94 fc 01 3e ab 4a 2b 3e
       0.038844362 -0.10311202 0.12694007 0.16727702
000090 ef d0 c4 bd 9d 9b b0 bd d1 42 0c be 17 70 26 be
       -0.096101634 -0.08623431 -0.13697363 -0.16253696
0000a0 89 81 ab bd ce f4 11 bc a0 a6 af bd 62 cb 41 3e
       -0.08374316 -0.008908464 -0.08576703 0.1892524
0000b0 90 28 dc bc 8a 26 d2 bd 05 a1 5e be 83 1d 98 bd
       -0.02687481 -0.10261257 -0.21741112 -0.07427504
0000c0 20 72 34 3e ce 3a 83 bd f0 c4 9a 3d 98 06 12 3e
       0.1762166 -0.064077005 0.07557094 0.14260328
0000d0 ec 42 23 be fd 38 0f be 54 68 01 3e 04 eb 9c 3d
       -0.15943497 -0.13986583 0.12637454 0.07662013
0000e0 04 af 10 be 80 f3 42 3e 8b 06 2f be 3f 8e 76 3a
       -0.14129263 0.190382 -0.1709234 0.00094053516
0000f0 14 4d 23 bd 60 98 9a 3b 86 e8 80 3d d6 35 4f 3e
       -0.03986843 0.0047178715 0.0629435 0.2023538
000100 da 60 f9 3b 70 ff 4d 3c 16 ea 2c 3e 67 62 4c be
       0.0076104226 0.012573108 0.16886172 -0.19959413
000110 ac c1 bc 3d 04 59 e5 3d e5 23 32 3e 36 67 0f be
       0.092166275 0.11198619 0.17396505 -0.14004216
000120 ea c4 bd 3d 8c 34 4f 3e b1 59 43 be 00 7a 4c be
       0.09266074 0.20234889 -0.19077183 -0.19968414
000130 e3 15 d1 bd a4 b0 ec bd 3e d8 aa bd 8b 91 96 3d
       -0.10209253 -0.11557129 -0.08342026 0.07351979
000140 f8 92 65 bd e4 41 b4 3d 78 68 2e be d1 29 44 bd
       -0.056048363 0.0880163 -0.17032039 -0.04789144
000150 90 84 9e 3d 9c 0c 2d 3e 67 9f b5 bd 4c d4 3e 3e
       0.07740128 0.16899341 -0.08868294 0.18635672
000160 95 35 09 be 3d 56 c8 3d 38 b6 d8 3d 68 31 33 bd
       -0.13399346 0.09782074 0.105816305 -0.04374829
000170 f2 ef 4d 3e 47 fb ef 3d b5 eb 34 3d 1a bb f4 3d
       0.20111063 0.11717849 0.0441701 0.11949749
000180 28 96 06 3c e8 04 3f bd b5 f0 0b be 44 3c 15 be
       0.008214511 -0.04663554 -0.13666041 -0.14573771
000190 d8 f2 0f bb 24 f1 10 3d 2a 59 39 be 63 96 26 3d
       -0.0021964815 0.03538622 -0.1810042 0.040670764
0001a0 ee 3b dd bd c1 fa cd bd 41 bc fc bd 82 30 e7 bc
       -0.10802446 -0.10057593 -0.12340594 -0.028221373
0001b0 30 d6 c9 3c 0e 2c 18 3e 5c 3d bd bd 1e 70 00 be
       0.024638265 0.14860556 -0.09240219 -0.1254277
0001c0 2d 2f a2 3d 0d ea e5 bd dc b1 b5 3d 80 ad 4b 3e
       0.07919154 -0.11226282 0.088718146 0.19890404
0001d0 40 3e 91 3c 4c 66 00 3e 78 de fb bd f8 22 25 3e
       0.017729878 0.12539023 -0.12298292 0.16126621
0001e0 b7 30 3b bb 10 ba c1 3d f4 d6 a5 3d 5b b7 0d be
       -0.0028562972 0.09459317 0.0809764 -0.13839476
0001f0 c1 cd 0b bc de 92 e5 3d 15 eb 04 be 0a 94 84 3c
       -0.008532942 0.11209653 -0.12980302 0.016183872
000200 4b 18 ec bd c4 3d e7 bd 52 d5 a6 bd 90 b1 64 be
       -0.11528071 -0.11291078 -0.08146156 -0.2233336
000210 00 d4 88 bc 88 a3 95 bd 83 64 a2 3d a8 e8 32 be
       -0.016702652 -0.07306582 0.07929327 -0.17471564
000220 36 55 33 3e d6 ad 58 3d 86 e6 25 3e 00 0d ea 3d
       0.17512974 0.052900158 0.16201219 0.11428261
000230 9c 13 09 3e 47 b9 bd bc e6 1e 07 3e 2b 75 a5 bd
       0.13386387 -0.023159636 0.1319538 -0.08078989
000240 db be 2c 3e a0 c6 bd 3b 9e 84 30 3e f2 05 32 be
       0.1686968 0.0057915 0.1723809 -0.1738508
000250 e4 51 83 bd a1 09 5e be 90 22 e3 bd 6c f9 b4 bd
       -0.06412104 -0.2168336 -0.11090577 -0.08836636
000260 e0 a4 8f bd f7 25 c1 bd 4c d9 10 3e 39 87 1d be
       -0.07013869 -0.09431069 0.14145392 -0.15383615
000270 3c bb 61 bd 58 34 b7 3d e4 a2 ab bd 4c 20 28 bd
       -0.0551102 0.08945531 -0.08380678 -0.041046426
000280 de 72 81 3c 3f a2 fe 3d 46 4b 1a be 9d 36 2c be
       0.015801843 0.1243329 -0.15067777 -0.16817708
000290 26 12 19 be 4b 6a 05 be 43 66 95 bd 93 69 c6 bc
       -0.1494833 -0.13028829 -0.072948955 -0.024220264
0002a0 8f 6f 08 be 0f 83 47 be 90 a9 8b bc e8 d9 2d 3e
       -0.13323806 -0.19483589 -0.017048627 0.16977656
0002b0 a2 57 dd bd 33 64 62 3e 22 f7 0f be ee 2f 80 3e
       -0.1080773 0.22108535 -0.14059117 0.25036567
0002c0 54 d4 04 3e 47 aa 49 be f2 5a b7 bd d3 75 64 bc
       0.12971622 -0.19693862 -0.08952893 -0.013944107
0002d0 50 a2 38 3e 39 c8 06 be f3 b7 6f 3e c0 f8 e4 bc
       0.18030667 -0.13162316 0.23410015 -0.027950644
0002e0 7a ce 24 be a1 07 04 3e 2c 7b 75 bd de 88 36 be
       -0.1609439 0.12893535 -0.05993192 -0.17825648
0002f0 e4 69 2e 3e 01 5e eb bc eb a0 c2 3d 96 ae a2 3c
       0.17032582 -0.028731348 0.09503349 0.01985864
000300 93 a6 ea bd 98 de 82 bc e0 f4 ce bb f0 4e b2 3d
       -0.11457553 -0.015975282 -0.0063158125 0.087064624
000310 0d 91 be bd 11 3c 9e bd d6 d2 07 3e cf 35 c1 bd
       -0.0930501 -0.077263005 0.13264021 -0.09434091
000320 fb 99 d9 bd fc 67 3c 3e d3 6a 37 3e 6c 28 b7 bd
       -0.106250726 0.18399042 0.17911844 -0.08943257
000330 e8 4b c5 bd 60 7b 93 3b 5b e6 98 bd 0d 88 ed bd
       -0.096336186 0.0045007914 -0.07465812 -0.11598215
000340 87 aa 19 be d7 01 21 be 30 33 4c 3e 80 b7 df 3a
       -0.15006457 -0.15723358 0.19941401 0.0017068237
000350 c8 b9 c2 3c 07 7f 2c 3e ce d9 16 3e 26 2f 51 3d
       0.023770228 0.16845332 0.14731523 0.051070355
000360 72 f5 a1 bc e8 35 97 bc b0 34 13 3e ea 6d 19 3e
       -0.019770358 -0.018458322 0.14375567 0.14983335
000370 3f 87 1e be 36 15 32 3e b4 f1 36 3d 5c 0e d5 3d
       -0.1548128 0.17390904 0.0446641 0.104031295
000380 7c 2d 0e be c8 ce f5 bc 79 ba e9 3d 4b ff 63 bc
       -0.13884538 -0.030005828 0.1141252 -0.013915847
000390 fc 5c 2e be b8 2d a8 3c e9 ef 3b bc 18 99 38 bd
       -0.17027658 0.020529613 -0.011470773 -0.045067877
0003a0 e2 9d a4 3d 30 4c c5 3d 76 dd 1d 3e 70 e7 2b 3c
       0.08037926 0.09633672 0.15416512 0.010492191
0003b0 48 12 57 3d c1 71 fe 3d 4e 29 15 be 3b cc 8d bd
       0.05250767 0.124240406 -0.14566538 -0.069237195
0003c0 4e 8e 02 3e 0a c9 29 3e 74 08 25 3e 80 4d a9 ba
       0.12749597 0.16580597 0.16116506 -0.0012916774
0003d0 bd cd 4b be f8 18 3e 3e d2 ce 8b bd 53 9a 40 be
       -0.19902702 0.18564212 -0.06826557 -0.1880887
0003e0 44 67 4c be 6e f7 41 3e c4 91 51 bd 30 e0 a3 3d
       -0.19961268 0.18942043 -0.051164404 0.08001745
0003f0 28 b4 56 bd 4c 4c c9 3d c4 e4 39 bd 5c 61 16 3d
       -0.052417904 0.098290056 -0.045384184 0.036713943

bias f4 [40]
000000 4f 9e b2 3d cf 8b 88 3d c2 31 1b 3e 06 f0 9f bd
       0.08721601 0.066672914 0.151557 -0.07809453
000010 1e 2b 21 3d 61 4e 3a be 84 40 3d bc 69 12 40 3e
       0.03934776 -0.18193962 -0.011551026 0.18757023
000020 7b 93 09 3e 32 b8 19 be c9 be eb bd 11 cd 75 bc
       0.13435166 -0.15011671 -0.11510999 -0.015002505
000030 86 27 8a bd ad d2 1a 3e 1b d8 f3 bd 15 d9 6b 3d
       -0.0674582 0.15119429 -0.11906453 0.057580072
000040 2c fa 25 be c2 11 e3 3d cc e1 d9 bc d3 5a 4f be
       -0.16208714 0.110873714 -0.026596926 -0.2024949
000050 2a 05 dc bd 1f 71 0b be bf e1 2d 3d 18 03 e0 bc
       -0.107431725 -0.13617371 0.042451616 -0.027345225
000060 8b 24 f7 3d 88 c9 10 3e 3a 37 a7 bc a2 8f 8b bd
       0.12067517 0.14139378 -0.020412076 -0.06814505
000070 6b 85 9b bd be 62 2d 3e 03 4d 33 be 8d 44 7d 3d
       -0.07593807 0.16932198 -0.17509846 0.061832953
000080 c9 a7 c4 bd 94 5c 16 bd 87 bf 16 be c2 43 27 3e
       -0.09602315 -0.036709383 -0.147215 0.16334441
000090 85 8b be 3b 97 cd a5 3d ea 0a 48 3e cd cb 71 3d
       0.005814972 0.08095854 0.19535413 0.05903225

weight f4 [1, 40]
000000 7b c9 f5 bd df 8a 10 3e ad ee d8 3d 3c 2d e5 bd
       -0.1200132 0.14115475 0.10592399 -0.111902684
000010 05 62 05 3d 1e 66 3b 3d e4 7b 0a 3e 70 83 31 3e
       0.03256418 0.045751683 0.13523823 0.17335296
000020 14 aa 99 bd 49 85 a0 3d ca 34 eb 3d 92 3f 04 3d
       -0.07503143 0.07837922 0.11484678 0.032287188
000030 66 4d af 3d 2b 16 9c 3d 6a 98 11 be ef 80 79 bd
       0.085596845 0.07621416 -0.14218298 -0.060913976
000040 df 83 bb bc 24 43 ea 3d 9f 6c 5f 3e a3 0a 87 3d
       -0.02289003 0.11438587 0.2181878 0.06593826
000050 cf 16 c6 3d b9 e7 56 3c 67 78 db bd 58 b6 89 3d
       0.09672319 0.01311677 -0.10716324 0.067242324
000060 5a c7 4c bd 31 26 90 bd df fc 04 be 1f d7 cc bb
       -0.049994804 -0.070385344 -0.12987088 -0.0062512304
000070 45 db d3 bd b0 4d b4 3d 3a e5 22 be b1 a0 a7 bd
       -0.10344557 0.0880388 -0.15907755 -0.08184946
000080 7d 25 a6 3d b0 fc 69 3c de a1 2d bd 6b 52 b0 3a
       0.08112619 0.014281437 -0.042390697 0.0013452297
000090 e0 94 ec bc 9e ac 14 bd 20 8f c5 3c 66 44 03 3e
       -0.028879583 -0.036297433 0.024116099 0.1281906

probs f4 [6]
000000 ab aa 2a 3e ab aa 2a 3e ab aa 2a 3e ab aa 2a 3e
       0.16666667 0.16666667 0.16666667 0.16666667
000010 ab aa 2a 3e ab aa 2a 3e
       0.16666667 0.16666667

logits f4 [6]
000000 60 58 e5 bf 60 58 e5 bf 60 58 e5 bf 60 58 e5 bf
       -1.7917595 -1.7917595 -1.7917595 -1.7917595
000010 60 58 e5 bf 60 58 e5 bf
       -1.7917595 -1.7917595
