src/coinjump_learn/training/PPO_preTrained/CoinJumpEnv-v2/PPO_CoinJumpEnv-v2_123456_3610.pth (torch, 331407 bytes, 6 tensors)

W f4 [10, 10]
000000 1d 61 59 3e 6f 2f 1e bf f7 85 ea bf 33 02 b7 bf
       0.21228452 -0.6179113 -1.8322133 -1.4297546
000010 80 28 c3 3f 5d 69 03 bf f7 57 6b be bd 9d ac bf
       1.5246735 -0.51332647 -0.22982775 -1.3485638
000020 c1 f2 99 bf 98 3b 1d c0 61 99 ff be 93 23 83 3f
       -1.2027208 -2.4567623 -0.49921706 1.0245231
000030 c2 63 3b 3f 38 7d 38 bf c7 f8 8f bf c4 ee 86 3e
       0.73199093 -0.7206607 -1.1247796 0.2635404
000040 b1 59 f6 be a8 2d 29 3f 7f 63 84 3e 6f d0 8e bf
       -0.48115304 0.6608529 0.2585716 -1.1157359
000050 a2 84 93 bf 5b 59 bf be 3f 7a fb bf f2 18 86 3f
       -1.1524851 -0.3737286 -1.9646682 1.0476363
000060 04 50 ad bd 38 22 f3 bc 49 dc 0c c0 fb a2 c2 bf
       -0.084625274 -0.029679403 -2.2009451 -1.5205988
000070 26 51 5b bf 76 c8 d2 bf e3 c3 bd bf 14 34 34 3f
       -0.856707 -1.6467426 -1.4825405 0.70391965
000080 9f 89 84 3f d6 3e 7e be d9 94 e9 3f f6 fd cd bf
       1.0354499 -0.24828658 1.824855 -1.6093128
000090 eb 80 5b 3e 5b 94 4f bf 5b 54 f5 bf 8a 23 8e bf
       0.21435897 -0.8108575 -1.9166368 -1.1104596
0000a0 f0 85 92 bf 04 e9 0f 3f 54 a2 d9 3e c4 63 a5 be
       -1.1447124 0.5621493 0.4250666 -0.32302678
0000b0 f3 ee 07 3e fb 7f 5a be cd c2 10 3e 90 92 45 bf
       0.13274746 -0.21337883 0.1413681 -0.7717676
0000c0 c4 0f 3a 3f 57 8d 3a 3f de 94 98 bf e0 32 23 40
       0.72680306 0.7287192 -1.1920431 2.5499802
0000d0 b7 80 b9 3f 9a 84 ad 3f 85 23 94 bf ac db 58 be
       1.4492406 1.3556092 -1.157334 -0.21177548
0000e0 2c 15 d9 3e 39 64 54 3f bc cf 15 3e cc 37 50 bf
       0.42398965 0.8296543 0.14630026 -0.8133514
0000f0 2d 8d 32 3e f3 c0 6f bf b3 0f d9 3f 02 b5 97 bf
       0.17436667 -0.9365379 1.6957916 -1.1852114
000100 87 ef 94 bf ef ce a5 3f c1 57 92 3f 00 99 52 3f
       -1.1635598 1.2953776 1.143303 0.8226471
000110 0c 40 8e 3f 17 db fa bf e5 72 06 40 ed 9c 48 c0
       1.1113296 -1.9598111 2.1007626 -3.134578
000120 06 24 c5 bf b1 c6 9a bf a4 d1 14 bf 0a 5c 16 c0
       -1.5401618 -1.2091886 -0.58132386 -2.3493676
000130 cd 4f 16 c0 e4 18 b4 be 81 fc 19 c0 e0 a2 ed bf
       -2.3486207 -0.3517524 -2.4060366 -1.856533
000140 48 d1 dd 3c f4 b9 01 bc a9 a2 3e 3f d8 c5 e8 3e
       0.027077332 -0.00791787 0.7446695 0.45463443
000150 87 ad 75 3f 96 75 7f bf 8d 68 11 bf 1c e8 b3 3e
       0.95967907 -0.99788797 -0.56800157 0.35138023
000160 aa 8c 20 bf 69 2f 1b 3f 5c d4 8d 3e c5 46 00 3f
       -0.62714636 0.6061922 0.2770108 0.50107986
000170 3f 4a 67 bd 87 5a cd 3e c7 60 05 c0 70 a1 a2 bf
       -0.05646729 0.4010813 -2.0840318 -1.2705517
000180 70 99 5b bf 73 95 ae 3f 05 6f d2 bf 7d 91 3a bf
       -0.85781 1.3639358 -1.644013 -0.7287825

weight f4 [40, 24]
000000 7e d3 f7 bc 36 da 04 3e 00 57 07 bc e2 9f 2f 3e
       -0.030252215 0.12973866 -0.0082604885 0.17150834
000010 cf 89 bc 3d 27 bb 52 3d 44 fd a0 3d d8 7c 0c 3d
       0.092059724 0.051448014 0.078608066 0.034298748
000020 98 26 ae bc 00 1d f8 ba ec e1 5d be e7 a0 8b 3e
       -0.021258637 -0.0018929541 -0.21668214 0.27271196
000030 68 2a af 3c de 82 4e be aa c4 45 be bb c6 d6 bd
       0.021382526 -0.2016711 -0.19313303 -0.104871236
000040 81 da 90 3c b5 e8 ee bd da df 4a be 81 14 a3 bd
       0.017682316 -0.11665479 -0.19811955 -0.07962895
000050 00 51 6d bb d4 a7 1f 3d 0c 88 8a 3d eb 08 08 3e
       -0.003621161 0.038978413 0.0676423 0.13284652
000060 39 b4 23 be 98 71 c0 bd de 1d 1b be 2c 8e a5 bd
       -0.15986718 -0.09396666 -0.15148112 -0.08083758
000070 f9 06 47 be 53 4d 23 3e e4 78 1c be 67 fb 52 3d
       -0.19436254 0.15947466 -0.15280491 0.051509287
000080 44 1b 1f 3d 65 2c d3 bd 5a 3b 13 3e d0 fe 33 3e
       0.038844362 -0.10311202 0.1437811 0.17577672
000090 ef d0 c4 bd 9d 9b b0 bd b2 8e 03 be 17 70 26 be
       -0.096101634 -0.08623431 -0.12847403 -0.16253696
0000a0 3b 2f a5 bd b7 62 d6 b9 a0 a6 af bd 62 cb 41 3e
       -0.08065649 -0.0004089081 -0.08576703 0.1892524
0000b0 90 28 dc bc 65 be c0 bd cf 67 50 be 5b b5 86 bd
       -0.02687481 -0.09411315 -0.203521 -0.065775596
0000c0 27 0c 3c 3e ce 3a 83 bd f0 c4 9a 3d 98 06 12 3e
       0.18364011 -0.064077005 0.07557094 0.14260328
0000d0 c0 04 2e be 72 c1 07 be 54 68 01 3e 6b f2 2b 3c
       -0.16994 -0.13257387 0.12637454 0.010494809
0000e0 04 af 10 be 80 f3 42 3e f5 34 45 be a3 7f 85 bd
       -0.14129263 0.190382 -0.19258483 -0.065184854
0000f0 14 4d 23 bd 60 98 9a 3b 99 1c 90 3d d6 35 4f 3e
       -0.03986843 0.0047178715 0.070367046 0.2023538
000100 2d 97 27 bc 48 d0 a3 3c 16 ea 2c 3e 67 62 4c be
       -0.010228914 0.019996777 0.16886172 -0.19959413
000110 ac c1 bc 3d 14 8d f4 3d ab 01 2f 3e 2e cd 07 be
       0.092166275 0.11940971 0.1709048 -0.13261864
000120 77 c8 a9 3d 8c 34 4f 3e b1 59 43 be 00 7a 4c be
       0.08290189 0.20234889 -0.19077183 -0.19968414
000130 1e b6 dc bd e8 92 00 be 3e d8 aa bd 8b 91 96 3d
       -0.107769236 -0.1255604 -0.08342026 0.07351979
000140 f8 92 65 bd e4 41 b4 3d 78 68 2e be d1 29 44 bd
       -0.056048363 0.0880163 -0.17032039 -0.04789144
000150 90 84 9e 3d 9c 0c 2d 3e da 9b c9 bd 4c d4 3e 3e
       0.07740128 0.16899341 -0.098441795 0.18635672
000160 f0 84 10 be c7 59 b4 3d 38 b6 d8 3d 68 31 33 bd
       -0.14113212 0.08806186 0.105816305 -0.04374829
000170 f2 ef 4d 3e d4 fe db 3d 9a 19 03 3d a4 be e0 3d
       0.20111063 0.10741964 0.032006837 0.10973862
000180 99 b8 d6 3c e8 04 3f bd b5 f0 0b be 44 3c 15 be
       0.02621107 -0.04663554 -0.13666041 -0.14573771
000190 ce 09 dd 3c ee da 58 3d 2a 59 39 be 28 96 b1 bd
       0.026982214 0.052943163 -0.1810042 -0.08671218
0001a0 ee 3b dd bd c1 fa cd bd f3 6d 3d be cd 56 1f be
       -0.10802446 -0.10057593 -0.18498974 -0.15560456
0001b0 30 d6 c9 3c 0e 2c 18 3e f8 61 98 bd 1e 70 00 be
       0.024638265 0.14860556 -0.07440561 -0.1254277
0001c0 01 71 a2 3d a6 0e c1 bd dc b1 b5 3d 80 ad 4b 3e
       0.0793171 -0.09426622 0.088718146 0.19890404
0001d0 40 3e 91 3c fd d3 12 3e 38 43 a9 bd af 90 37 3e
       0.017729878 0.1433868 -0.08264774 0.17926286
0001e0 bb 7b 7b 3c 10 ba c1 3d f4 d6 a5 3d 5b b7 0d be
       0.015349324 0.09459317 0.0809764 -0.13839476
0001f0 61 af 93 bb b3 d3 f4 3d 15 eb 04 be 1e 06 cb bc
       -0.004506991 0.11954441 -0.12980302 -0.02478319
000200 4b 18 ec bd c4 3d e7 bd 4e 24 9a bd 71 52 87 be
       -0.11528071 -0.11291078 -0.07526456 -0.26430085
000210 00 d4 88 bc 88 a3 95 bd 83 ad c7 3d a8 e8 32 be
       -0.016702652 -0.07306582 0.097498916 -0.17471564
000220 c6 25 39 3e e5 9f 91 3d 86 e6 25 3e 00 0d ea 3d
       0.18080816 0.071105756 0.16201219 0.11428261
000230 9c 13 09 3e 6c 55 a2 bb d6 8a 06 3e 2c 2c 80 bd
       0.13386387 -0.0049540307 0.13138899 -0.06258425
000240 aa 51 21 3e a0 c6 bd 3b 9e 84 30 3e f2 05 32 be
       0.15753809 0.0057915 0.1723809 -0.1738508
000250 76 b9 b2 bd b5 58 6e be 90 22 e3 bd cd d3 cb bd
       -0.0872678 -0.23276027 -0.11090577 -0.09952507
000260 e0 a4 8f bd f7 25 c1 bd ef 32 05 3e 6a f4 28 be
       -0.07013869 -0.09431069 0.13007711 -0.16499487
000270 3c bb 61 bd 58 34 b7 3d 45 7d c2 bd 4c 20 28 bd
       -0.0551102 0.08945531 -0.094965495 -0.041046426
000280 89 76 a6 3b dc c7 e7 3d 46 4b 1a be 9d 36 2c be
       0.0050800485 0.11317417 -0.15067777 -0.16817708
000290 26 12 19 be 7c d7 10 be ff 8f 92 bd 7c e9 10 bd
       -0.1494833 -0.14144701 -0.07156371 -0.035378918
0002a0 27 00 08 be 0f 83 47 be 90 a9 8b bc e8 d9 2d 3e
       -0.13281308 -0.19483589 -0.017048627 0.16977656
0002b0 a9 de 35 be da e9 5d 3e 22 f7 0f be 6f ca 92 3e
       -0.1776072 0.21671239 -0.14059117 0.2867007
0002c0 54 d4 04 3e 47 aa 49 be a3 43 df bd 41 6d b7 3c
       0.12971622 -0.19693862 -0.109015726 0.022390964
0002d0 50 a2 38 3e 39 c8 06 be 5a 27 70 3e c0 f8 e4 bc
       0.18030667 -0.13162316 0.23452511 -0.027950644
0002e0 8d d4 fb bd 0d 77 04 3e 2c 7b 75 bd de 88 36 be
       -0.122964 0.1293604 -0.05993192 -0.17825648
0002f0 e4 69 2e 3e 04 e3 e7 bc aa b6 97 3d 9f 29 a6 3c
       0.17032582 -0.028306492 0.07407887 0.020283518
000300 62 0b 02 be 98 de 82 bc e0 f4 ce bb f0 4e b2 3d
       -0.12699655 -0.015975282 -0.0063158125 0.087064624
000310 1f ad c5 bd f4 21 87 bd d6 d2 07 3e 70 87 fc bd
       -0.09652161 -0.06598273 0.13264021 -0.1233052
000320 fb 99 d9 bd fc 67 3c 3e 73 a6 4f 3e 11 7a f2 bd
       -0.106250726 0.18399042 0.20278339 -0.118396886
000330 e8 4b c5 bd 60 7b 93 3b 96 56 b2 bd 0d 88 ed bd
       -0.096336186 0.0045007914 -0.08707921 -0.11598215
000340 85 79 21 be f9 b9 2d be 30 33 4c 3e 80 b7 df 3a
       -0.15769012 -0.16965474 0.19941401 0.0017068237
000350 c8 b9 c2 3c e3 c6 1f 3e 59 08 f7 3d a1 4e 1e 3d
       0.023770228 0.15603213 0.12062139 0.038649205
000360 c5 bf 84 ba e8 35 97 bc b0 34 13 3e ea 6d 19 3e
       -0.0010127953 -0.018458322 0.14375567 0.14983335
000370 55 8d 0b be 94 bc 34 3e b4 f1 36 3d 9c 02 0b 3e
       -0.13628133 0.17650062 0.0446641 0.13575214
000380 7c 2d 0e be c8 ce f5 bc 73 d0 01 3e 13 dc 91 3c
       -0.13884538 -0.030005828 0.12677173 0.017805135
000390 fc 5c 2e be b8 2d a8 3c 06 c6 ee 3b 18 99 38 bd
       -0.17027658 0.020529613 0.00728679 -0.045067877
0003a0 34 00 c4 3d 92 b6 eb 3d 76 dd 1d 3e 70 e7 2b 3c
       0.09570351 0.11509432 0.15416512 0.010492191
0003b0 48 12 57 3d 1a 6e 12 3e 96 d9 05 be bc c3 4e bd
       0.05250767 0.14299813 -0.13071284 -0.050479636
0003c0 4e 8e 02 3e 0a c9 29 3e 74 08 25 3e 80 4d a9 ba
       0.12749597 0.16580597 0.16116506 -0.0012916774
0003d0 bd cd 4b be f8 18 3e 3e d2 ce 8b bd 53 9a 40 be
       -0.19902702 0.18564212 -0.06826557 -0.1880887
0003e0 44 67 4c be 6e f7 41 3e c4 91 51 bd 30 e0 a3 3d
       -0.19961268 0.18942043 -0.051164404 0.08001745
0003f0 28 b4 56 bd 4c 4c c9 3d c4 e4 39 bd 5c 61 16 3d
       -0.052417904 0.098290056 -0.045384184 0.036713943

bias f4 [40]
000000 0c 17 2e 3d f3 f3 99 3d c9 cb 22 3e 78 ec b3 bd
       0.042502448 0.07517233 0.1589805 -0.08785337
000010 e7 e1 6a 3d e4 a9 27 be 85 09 ba bc d2 81 40 3e
       0.057344344 -0.16373402 -0.022709617 0.18799523
000020 a3 b6 f9 3d fc 82 06 be c9 be eb bd 28 87 3b bc
       0.12193038 -0.13135904 -0.11510999 -0.011445798
000030 4a e8 9e bd ea 85 2d 3e 8a 8d 12 be 95 82 9c 3c
       -0.077591494 0.16945615 -0.14311805 0.019105235
000040 1b 02 34 be 69 13 03 3e 73 4c 6e 3c 3e af 5c be
       -0.17578928 0.12800373 0.014544594 -0.21551225
000050 93 65 b4 bd c3 74 06 be 17 d3 8e 3c 18 03 e0 bc
       -0.08808436 -0.13130479 0.01743464 -0.027345225
000060 a9 66 bc 3d 6d 76 ec 3d 72 e8 1e bd ca 05 b8 bd
       0.09199268 0.115460254 -0.038795896 -0.08985479
000070 32 82 aa bd 81 55 45 3e 19 52 4d be 45 4a 51 3c
       -0.08325614 0.19270898 -0.20050849 0.012774055
000080 f6 b6 d9 bd 66 3a cc bc 87 bf 16 be 21 5a 31 3e
       -0.106306 -0.02493019 -0.147215 0.17319538
000090 ba a7 bc 3a 57 f7 2c 3d ea 0a 48 3e ab cc 32 3d
       0.0014393248 0.04222807 0.19535413 0.043652218

weight f4 [1, 40]
000000 ff e8 0b be fd 06 18 3e ee 01 f4 3d d7 b5 dc bd
       -0.136631 0.14846416 0.119144306 -0.10776871
000010 06 ca a1 3d 9d 48 5d 3d 8b 1b 09 3e 3d 69 44 3e
       0.07899861 0.054024328 0.13389413 0.1918077
000020 42 af b8 bd a1 09 aa 3d ca 34 eb 3d 6e 16 0e 3d
       -0.09017803 0.08302618 0.11484678 0.03468936
000030 96 48 95 3d 42 0a 9a 3d 99 28 0b be e6 f8 b5 bd
       0.07289235 0.07521488 -0.13589706 -0.08885364
000040 a9 81 4b bd 82 d9 f5 3d f4 0d 5d 3e 62 51 7a 3d
       -0.0496842 0.12004377 0.21587354 0.06111277
000050 8b dd d4 3d b5 66 8e 3c fd 2f d8 bd 58 b6 89 3d
       0.103938185 0.017382959 -0.10556028 0.067242324
000060 15 7b 5e bd 2a 24 b9 bd 25 47 00 be 36 e3 29 bb
       -0.0543166 -0.09040101 -0.1252714 -0.0025922782
000070 d4 0e 07 be 61 60 b1 3d 9a 4f 73 be 5c 6f e8 bd
       -0.1318925 0.08660961 -0.23760834 -0.11349365
000080 8f 83 b1 3d 32 f1 a9 3c de a1 2d bd 20 b8 0e 3d
       0.08667671 0.020744894 -0.042390697 0.034843564
000090 27 28 33 bd 2c 5e 8a bd 20 8f c5 3c 05 d0 ef 3d
       -0.043739464 -0.06756243 0.024116099 0.117095985

probs f4 [6]
000000 ab aa 2a 3e ab aa 2a 3e ab aa 2a 3e ab aa 2a 3e
       0.16666667 0.16666667 0.16666667 0.16666667
000010 ab aa 2a 3e ab aa 2a 3e
       0.16666667 0.16666667

logits f4 [6]
000000 60 58 e5 bf 60 58 e5 bf 60 58 e5 bf 60 58 e5 bf
       -1.7917595 -1.7917595 -1.7917595 -1.7917595
000010 60 58 e5 bf 60 58 e5 bf
       -1.7917595 -1.7917595
