src/coinjump_learn/training/PPO_preTrained/CoinJumpEnv-v2/PPO_CoinJumpEnv-v2_123456_6306.pth (torch, 331407 bytes, 6 tensors)

W f4 [10, 10]
00000000: baf9 25be 3d66 7cbf f0d4 0cc0 be2b e6bf
00000010: f96e f23f c011 62bf 594c 18bf 7613 dbbf
00000020: 2fee c8bf 6484 34c0 66fa 0cbf e465 933f
00000030: 389d 413f 9ff3 13bf 9d85 7cbf a40a 10be
00000040: 00ba a0be 025a 8c3f 3311 f2bd 5ce3 47bf
00000050: 4c2c bfbf 4f46 35bf 2e3b 13c0 a909 b43f
00000060: 79be d6be b203 e3be bc2c 22c0 33e2 ecbf
00000070: fbb2 98bf 3632 fdbf cc7e bebf 8b89 353f
00000080: fca1 843f 6e79 7abe acb1 e83f b083 cdbf
00000090: 1dc7 653e 3db7 4bbf 10be f4bf d36d 8cbf
000000a0: d2a6 4bbf 0e7c 6a3f ddfc 463f a7bf f43c
000000b0: 8570 f83e 0237 fd3d f8b2 023f e9c5 d2be
000000c0: a783 ef3e 771a 0e3f 6400 bebf 6cd2 3540
000000d0: b809 943f 4e36 883f 7153 b9bf 73bc 00bf
000000e0: 12a4 093e a49e 0a3f 519f 13be c31a 8dbf
000000f0: ac7e 113e 871b 77bf f831 1940 7777 9bbf
00000100: 7fb0 98bf f6fb 803f f911 903f 93ed 4b3f
00000110: e603 5c3f 3651 febf 1f6f 2740 ee99 69c0
00000120: 0199 03c0 2edb dcbf d248 8cbf fb6a 37c0
00000130: be36 37c0 fe00 5ebf 17ff 3ac0 0bb2 17c0
00000140: 29b7 133e 59b0 893e 6c3e 573f 0276 2e3f
00000150: b159 943f b663 3ebf 4938 83be 81bb 4b3f
00000160: 6af3 b8be 5d36 c43e c036 e83e b0f2 2f3f
00000170: 42ac 033e d3b5 153f 88fe f2bf e1e0 8abf
00000180: a589 2bbf 4c02 973f 446f babf ba85 09bf
-0.16208544 -0.98593503 -2.2004967 -1.7982099 1.8940116 -0.88308334 -0.594915 -1.7115314
-1.5697688 -2.8205805 -0.5506958 1.151547 0.7563052 -0.5779361 -0.9864138 -0.14066559
-0.31391907 1.0964968 -0.11819687 -0.780813 -1.4935393 -0.7081041 -2.300487 1.4065448
-0.41942194 -0.44338757 -2.5339804 -1.850653 -1.192962 -1.9780948 -1.4882445 0.70913
1.0361934 -0.24460384 1.8179221 -1.6055813 0.22439237 -0.79576474 -1.9120502 -1.0971016
-0.7955142 0.9159554 0.7772959 0.029876543 0.48523346 0.123640075 0.51054335 -0.41166618
0.4678013 0.5550913 -1.4843869 2.8409681 1.1565466 1.0641572 -1.4478589 -0.5028755
0.13441494 0.54148316 -0.14416243 -1.1023792 0.14208478 -0.9652638 2.3936749 -1.2145833
-1.1928862 1.0076892 1.1255485 0.79659384 0.8594345 -1.9868534 2.6161573 -3.6500201
-2.0562136 -1.7254388 -1.0959723 -2.8659046 -2.8627162 -0.86720264 -2.9218194 -2.3702419
0.14425339 0.26892355 0.84079623 0.68148816 1.1589872 -0.74370897 -0.2562888 0.79582983
-0.3612321 0.38322726 0.4535427 0.68729687 0.1285868 0.58480567 -1.8983927 -1.0849878
-0.67006904 1.1797576 -1.4565206 -0.53719676

weight f4 [40, 24]
00000000: 6a7f 7abd 36da 043e 0057 07bc e29f 2f3e
00000010: afb3 043e d9be 183d 44fd a03d f51b ad3d
00000020: 9826 aebc 001d f8ba fee6 7dbe 3558 a53e
00000030: 682a af3c de82 4ebe 196a 65be bbc6 d6bd
00000040: 21c1 9d3c bf19 17be dadf 4abe 8114 a3bd
00000050: 0051 6dbb 8248 043c 070b 173d e3c6 d03d
00000060: fbff 1cbe 9871 c0bd de1d 1bbe 2c8e a5bd
00000070: b2b1 3dbe 4b9a 1f3e e478 1cbe 6ccc 6d3d
00000080: 441b 1f3d 652c d3bd 023f 293e 1eb3 3a3e
00000090: efd0 c4bd 9d9b b0bd ecb4 f9bd 1770 26be
000000a0: 1bb5 92bd 2d22 c93b a0a6 afbd 62cb 413e
000000b0: 9028 dcbc da55 b3bd b720 32be a899 72bd
000000c0: 888f 523e ce3a 83bd f0c4 9a3d 9806 123e
000000d0: 5053 35be 983f f2bd 5468 013e 8580 ca3c
000000e0: 04af 10be 80f3 423e 2db4 1bbe 9ebb 50bd
000000f0: 144d 23bd 6098 9a3b 5c23 bd3d d635 4f3e
00000100: c858 95bc cef5 2b3d 16ea 2c3e 6762 4cbe
00000110: acc1 bc3d e5c9 103e 7497 3c3e 9193 e2bd
00000120: f444 a73d 8c34 4f3e b159 43be 007a 4cbe
00000130: 8603 debd 8f92 01be 3ed8 aabd 8b91 963d
00000140: f892 65bd e441 b43d 7868 2ebe d129 44bd
00000150: 9084 9e3d 9c0c 2d3e 5d1f ccbd 4cd4 3e3e
00000160: 0471 11be 42d6 b13d 38b6 d83d 6831 33bd
00000170: f2ef 4d3e 517b d93d 34dc f83c 1f3b de3d
00000180: ec65 2c3d e804 3fbd b5f0 0bbe 443c 15be
00000190: 6779 fb3c 7987 4f3d 2a59 39be 024a 66be
000001a0: ee3b ddbd c1fa cdbd be1e 88be df6a 96be
000001b0: 30d6 c93c 0e2c 183e 51ba 6fbd 1e70 00be
000001c0: e866 a63d d889 a0bd dcb1 b53d 80ad 4b3e
000001d0: 403e 913c 6116 233e 9c45 50bd 1bd3 473e
000001e0: 6f82 143d 10ba c13d f4d6 a53d 5bb7 0dbe
000001f0: 155d 54bb c2c8 e73d 15eb 04be 788f 6abd
00000200: 4b18 ecbd c43d e7bd 4876 90bd 0ff4 97be
00000210: 00d4 88bc 88a3 95bd 517f f23d a8e8 32be
00000220: afbb 403e b371 bc3d 86e6 253e 000d ea3d
00000230: 9c13 093e afb1 823c 5e66 073e deb4 2abd
00000240: b08c 203e a0c6 bd3b 9e84 303e f205 32be
00000250: ab35 cfbd a951 73be 9022 e3bd c95d cdbd
00000260: e0a4 8fbd f725 c1bd 5c1d 0c3e 62b9 29be
00000270: 3cbb 61bd 5834 b73d 4107 c4bd 4c20 28bd
00000280: a5fe 02bc e13d e63d 464b 1abe 9d36 2cbe
00000290: 2612 19be 769c 11be 5ace 40bd 88fd 13bd
000002a0: d557 eabd 0f83 47be 90a9 8bbc e8d9 2d3e
000002b0: 596c 3bbe 1b1e 693e 22f7 0fbe 6e98 a73e
000002c0: 54d4 043e 47aa 49be 307c f3bd 6e13 813d
000002d0: 50a2 383e 39c8 06be c37d 813e c0f8 e4bc
000002e0: e0dc d1bd 404b 173e 2c7b 75bd de88 36be
000002f0: e469 2e3e 0083 22bc a45d b23d 8c65 1e3d
00000300: ed65 0bbe 98de 82bc e0f4 cebb f04e b23d
00000310: 5520 d7bd b7ae 50bd d6d2 073e f223 06be
00000320: fb99 d9bd fc67 3c3e feff 753e 421d 01be
00000330: e84b c5bd 607b 933b c50b c5bd 0d88 edbd
00000340: 84dd 15be 8114 37be 3033 4c3e 80b7 df3a
00000350: c8b9 c23c 5a6c 163e 1bcc a83d e7c8 f13c
00000360: 9c09 51ba e835 97bc b034 133e ea6d 193e
00000370: 0901 13be ae08 183e b4f1 363d 5382 3e3e
00000380: 7c2d 0ebe c8ce f5bc 0e4f f83d 6076 8b3d
00000390: fc5c 2ebe b82d a83c bad4 f53b 1899 38bd
000003a0: f6b9 c63d 8e27 ec3d 76dd 1d3e 70e7 2b3c
000003b0: 4812 573d 88a6 123e 4ad2 f9bd e0e1 4dbd
000003c0: 4e8e 023e 0ac9 293e 7408 253e 804d a9ba
000003d0: bdcd 4bbe f818 3e3e d2ce 8bbd 539a 40be
000003e0: 4467 4cbe 6ef7 413e c491 51bd 30e0 a33d
000003f0: 28b4 56bd 4c4c c93d c4e4 39bd 5c61 163d
-0.061156668 0.12973866 -0.0082604885 0.17150834 0.12959169 0.03729138 0.078608066 0.08452598
-0.021258637 -0.0018929541 -0.24795148 0.3229386 0.021382526 -0.2016711 -0.22403754 -0.104871236
0.01925713 -0.14755915 -0.19811955 -0.07962895 -0.003621161 0.008073928 0.03687575 0.10194185
-0.15332024 -0.09396666 -0.15148112 -0.08083758 -0.18524817 0.15586202 -0.15280491 0.05805628
0.038844362 -0.10311202 0.16527942 0.1823239 -0.096101634 -0.08623431 -0.12192711 -0.16253696
-0.071634494 0.0061381073 -0.08576703 0.1892524 -0.02687481 -0.08756609 -0.17395292 -0.05922857
0.20562565 -0.064077005 0.07557094 0.14260328 -0.17707562 -0.11828536 0.12637454 0.024719486
-0.14129263 0.190382 -0.1520545 -0.050960176 -0.03986843 0.0047178715 0.0923526 0.2023538
-0.01823081 0.041982464 0.16886172 -0.19959413 0.092166275 0.14139517 0.1841715 -0.11063302
0.08167449 0.20234889 -0.19077183 -0.19968414 -0.10840516 -0.12653564 -0.08342026 0.07351979
-0.056048363 0.0880163 -0.17032039 -0.04789144 0.07740128 0.16899341 -0.099669196 0.18635672
-0.14203268 0.086834446 0.105816305 -0.04374829 0.20111063 0.10619224 0.030378439 0.1085112
0.042089388 -0.04663554 -0.13666041 -0.14573771 0.030697538 0.050666306 -0.1810042 -0.22489169
-0.10802446 -0.10057593 -0.26585954 -0.2937841 0.024638265 0.14860556 -0.058527295 -0.1254277
0.081250966 -0.078387916 0.088718146 0.19890404 0.017729878 0.15926506 -0.050847635 0.19514124
0.036257204 0.09459317 0.0809764 -0.13839476 -0.0032404114 0.113175884 -0.12980302 -0.05726573
-0.11528071 -0.11291078 -0.0705381 -0.2967839 -0.016702652 -0.07306582 0.1184069 -0.17471564
0.18821596 0.09201374 0.16201219 0.11428261 0.13386387 0.015953867 0.13222644 -0.041676395
0.15678668 0.0057915 0.1723809 -0.1738508 -0.10117658 -0.2376162 -0.11090577 -0.10027654
-0.07013869 -0.09431069 0.13683075 -0.16574624 -0.0551102 0.08945531 -0.09571696 -0.041046426
-0.007995282 0.11242271 -0.15067777 -0.16817708 -0.1494833 -0.14219841 -0.047071792 -0.036130458
-0.11442534 -0.19483589 -0.017048627 0.16977656 -0.1830305 0.2276539 -0.14059117 0.32733482
0.12971622 -0.19693862 -0.11888921 0.06302534 0.18030667 -0.13162316 0.2529126 -0.027950644
-0.10247207 0.147748 -0.05993192 -0.17825648 0.17032582 -0.009918928 0.08709267 0.03867106
-0.136131 -0.015975282 -0.0063158125 0.087064624 -0.10504214 -0.05094787 0.13264021 -0.1309965
-0.106250726 0.18399042 0.24023435 -0.12608817 -0.096336186 0.0045007914 -0.096213855 -0.11598215
-0.14635283 -0.17878915 0.19941401 0.0017068237 0.023770228 0.1468977 0.08242055 0.029514743
-0.0007974149 -0.018458322 0.14375567 0.14983335 -0.14355864 0.14847061 0.0446641 0.18604402
-0.13884538 -0.030005828 0.121244535 0.068096876 -0.17027658 0.020529613 0.0075021656 -0.045067877
0.09703438 0.11530982 0.15416512 0.010492191 0.05250767 0.14321339 -0.121983126 -0.05026424
0.12749597 0.16580597 0.16116506 -0.0012916774 -0.19902702 0.18564212 -0.06826557 -0.1880887
-0.19961268 0.18942043 -0.051164404 0.08001745 -0.052417904 0.098290056 -0.045384184 0.036713943

bias f4 [40]
00000000: 6305 3e3c 7f5c a73d 2a4f 393e fb6f b6bd
00000010: caf5 953d ff40 12be 7d31 c0bc 0456 533e
00000020: 7601 e73d 8a4a 06be c9be ebbd e579 8ebc
00000030: 87b2 98bd 6197 403e 64b6 2bbe 466e 31bb
00000040: 7f8d 63be be19 0f3e b89f 243d 8242 69be
00000050: a111 8bbd dec9 11be 179b a7bb 1803 e0bc
00000060: 4343 aa3d 01bb e03d 154c fcbc 5d41 c0bd
00000070: 25ae b4bd 0436 5a3e 4e51 53be 148f 1a3c
00000080: fafa ecbd 4eaf 2cbc 87bf 16be ac01 363e
00000090: f2e5 4e3c c876 c13c ea0a 483e 6a8b 2d3d
0.011597964 0.08171939 0.18096605 -0.08908077 0.07322271 -0.14282607 -0.023461098 0.20638281
0.112795755 -0.13114372 -0.11510999 -0.017392108 -0.074559264 0.18807746 -0.16768795 -0.0027073785
-0.22221945 0.13974664 0.040191382 -0.22779277 -0.06790472 -0.14237162 -0.0051149237 -0.027345225
0.083136104 0.10973168 -0.030797997 -0.09387467 -0.08822278 0.21309668 -0.20636484 0.009433527
-0.115713075 -0.010539843 -0.147215 0.17774075 0.012628065 0.02361621 0.19535413 0.042369284

weight f4 [1, 40]
00000000: 97c2 35be 023e 233e 0e40 083e 2279 dcbd
00000010: e439 0a3e 3ef0 7d3d 623a 193e 6ad9 643e
00000020: 46bd e6bd ead0 913d ca34 eb3d 5d31 013d
00000030: d8b7 a53d eb57 a33d 3dba 08be 9560 19be
00000040: 09ac d8bd e37b fc3d 1653 823e 2c3a 623d
00000050: baa1 df3d de90 393c 3119 d0bd 58b6 893d
00000060: 94f3 66bd d278 13be 73ab f9bd 38c6 04bc
00000070: 86fb 12be 435c ba3d 0736 a1be 9a7b 0bbe
00000080: 2337 ca3d fca0 ce3c dea1 2dbd b557 ae3d
00000090: 72f9 fabd f344 b0bd 208f c53c 68a0 b63d
-0.17750011 0.15941623 0.13305685 -0.10765292 0.13498646 0.06199669 0.14963678 0.22348562
-0.1126657 0.07119925 0.11484678 0.031541217 0.08091706 0.079757534 -0.13352294 -0.1497825
-0.10579688 0.12328317 0.25454015 0.05523126 0.10919519 0.011326043 -0.10161055 0.067242324
-0.056384638 -0.14401558 -0.121909045 -0.0081039 -0.14353761 0.09099629 -0.31486532 -0.13621369
0.09873798 0.025223248 -0.042390697 0.085128225 -0.12254609 -0.08606901 0.024116099 0.08917314

probs f4 [6]
00000000: abaa 2a3e abaa 2a3e abaa 2a3e abaa 2a3e
00000010: abaa 2a3e abaa 2a3e
0.16666667 0.16666667 0.16666667 0.16666667 0.16666667 0.16666667

logits f4 [6]
00000000: 6058 e5bf 6058 e5bf 6058 e5bf 6058 e5bf
00000010: 6058 e5bf 6058 e5bf
-1.7917595 -1.7917595 -1.7917595 -1.7917595 -1.7917595 -1.7917595
