src/coinjump_learn/training/PPO_preTrained/CoinJumpEnv-v2/PPO_CoinJumpEnv-v2_123456_5719.pth (torch, 197647 bytes, 6 tensors)

W f4 [6, 6]
000000 00 00 c8 42 00 00 00 00 00 00 00 00 00 00 00 00
       100.0 0.0 0.0 0.0
000010 00 00 00 00 00 00 00 00 00 00 00 00 00 00 c8 42
       0.0 0.0 0.0 100.0
000020 00 00 00 00 00 00 00 00 00 00 00 00 00 00 00 00
       0.0 0.0 0.0 0.0
000030 00 00 00 00 00 00 00 00 00 00 c8 42 00 00 00 00
       0.0 0.0 100.0 0.0
000040 00 00 00 00 00 00 00 00 00 00 00 00 00 00 00 00
       0.0 0.0 0.0 0.0
000050 00 00 00 00 00 00 c8 42 00 00 00 00 00 00 00 00
       0.0 100.0 0.0 0.0
000060 00 00 00 00 00 00 00 00 00 00 00 00 00 00 00 00
       0.0 0.0 0.0 0.0
000070 00 00 c8 42 00 00 00 00 00 00 00 00 00 00 00 00
       100.0 0.0 0.0 0.0
000080 00 00 00 00 00 00 00 00 00 00 00 00 00 00 c8 42
       0.0 0.0 0.0 100.0

weight f4 [40, 24]
000000 a8 eb 07 3b 36 da 04 3e 00 57 07 bc e2 9f 2f 3e
       0.0020739827 0.12973866 -0.0082604885 0.17150834
000010 b9 44 bf 3d 9d a1 a7 3d 44 fd a0 3d 1f 72 b9 bc
       0.0933928 0.08185122 0.078608066 -0.022637425
000020 98 26 ae bc 00 1d f8 ba 2a 58 4a be 7b f4 5c 3e
       -0.021258637 -0.0018929541 -0.19760194 0.21577637
000030 68 2a af 3c de 82 4e be 90 aa 24 be bb c6 d6 bd
       0.021382526 -0.2016711 -0.1608069 -0.104871236
000040 13 84 c6 3c 76 b4 ac bd da df 4a be 81 14 a3 bd
       0.0242329 -0.08432858 -0.19811955 -0.07962895
000050 00 51 6d bb 27 08 92 3d 38 13 b0 3d 08 23 29 3e
       -0.003621161 0.07130461 0.08597416 0.1651727
000060 3e b2 2e be 98 71 c0 bd de 1d 1b be 2c 8e a5 bd
       -0.17060181 -0.09396666 -0.15148112 -0.08083758
000070 97 b0 5d be 4f 96 1f 3e e4 78 1c be 85 03 27 3d
       -0.21649395 0.15584682 -0.15280491 0.04077484
000080 44 1b 1f 3d 65 2c d3 bd ca bb fb 3d c4 00 29 3e
       0.038844362 -0.10311202 0.12291677 0.16504198
000090 ef d0 c4 bd 9d 9b b0 bd b4 8c 0e be 17 70 26 be
       -0.096101634 -0.08623431 -0.13920861 -0.16253696
0000a0 89 8c b2 bd 20 93 36 bc a0 a6 af bd 62 cb 41 3e
       -0.08718211 -0.011143476 -0.08576703 0.1892524
0000b0 90 28 dc bc 64 ba d6 bd 80 08 61 be 61 b1 9c bd
       -0.02687481 -0.1048477 -0.21975899 -0.0765102
0000c0 70 94 3a 3e ce 3a 83 bd f0 c4 9a 3d 98 06 12 3e
       0.18220687 -0.064077005 0.07557094 0.14260328
0000d0 74 07 2d be 40 3c 0a be 54 68 01 3e 8f 3d 82 3d
       -0.16897374 -0.13499546 0.12637454 0.063593976
0000e0 04 af 10 be 80 f3 42 3e 57 a8 30 be 89 02 46 bc
       -0.14129263 0.190382 -0.17251717 -0.012085565
0000f0 14 4d 23 bd 60 98 9a 3b 1d 2d 8d 3d d6 35 4f 3e
       -0.03986843 0.0047178715 0.0689337 0.2023538
000100 b6 a8 1c bb 1f 12 98 3c 16 ea 2c 3e 67 62 4c be
       -0.002390427 0.018563328 0.16886172 -0.19959413
000110 ac c1 bc 3d a6 9d f1 3d b2 13 33 3e e6 44 09 be
       0.092166275 0.11797647 0.17487982 -0.13405189
000120 f9 4a a9 3d 8c 34 4f 3e b1 59 43 be 00 7a 4c be
       0.08266253 0.20234889 -0.19077183 -0.19968414
000130 fd a1 ea bd b0 c7 fb bd 3e d8 aa bd 70 d6 87 3d
       -0.11456678 -0.12293947 -0.08342026 0.066326976
000140 f8 92 65 bd e4 41 b4 3d 43 48 33 be 98 a2 61 bd
       -0.056048363 0.0880163 -0.17508034 -0.055086702
000150 90 84 9e 3d 9c 0c 2d 3e 51 19 ca bd 4c d4 3e 3e
       0.07740128 0.16899341 -0.0986811 0.18635672
000160 3f b1 13 be f7 db b3 3d 38 b6 d8 3d 68 31 33 bd
       -0.14423083 0.08782189 0.105816305 -0.04374829
000170 f2 ef 4d 3e 55 81 db 3d 3a 48 0c 3d e8 40 e0 3d
       0.20111063 0.107180275 0.034248568 0.1094988
000180 43 1b 1a 3c e8 04 3f bd b5 f0 0b be 44 3c 15 be
       0.009405914 -0.04663554 -0.13666041 -0.14573771
000190 20 40 58 3a 86 af 11 3d 2a 59 39 be 41 87 0a 3d
       0.00082493015 0.035567783 -0.1810042 0.033820394
0001a0 ee 3b dd bd c1 fa cd bd f7 a0 01 be 6f a7 0f bd
       -0.10802446 -0.10057593 -0.1265906 -0.035071786
0001b0 30 d6 c9 3c 0e 2c 18 3e b2 cc ba bd 1e 70 00 be
       0.024638265 0.14860556 -0.09121074 -0.1254277
0001c0 80 28 9e 3d 60 79 e3 bd dc b1 b5 3d 80 ad 4b 3e
       0.077225685 -0.11107135 0.088718146 0.19890404
0001d0 40 3e 91 3c a5 9e 01 3e 47 42 fe bd 49 5b 26 3e
       0.017729878 0.12658174 -0.12414985 0.1624576
0001e0 03 e3 90 3a 10 ba c1 3d f4 d6 a5 3d 5b b7 0d be
       0.0011053983 0.09459317 0.0809764 -0.13839476
0001f0 88 84 e5 bb 7e 42 e9 3d 15 eb 04 be ca 2e 65 3c
       -0.0070043243 0.113896355 -0.12980302 0.013988206
000200 4b 18 ec bd c4 3d e7 bd b6 7f 9a bd 21 f1 66 be
       -0.11528071 -0.11291078 -0.0754389 -0.22552921
000210 00 d4 88 bc 88 a3 95 bd 83 81 aa 3d a8 e8 32 be
       -0.016702652 -0.07306582 0.08325484 -0.17471564
000220 88 82 33 3e 02 e8 68 3d 86 e6 25 3e 00 0d ea 3d
       0.17530262 0.056861885 0.16201219 0.11428261
000230 9c 13 09 3e 01 45 9d bc f0 25 07 3e 2b 58 9d bd
       0.13386387 -0.019197943 0.13198066 -0.07682832
000240 5a 7e 34 3e a0 c6 bd 3b 9e 84 30 3e f2 05 32 be
       0.17626324 0.0057915 0.1723809 -0.1738508
000250 4a f1 30 bd 11 5b 5a be 90 22 e3 bd 6d 7a a5 bd
       -0.04319886 -0.21323802 -0.11090577 -0.080799915
000260 e0 a4 8f bd f7 25 c1 bd 61 ea 13 3e ba c7 15 be
       -0.07013869 -0.09431069 0.14444877 -0.14626971
000270 3c bb 61 bd 58 34 b7 3d e5 23 9c bd 4c 20 28 bd
       -0.0551102 0.08945531 -0.07624034 -0.041046426
000280 af 48 ac 3c a0 10 07 3e 46 4b 1a be 9d 36 2c be
       0.021030752 0.13189936 -0.15067777 -0.16817708
000290 26 12 19 be 91 55 fb bd e9 a1 94 bd 87 6d 88 bc
       -0.1494833 -0.1227218 -0.072574444 -0.01665379
0002a0 89 81 d9 bd 0f 83 47 be 90 a9 8b bc e8 d9 2d 3e
       -0.1062041 -0.19483589 -0.017048627 0.16977656
0002b0 61 79 10 be cf f6 71 3e 22 f7 0f be 2b 99 47 3e
       -0.14108802 0.23629306 -0.14059117 0.19492023
0002c0 54 d4 04 3e 47 aa 49 be 10 1b d1 bd 54 1c 8e bd
       0.12971622 -0.19693862 -0.1021024 -0.06938997
0002d0 50 a2 38 3e 39 c8 06 be 63 b3 85 3e c0 f8 e4 bc
       0.18030667 -0.13162316 0.26113424 -0.027950644
0002e0 2e 96 e9 bd 6b b6 1f 3e 2c 7b 75 bd de 88 36 be
       -0.114055976 0.1559693 -0.05993192 -0.17825648
0002f0 e4 69 2e 3e b8 80 de ba bf ba f3 3d 6d 12 40 3d
       0.17032582 -0.0016975617 0.11900853 0.046892572
000300 29 f9 04 be 98 de 82 bc e0 f4 ce bb f0 4e b2 3d
       -0.12985672 -0.015975282 -0.0063158125 0.087064624
000310 56 63 ca bd cd 3b b2 bd d6 d2 07 3e e8 db d4 bd
       -0.09882228 -0.08702812 0.13264021 -0.10393506
000320 fb 99 d9 bd fc 67 3c 3e ee 56 37 3e 87 ce ca bd
       -0.106250726 0.18399042 0.17904255 -0.09902673
000330 e8 4b c5 bd 60 7b 93 3b 2d 32 b8 bd 0d 88 ed bd
       -0.096336186 0.0045007914 -0.08993945 -0.11598215
000340 a0 d9 24 be ba a7 30 be 30 33 4c 3e 80 b7 df 3a
       -0.16098642 -0.17251483 0.19941401 0.0017068237
000350 c8 b9 c2 3c 26 d9 1c 3e 80 12 07 3e 78 97 12 3d
       0.023770228 0.1531721 0.13190651 0.035788983
000360 34 90 cc bc e8 35 97 bc b0 34 13 3e ea 6d 19 3e
       -0.024971105 -0.018458322 0.14375567 0.14983335
000370 2c 73 1a be 8a 51 2c 3e b4 f1 36 3d c0 b6 d1 3d
       -0.15082997 0.1682798 0.0446641 0.10239935
000380 7c 2d 0e be c8 ce f5 bc 73 37 dc 3d 53 bc 7e bc
       -0.13884538 -0.030005828 0.107527636 -0.01554783
000390 fc 5c 2e be b8 2d a8 3c bd 92 88 bc 18 99 38 bd
       -0.17027658 0.020529613 -0.016671533 -0.045067877
0003a0 4c 24 9b 3d 88 a5 ba 3d 76 dd 1d 3e 70 e7 2b 3c
       0.075752825 0.09113604 0.15416512 0.010492191
0003b0 48 12 57 3d 27 cb f3 3d 96 b6 1c be e4 72 98 bd
       0.05250767 0.119039826 -0.15304026 -0.07443789
0003c0 4e 8e 02 3e 0a c9 29 3e 74 08 25 3e 80 4d a9 ba
       0.12749597 0.16580597 0.16116506 -0.0012916774
0003d0 bd cd 4b be f8 18 3e 3e d2 ce 8b bd 53 9a 40 be
       -0.19902702 0.18564212 -0.06826557 -0.1880887
0003e0 44 67 4c be 6e f7 41 3e c4 91 51 bd 30 e0 a3 3d
       -0.19961268 0.18942043 -0.051164404 0.08001745
0003f0 28 b4 56 bd 4c 4c c9 3d c4 e4 39 bd 5c 61 16 3d
       -0.052417904 0.098290056 -0.045384184 0.036713943

bias f4 [40]
000000 c2 3f 99 3d f5 f7 83 3d 12 54 21 3e f1 69 b4 bd
       0.07482864 0.064437784 0.15754727 -0.08809269
000010 5d 0c 26 3d d2 3f 36 be 22 91 82 bb 37 c1 5b 3e
       0.040539134 -0.17797783 -0.0039845863 0.21460424
000020 22 db f3 3d 8c 0b 1f be c9 be eb bd 00 8c 60 bc
       0.11907031 -0.15531749 -0.11510999 -0.013705254
000030 e7 07 9e bd 55 a2 1f 3e 91 16 ff bd 20 65 35 3d
       -0.07716351 0.15589269 -0.12455476 0.044285893
000040 d4 49 30 be 97 8d ec 3d b8 ed a5 bb 47 03 5a be
       -0.17215663 0.115504436 -0.0050637387 -0.21290313
000050 7e 63 d2 bd 33 89 0f be ba 18 12 3d 18 03 e0 bc
       -0.10272883 -0.14017181 0.035668112 -0.027345225
000060 4f 3e e6 3d 29 11 03 3e 31 5d c8 bc 97 99 97 bd
       0.11242353 0.12799515 -0.0244585 -0.07402342
000070 cc a1 6b bd 65 08 39 3e 3a e2 36 be 22 9e 58 3d
       -0.05752735 0.18069609 -0.17859736 0.052885182
000080 02 4e db bd c3 cf 11 bd 87 bf 16 be 26 d9 4a 3e
       -0.10708238 -0.035598528 -0.147215 0.19809398
000090 2e 4f d2 3c b3 1a 99 3d ea 0a 48 3e da 3d 2d 3d
       0.025672521 0.074757956 0.19535413 0.042295314

weight f4 [1, 40]
000000 ff db 04 be 80 13 0e 3e 02 8f fa 3d 59 92 e7 bd
       -0.12974547 0.13874626 0.12234308 -0.113072105
000010 17 79 0d 3d 08 43 37 3d f7 b8 01 3e 89 2b 80 3e
       0.03453931 0.04474166 0.12668215 0.25033215
000020 98 e6 95 bd 9c 55 87 3d ca 34 eb 3d ee 20 ed 3c
       -0.07319373 0.066081256 0.11484678 0.028946366
000030 ae a9 90 3d 4d a6 9c 3d 57 41 07 be 08 59 93 bd
       0.07063614 0.07648907 -0.13208519 -0.07194716
000040 ae c8 3b bd e9 5f e9 3d fc ed 6a 3e f8 55 6d 3d
       -0.04584568 0.113952465 0.22942346 0.057943314
000050 d3 2e c7 3d ca 83 95 ba 84 04 df bd 58 b6 89 3d
       0.09725728 -0.0011407074 -0.10889533 0.067242324
000060 e6 9e 46 bd c9 f5 9a bd eb 19 15 be 36 20 4a bc
       -0.04849138 -0.07566411 -0.14560668 -0.012336781
000070 1f fb 0c be ca bc ac 3d 4e a5 50 be 3a 94 d0 bd
       -0.1376767 0.08434446 -0.20375559 -0.10184522
000080 8d 86 95 3d 1c 25 8e 3c de a1 2d bd cd d2 5e bd
       0.07301054 0.01735168 -0.042390697 -0.054400254
000090 47 d2 98 bd 2e ca 3b bd 20 8f c5 3c 52 55 d0 3d
       -0.07461982 -0.04584711 0.024116099 0.101725236

probs f4 [6]
000000 ab aa 2a 3e ab aa 2a 3e ab aa 2a 3e ab aa 2a 3e
       0.16666667 0.16666667 0.16666667 0.16666667
000010 ab aa 2a 3e ab aa 2a 3e
       0.16666667 0.16666667

logits f4 [6]
000000 60 58 e5 bf 60 58 e5 bf 60 58 e5 bf 60 58 e5 bf
       -1.7917595 -1.7917595 -1.7917595 -1.7917595
000010 60 58 e5 bf 60 58 e5 bf
       -1.7917595 -1.7917595
