src/environments/coinjump/nsfr_coinjump_model/coinjump_LP_V1_6C_5m_weights.pth (torch, 6491 bytes, 4 tensors)

actor.im.W f4 [5, 6]
-0.22641684 -1.0084393 -2.2055123 -1.8442351 1.9935236 -1.1789991 1.5624895 0.44400963
0.66353905 -0.6085356 0.98144025 -0.40832037 3.1288178 -3.020258 -3.2802038 -1.9357585
-2.7202358 -1.742144 -1.8794132 -3.2884393 0.918568 0.68212146 -3.6699781 -1.8034621
-0.39916807 1.3965436 -2.5265207 -1.8549821 -1.1893575 -2.041075
00000000: d1d9 67be 8a14 81bf 1d27 0dc0 e50f ecbf
00000010: c82b ff3f 71e9 96bf a8ff c73f 3b55 e33e
00000020: b2dd 293f fdc8 1bbf ab3f 7b3f 5e0f d1be
00000030: 8d3e 4840 e84b 41c0 dcee 51c0 efc6 f7bf
00000040: 5818 2ec0 93fe debf 9d90 f0bf ca75 52c0
00000050: 4627 6b3f 839f 2e3f ece0 6ac0 d9d7 e6bf
00000060: c25f ccbe f1c1 b23f 84b2 21c0 0e70 edbf
00000070: de3c 98bf f9a0 02c0

critic.mlp.0.weight f4 [40, 24]
-0.056102946 0.12973866 -0.0082604885 0.17150834 0.15711553 0.051918633 0.078608066 0.043257147
-0.021258637 -0.0018929541 -0.22839291 0.28167075 0.021382526 -0.2016711 -0.21898377 -0.104871236
0.031602822 -0.1425057 -0.19811955 -0.07962895 -0.003621161 0.013127631 0.032898445 0.10699613
-0.20377636 -0.09396666 -0.15148112 -0.08083758 -0.27609563 0.08480193 -0.15280491 0.007600736
0.038844362 -0.10311202 0.15000841 0.13186765 -0.096101634 -0.08623431 -0.17238317 -0.16253696
-0.06824368 -0.04431772 -0.08576703 0.1892524 -0.02687481 -0.13802198 -0.16603857 -0.10968463
0.18030278 -0.064077005 0.07557094 0.14260328 -0.23592211 -0.100837 0.12637454 0.11120092
-0.14129263 0.190382 0.0019778216 0.035521414 -0.03986843 0.0047178715 0.06702954 0.2023538
0.022031995 0.016659338 0.16886172 -0.19959413 0.092166275 0.11607213 0.20130019 -0.13595572
0.16932823 0.20234889 -0.19077183 -0.19968414 -0.1666941 -0.038930967 -0.08342026 -0.15367074
-0.056048363 0.0880163 -0.39364254 -0.27510774 0.07740128 0.16899341 -0.012015446 0.18635672
0.0030949651 0.1744884 0.105816305 -0.04374829 0.20111063 0.19384594 0.06955317 0.19616543
-0.0071294536 -0.04663554 -0.13666041 -0.14573771 0.027456695 -0.010811206 -0.1810042 -0.32388768
-0.10802446 -0.10057593 -0.40499666 -0.39278075 0.024638265 0.14860556 -0.10774627 -0.1254277
0.122545406 -0.12760673 0.088718146 0.19890404 0.017729878 0.11004637 -0.049196534 0.14592256
0.052938905 0.09459317 0.0809764 -0.13839476 -0.012802598 0.111918665 -0.12980302 -0.0071511576
-0.11528071 -0.11291078 -0.051215194 -0.2466691 -0.016702652 -0.07306582 0.13508888 -0.17471564
0.19047059 0.10869579 0.16201219 0.11428261 0.13386387 0.032635693 0.11093839 -0.024994554
0.30997097 0.0057915 0.1723809 -0.1738508 -0.01108205 -0.1801399 -0.11090577 -0.08688358
-0.07013869 -0.09431069 0.16614145 -0.15235335 -0.0551102 0.08945531 0.057467967 -0.041046426
0.06857414 0.2656078 -0.15067777 -0.16817708 -0.1494833 0.010986624 -0.035191372 0.11705468
-0.13012855 -0.19483589 -0.017048627 0.16977656 -0.15584318 0.21689814 -0.14059117 0.358325
0.12971622 -0.19693862 -0.10987495 0.09401088 0.18030667 -0.13162316 0.23720957 -0.027950644
-0.15052609 0.1320448 -0.05993192 -0.17825648 0.17032582 -0.025622018 0.09800575 0.022968063
-0.18568015 -0.015975282 -0.0063158125 0.087064624 -0.07453691 -0.06277286 0.13264021 -0.20052148
-0.106250726 0.18399042 0.24104725 -0.19561335 -0.096336186 0.0045007914 -0.14576294 -0.11598215
-0.16802178 -0.22833836 0.19941401 0.0017068237 0.023770228 0.09734846 0.12322499 -0.020034337
-0.0036931175 -0.018458322 0.14375567 0.14983335 -0.14250675 0.14986983 0.0446641 0.20894136
-0.13884538 -0.030005828 0.14320253 0.09099505 -0.17027658 0.020529613 0.004606533 -0.045067877
0.08860336 0.112414 0.15416512 0.010492191 0.05250767 0.1403176 -0.07430584 -0.05316002
0.118835166 0.16580597 0.16116506 -0.0012916774 -0.20801245 0.17661358 -0.06826557 -0.1880887
-0.19961268 0.18942043 -0.051164404 0.08001745 -0.052417904 0.098290056 -0.054045055 0.036713943
00000000: 34cc 65bd 36da 043e 0057 07bc e29f 2f3e
00000010: e5e2 203e a2a8 543d 44fd a03d 682e 313d
00000020: 9826 aebc 001d f8ba d5df 69be 2637 903e
00000030: 682a af3c de82 4ebe 483d 60be bbc6 d6bd
00000040: f671 013d 04ed 11be dadf 4abe 8114 a3bd
00000050: 0051 6dbb 4615 573c 85c0 063d c920 db3d
00000060: c0aa 50be 9871 c0bd de1d 1bbe 2c8e a5bd
00000070: 685c 8dbe a2ac ad3d e478 1cbe 980f f93b
00000080: 441b 1f3d 652c d3bd ce9b 193e 5008 073e
00000090: efd0 c4bd 9d9b b0bd 3785 30be 1770 26be
000000a0: 58c3 8bbd 7f86 35bd a0a6 afbd 62cb 413e
000000b0: 9028 dcbc a255 0dbe 0406 2abe 56a2 e0bd
000000c0: 4ba1 383e ce3a 83bd f0c4 9a3d 9806 123e
000000d0: 9195 71be a183 cebd 5468 013e 4fbd e33d
000000e0: 04af 10be 80f3 423e 579e 013b e77e 113d
000000f0: 144d 23bd 6098 9a3b c946 893d d635 4f3e
00000100: 717c b43c 2a79 883c 16ea 2c3e 6762 4cbe
00000110: acc1 bc3d 3ab7 ed3d a321 4e3e fa37 0bbe
00000120: 6164 2d3e 8c34 4f3e b159 43be 007a 4cbe
00000130: dcb1 2abe 1476 1fbd 3ed8 aabd dd5b 1dbe
00000140: f892 65bd e441 b43d 848b c9be ecda 8cbe
00000150: 9084 9e3d 9c0c 2d3e 6fdc 44bc 4cd4 3e3e
00000160: e6d4 4a3b 16ad 323e 38b6 d83d 6831 33bd
00000170: f2ef 4d3e 8d7f 463e e471 8e3d 97df 483e
00000180: 319e e9bb e804 3fbd b5f0 0bbe 443c 15be
00000190: ddec e03c 7c21 31bc 2a59 39be 9bd4 a5be
000001a0: ee3b ddbd c1fa cdbd b95b cfbe 8f1a c9be
000001b0: 30d6 c93c 0e2c 183e 14aa dcbd 1e70 00be
000001c0: 16f9 fa3d 57ab 02be dcb1 b53d 80ad 4b3e
000001d0: 403e 913c fe5f e13d 4e82 49bd b96c 153e
000001e0: 77d6 583d 10ba c13d f4d6 a53d 5bb7 0dbe
000001f0: fdc1 51bc 9d35 e53d 15eb 04be 4254 eabb
00000200: 4b18 ecbd c43d e7bd 06c7 51bd d396 7cbe
00000210: 00d4 88bc 88a3 95bd bd54 0a3e a8e8 32be
00000220: b90a 433e e69b de3d 86e6 253e 000d ea3d
00000230: 9c13 093e 01ad 053d ab33 e33d 61c1 ccbc
00000240: 84b4 9e3e a0c6 bd3b 9e84 303e f205 32be
00000250: 7d91 35bc 9876 38be 9022 e3bd 05f0 b1bd
00000260: e0a4 8fbd f725 c1bd fc20 2a3e 8402 1cbe
00000270: 3cbb 61bd 5834 b73d 8863 6b3d 4c20 28bd
00000280: 9970 8c3d bffd 873e 464b 1abe 9d36 2cbe
00000290: 2612 19be 3e01 343c d424 10bd 5dba ef3d
000002a0: 6b40 05be 0f83 47be 90a9 8bbc e8d9 2d3e
000002b0: 5b95 1fbe 8c1a 5e3e 22f7 0fbe 6076 b73e
000002c0: 54d4 043e 47aa 49be 1e06 e1bd c788 c03d
000002d0: 50a2 383e 39c8 06be 11e7 723e c0f8 e4bc
000002e0: 8323 1abe c136 073e 2c7b 75bd de88 36be
000002f0: e469 2e3e 44e5 d1bc 3db7 c83d 8527 bc3c
00000300: f022 3ebe 98de 82bc e0f4 cebb f04e b23d
00000310: cfa6 98bd 0f8f 80bd d6d2 073e 8155 4dbe
00000320: fb99 d9bd fc67 3c3e 17d5 763e de4e 48be
00000330: e84b c5bd 607b 933b e142 15be 0d88 edbd
00000340: e70d 2cbe 88d1 69be 3033 4c3e 80b7 df3a
00000350: c8b9 c23c a15e c73d 625d fc3d 0d1f a4bc
00000360: 3b08 72bb e835 97bc b034 133e ea6d 193e
00000370: 4aed 11be 7a77 193e b4f1 363d b9f4 553e
00000380: 7c2d 0ebe c8ce f5bc afa3 123e 9d5b ba3d
00000390: fc5c 2ebe b82d a83c 66f2 963b 1899 38bd
000003a0: ae75 b53d 5039 e63d 76dd 1d3e 70e7 2b3c
000003b0: 4812 573d 6baf 0f3e a92d 98bd 52be 59bd
000003c0: da5f f33d 0ac9 293e 7408 253e 804d a9ba
000003d0: 3701 55be 31da 343e d2ce 8bbd 539a 40be
000003e0: 4467 4cbe 6ef7 413e c491 51bd 30e0 a33d
000003f0: 28b4 56bd 4c4c c93d 595e 5dbd 5c61 163d

critic.mlp.0.bias f4 [40]
0.016651642 0.03126372 0.15564317 -0.0014270686 0.024003724 -0.12614399 0.12972352 0.19067977
0.063246556 -0.13403955 -0.12377079 -0.05893601 -0.091480434 0.19863549 -0.20229082 -0.0038256063
-0.27797073 0.15072979 -0.011740172 -0.23047997 -0.059158687 -0.10145014 -0.033512447 -0.027345225
0.07544121 0.08489507 -0.03454056 -0.11021497 -0.10631888 0.2192649 -0.18110517 -0.0048253248
-0.14355162 -0.009092773 -0.147215 0.14315483 0.024320317 0.012429401 0.19535413 0.031666223
00000000: 0669 883c 630e 003d ec60 1f3e 7a0c bbba
00000010: 75a3 c43c e42b 01be 3ed6 043e 8f41 433e
00000020: 6987 813d aa41 09be 8a7b fdbd e366 71bd
00000030: 185a bbbd 1a67 4b3e 5325 4fbe 06b7 7abb
00000040: 2e52 8ebe e958 1a3e da59 40bc f102 6cbe
00000050: 6150 72bd 17c5 cfbd 5944 09bd 1803 e0bc
00000060: ec80 9a3d 77dd ad3d 677a 0dbd 63b8 e1bd
00000070: b7bd d9bd fa86 603e a273 39be c21d 9ebb
00000080: 32ff 12be dbf9 14bc 87bf 16be 2e97 123e
00000090: 673b c73c b0a4 4b3c ea0a 483e 71b4 013d

critic.mlp.2.weight f4 [1, 40]
-0.16622669 0.13737783 0.18640473 -0.20461048 0.19930466 0.045858417 0.17063269 0.19411457
-0.14366455 0.05827192 0.10765236 0.0124054095 0.07997254 0.07216667 -0.16181305 -0.16002586
-0.13325056 0.10750228 0.33361828 0.05607386 0.08816204 -0.040560555 -0.11143641 0.067242324
-0.05853137 -0.17409316 -0.17922375 -0.019399948 -0.17671631 0.09310296 -0.3666204 -0.10519923
0.10614793 0.013859353 -0.042390697 0.014586069 -0.14000985 -0.09373256 0.024116099 0.09312823
00000000: 5437 2abe c6ac 0c3e e2e0 3e3e 6985 51be
00000010: 8516 4c3e 09d6 3b3d 56ba 2e3e f8c5 463e
00000020: cd1c 13be 89ae 6e3d d778 dc3d 0f40 4b3c
00000030: a5c8 a33d 1ecc 933d 52b2 25be d2dd 23be
00000040: d672 08be 282a dc3d 04d0 aa3e b4ad 653d
00000050: 4d8e b43d d322 26bd c638 e4bd 58b6 893d
00000060: 97be 6fbd 7a45 32be 6e86 37be a4ec 9ebc
00000070: 1ff5 34be c4ac be3d abb5 bbbe b272 d7bd
00000080: 1664 d93d 5712 633c dea1 2dbd 68fa 6e3c
00000090: be5e 0fbe dbf6 bfbd 208f c53c 03ba be3d
